model_200.pt (torch, 16367 bytes, 17 tensors)

conv_layer.weight f4 [8, 1, 3, 3]
000000 e4 6c 0d 3e d5 af 6d be f6 5f 4f 3d c2 ec 37 be
       0.1381107 -0.23211606 0.050628625 -0.1796141
000010 27 19 db bd 44 52 b9 be 2a c4 5d be e3 7e aa 3e
       -0.10698157 -0.36195576 -0.21656862 0.33299932
000020 c1 75 90 3e 6a 24 b3 be 83 3d 06 bc 6f 25 7c 3e
       0.2821484 -0.3498872 -0.0081933765 0.24623655
000030 04 db 84 3e 21 cd a7 be 12 1a 99 be f5 38 80 3e
       0.25948346 -0.32773688 -0.29902703 0.25043455
000040 9d f6 93 bd f8 ef 6e be c0 89 26 3e 33 c8 66 3d
       -0.07224772 -0.23333728 0.16263485 0.05634327
000050 85 c3 0b 3e 60 ee 85 be e4 79 e0 bd 71 03 30 3e
       0.13648804 -0.26158428 -0.10960749 0.17188813
000060 d3 67 33 be 6b 92 9f bd 6b 1d 8a 3e f7 7f fb bd
       -0.17520075 -0.07791599 0.2697557 -0.12280267
000070 c6 59 00 be e0 a4 62 3e f8 de 8d bd b3 82 65 be
       -0.12534246 0.22133207 -0.069272935 -0.22413139
000080 6c 2b 2f bd 6b ad 9f bc 0d f0 19 3d 4d c7 5e 3e
       -0.04276602 -0.019491872 0.037582446 0.21755715
000090 01 a3 a4 be c6 ad c0 3d 89 46 8a 3e 0d 43 4e 3e
       -0.32155612 0.09408145 0.2700694 0.20142765
0000a0 a6 53 1d 3e 3d 69 6a 3e 62 ed 68 3e 57 c8 ab be
       0.1536394 0.22891708 0.22746804 -0.33551285
0000b0 a4 6e 69 3e d7 8e a1 be 87 5d 16 3e f7 98 60 be
       0.22796112 -0.3155429 0.14684115 -0.21933351
0000c0 71 b7 8b 3e 91 89 c1 bc f8 19 07 3e 02 d4 51 3e
       0.27288392 -0.023625167 0.131935 0.20491031
0000d0 9e 41 60 bd 3c 90 7a bd f8 d6 99 bd 01 51 56 bd
       -0.054750077 -0.06117271 -0.07511705 -0.052323345
0000e0 3b cd 9b 3e 06 a4 d1 bc 2d 77 95 be 79 fb b2 3d
       0.30430016 -0.025590908 -0.29192486 0.08739371
0000f0 d4 04 8c be dd c1 6d 3d ed 75 a7 bd 3f 7f 1d be
       -0.27347434 0.05804621 -0.081767894 -0.15380572
000100 f6 49 85 3e b3 5e 49 38 fc b6 ab be 51 94 3d bd
       0.2603299 4.801033e-05 -0.33538043 -0.046284024
000110 98 91 da 3d 3f df 59 3e e3 d6 15 be da a5 b7 3d
       0.10672301 0.21276568 -0.14632754 0.089671806

conv_layer.bias f4 [8]
000000 8f d1 74 bc 6a 50 84 3e 76 bc 06 3e b5 62 84 be
       -0.014942541 0.258426 0.1315783 -0.25856557
000010 4f 16 04 be f6 14 3e 3e 0a 21 9d 3e 84 b0 8d bd
       -0.12899135 0.18562683 0.3068927 -0.06918433

conv_block.0.0.weight f4 [4, 8, 3, 3]
000000 c0 c2 11 3d 26 3f f9 ba 58 fa 03 bc 7f b3 05 3e
       0.03558612 -0.0019016012 -0.008055292 0.13056754
000010 69 d9 3e bd 97 f8 0a 3e bb 66 e0 3c 4b 59 d9 bb
       -0.046594057 0.13571392 0.027392736 -0.006632959
000020 a1 49 2d 3c ff 9c 8e bd 24 c2 72 3b 3b 31 88 bd
       0.0105766365 -0.069635384 0.0037041986 -0.06650015
000030 5f a7 a1 3d b1 04 15 3e 16 87 73 bd 98 b4 00 be
       0.07893252 0.14552571 -0.059455 -0.12568891
000040 63 ff 55 bd e2 46 94 bd df ce b2 bd 7f c7 88 bb
       -0.05224551 -0.07240082 -0.08730864 -0.0041741724
000050 6b e3 4e bd 04 84 96 3d 3f 0e 56 3d 03 7a 6b 3d
       -0.05050985 0.07349399 0.05225968 0.057489406
000060 86 11 ae bd 6d fa a1 3d 91 a6 d5 bd e7 c6 b7 bd
       -0.08499436 0.07909093 -0.10432161 -0.089734845
000070 28 47 03 bd 46 ae 49 bd e4 9a 8b bd 9a 14 1b 3d
       -0.03205028 -0.049238466 -0.068166524 0.037861444
000080 a2 d7 1c 3b a1 76 c5 3d d6 d1 34 3c 73 6d 90 bd
       0.0023932238 0.09641767 0.011036357 -0.07052126
000090 e6 33 8b bd e2 79 b6 3d ea e4 cb bd b0 9b 45 bd
       -0.06797008 0.08909966 -0.09955771 -0.04824418
0000a0 f7 24 cd 3d bb d3 b8 bd 75 71 ea bd 64 19 d2 bd
       0.10016816 -0.090247594 -0.114474215 -0.10258749
0000b0 69 60 ea 3d d7 b5 56 3d 34 d2 95 3d 87 dc 75 bd
       0.1144417 0.05241951 0.07315484 -0.060024764
0000c0 61 19 ba 3c 39 71 e3 bd 19 3a 80 bd 57 fa e2 3d
       0.02271718 -0.1110558 -0.06261081 0.11082905
0000d0 f3 05 d8 bc 35 b1 f3 bc db e3 76 3d 7c f6 4f be
       -0.026370024 -0.029747585 0.060275894 -0.2030887
0000e0 76 da 0a 3e 4c 0e 51 bd 18 cb 2d bc 35 8d e7 3d
       0.13559899 -0.051039025 -0.010607503 0.1130623
0000f0 88 18 d3 bd d5 93 14 3e 5b ca 5c be 5c c9 4b bd
       -0.10307413 0.14509518 -0.21561567 -0.04975258
000100 91 76 7f 3c 66 95 d3 bb 65 0c 64 bd 3b 7e b1 3d
       0.015592233 -0.0064570187 -0.055675883 0.08666655
000110 5d f1 fc 3d 48 b9 c0 3d 61 1c 53 3c e0 19 8d bd
       0.12350724 0.094103396 0.012885184 -0.06889701
000120 91 62 f6 bd 78 97 98 bd 56 c8 c9 bd 60 4b c4 3d
       -0.12030519 -0.07450765 -0.09852664 0.09584689
000130 00 18 a1 3d 8e 81 6d bd e2 8f 0c be 9e bc 7d bd
       0.07865906 -0.05798488 -0.13726762 -0.061947457
000140 de 93 ad bc 0c aa a7 bd 87 4d a6 bd 0e 4a 89 bd
       -0.021188673 -0.08186731 -0.08120256 -0.06703578
000150 44 6e 0c bd 7a fe 23 3e 75 46 95 bd be e6 c0 3d
       -0.034284845 0.16015044 -0.07288829 0.094190106
000160 c5 f1 17 bd ee f9 6f 3d 09 60 c1 3c c0 fc cd bc
       -0.037095804 0.05858796 0.023605363 -0.025144935
000170 74 89 80 bd 17 3c f3 bd a0 02 bc 3d 13 da 67 3d
       -0.06276217 -0.118766956 0.09180188 0.056604456
000180 97 c3 2f 3c 89 b3 b3 bd f9 01 d7 bd d4 d9 24 bd
       0.010727785 -0.08774478 -0.10498423 -0.0402468
000190 01 d4 de bc 42 42 e6 bd af ba 54 bd ec fc b6 bd
       -0.0272007 -0.112431064 -0.051935848 -0.0893496
0001a0 3a 5a f1 3b 97 98 c9 3d a9 d0 bc bd 77 69 5b bd
       0.007365492 0.09843557 -0.09219486 -0.053567376
0001b0 ef d6 f7 bd 33 d1 de 3d af fb d1 3d b0 4d 0e bd
       -0.12101542 0.10879745 0.10253083 -0.034742057
0001c0 fb 20 d1 bd 84 05 a7 bc 66 ec db bd ea e4 d0 bd
       -0.10211369 -0.020388372 -0.10738449 -0.10199912
0001d0 d4 f3 e6 3d 3f fa e6 bc e1 07 a4 3d 41 41 c4 3d
       0.11276975 -0.028195499 0.08009315 0.09582759
0001e0 12 28 b3 bc 64 a8 44 3c ca e0 da bd ea 89 e9 3d
       -0.021869693 0.012003038 -0.10687406 0.11403258
0001f0 fb f1 a4 bd ec 6d c3 3d 08 60 35 3d 70 bc 8c bd
       -0.080539666 0.0954245 0.044281036 -0.06871879
000200 a0 1e 35 3e 63 e9 ab b9 24 43 1d 3e 0b cd 0f bb
       0.17687464 -0.00032789548 0.15357643 -0.0021942283
000210 cb 26 d5 bc 38 ee 31 3c eb 82 cd 3c bd 1b 98 3d
       -0.026019474 0.010860018 0.02508684 0.07427166
000220 fc 44 a9 bd 6d 67 17 3c ce 62 a4 bc 07 3a 66 3c
       -0.08265111 0.009240967 -0.020066645 0.014051921
000230 89 44 05 bc d2 02 17 3d 2f 2b b0 bd e4 0d b0 3d
       -0.008134016 0.036867924 -0.086019866 0.085963994
000240 27 ba d7 3d d1 ab 01 3d e3 11 9a bc 4b 1e be bd
       0.105335526 0.031657998 -0.018807357 -0.09283122
000250 30 0d 98 3c 98 d5 e4 bb 6b 73 c5 bc c8 ab 94 bd
       0.018560976 -0.00698347 -0.024102887 -0.07259327
000260 9b 0e 85 bd c4 51 6c bd ed 5c 9d 3d 6e df 93 bd
       -0.064969264 -0.057695165 0.0768374 -0.0722035
000270 42 91 8b bc 04 7b e2 3d 9a 4b 86 3d 29 14 74 bc
       -0.017037038 0.110586196 0.065573886 -0.014897385
000280 3a 10 d6 3d 46 98 10 be c2 97 91 3d 30 82 64 3d
       0.10452314 -0.14120588 0.07109024 0.05578822
000290 22 52 d5 3d 87 47 c7 bd b4 75 32 3d 39 1b ef 3d
       0.10416056 -0.0973044 0.04356928 0.11675114
0002a0 68 af 8f 3c d6 f4 3e bd 7b ce 3d 3d 31 14 12 bd
       0.017539695 -0.046620212 0.046339493 -0.035663787
0002b0 af 88 17 3d 5b 33 da 3c 84 e1 4d 3d f8 99 fa bd
       0.036995586 0.026635816 0.050263897 -0.122363985
0002c0 72 71 94 bd 9a 1a 01 3d 34 10 5b 3b ae 6b 1a 3d
       -0.072482005 0.03151951 0.0033426406 0.037700348
0002d0 80 d8 52 bd 77 d0 87 3b 80 4b 84 bd 40 3d a1 bd
       -0.051476 0.004144724 -0.06459713 -0.07873011
0002e0 25 49 82 bd 9c 84 15 3d 60 d1 58 3d b5 e3 37 3d
       -0.063616075 0.03650342 0.05293405 0.044894893
0002f0 96 13 10 3b d7 d7 9a 3c fa 72 1d 3d 85 3d 89 bb
       0.002198433 0.018901749 0.03843973 -0.004188242
000300 65 29 4e 3d b5 24 99 bd 7f 16 b5 3d 1d 68 f7 bd
       0.050332446 -0.074777044 0.088421814 -0.12080405
000310 eb 43 de 3d 6f fa 86 bc 2f e1 b7 bd 72 9d d6 3d
       0.10852798 -0.016476838 -0.08978497 0.10479249
000320 d6 c3 2f 3c fa a2 c7 bd 58 a1 63 3c ba 7b 25 3e
       0.010727843 -0.09747882 0.013893448 0.16160479
000330 73 0f 86 3d bd af ff bd 9f 14 18 3e 20 a8 8c 3c
       0.065459155 -0.12484691 0.14851616 0.017170012
000340 1c 8a eb 3c cf 31 6d bd 08 84 48 3d 45 05 17 be
       0.02875238 -0.05790883 0.04895404 -0.14748104
000350 0f e1 10 bd 34 3a c1 3d e7 6d e9 3c 94 ac 15 be
       -0.035370883 0.094349295 0.028494788 -0.14616615
000360 b6 d3 8c 3c f1 cd 0f be f8 be b2 bd 4d a2 5e 3d
       0.017190795 -0.14043404 -0.08727831 0.054354
000370 65 ea f4 3d e8 d2 98 bc e3 c2 e4 bd a1 04 14 bb
       0.1195877 -0.018655255 -0.11169984 -0.0022585767
000380 a9 0e 91 bd ea 99 17 bd ea ab 6c bd c7 59 7b bd
       -0.07082874 -0.03701202 -0.057781138 -0.061364915
000390 46 78 7e bc 32 e1 ef 3d a0 cd 4e bd 80 f9 77 3d
       -0.015531605 0.117128745 -0.050489068 0.060540676
0003a0 86 ed 21 be a3 e7 e3 3c e7 5d d3 bc c7 0b a8 bd
       -0.15813264 0.027820414 -0.025801612 -0.08205371
0003b0 ad c9 64 3c 38 ca 6a bd ca 65 cc bb be 77 22 bd
       0.013964099 -0.057321757 -0.00623772 -0.039664976
0003c0 5b 3b bf bc 0b 55 97 bb 5d d2 0f bd 39 55 3b 3d
       -0.023343733 -0.004618292 -0.035112727 0.04573557
0003d0 f7 4d cf 3c 48 b5 9c bd b1 04 0a be d6 28 72 bd
       0.025305731 -0.07651764 -0.13478352 -0.059120975
0003e0 7b d8 c7 3c 00 d4 85 bb 63 78 92 bd 55 4a 19 3b
       0.024395218 -0.0040841103 -0.07151868 0.0023390253
0003f0 a7 43 24 bd 6a e7 ac 3d 3f fe 61 bd e0 eb 80 3d
       -0.04010358 0.08442576 -0.05517411 0.062949896

conv_block.0.0.bias f4 [4]
000000 59 f6 3d bd 69 60 cf bd 25 1b ac bd b4 86 78 bd
       -0.046377514 -0.10125811 -0.08403615 -0.060675338

conv_block.1.0.weight f4 [4, 8, 3, 3]
000000 77 b8 f6 3b 8d 7c 87 bc 25 32 ac 3c 73 d9 09 3a
       0.007529314 -0.016538883 0.021020005 0.0005258538
000010 e4 11 e2 bd 21 e2 72 3d d1 eb b7 bd 94 f1 21 bd
       -0.110385686 0.059297685 -0.08980525 -0.039537027
000020 db 68 ea bd ef a5 ac 3d 18 1f 30 3e 7e f0 cc bd
       -0.11445781 0.08430087 0.17199361 -0.10006808
000030 28 c3 97 bc 21 cc 73 be 2d 5c cc bd 7f d2 8b 3d
       -0.018525675 -0.23808338 -0.09978519 0.06827258
000040 48 06 93 3c a9 11 b8 3d 8c 7a 82 3d b4 43 88 be
       0.017947331 0.089877434 0.0637103 -0.26614153
000050 2e cc 1f 3e e6 2c 01 bc 6b a3 b5 b9 8e 93 8d bd
       0.15605232 -0.00788424 -0.00034644766 -0.069129094
000060 e5 2e d0 3c f2 90 c8 bd aa 62 35 3e 2a 09 29 bd
       0.025412986 -0.09793271 0.17713419 -0.041268505
000070 86 c1 d4 3b 8e e3 38 be e5 b4 c2 3d 6d ba 3f be
       0.0064927964 -0.18055555 0.09507159 -0.1872346
000080 a3 cd f9 3c fd 41 70 3d 41 64 05 3e 34 37 8f 3d
       0.030493563 0.05865668 0.13026525 0.06992951
000090 27 f5 99 be 3d d5 4d 3d e2 a1 7f 3d b7 63 16 3c
       -0.3006985 0.050252188 0.062410243 0.009179047
0000a0 5e 2e 83 3d 5a d0 07 be 4c 13 65 bb 43 b2 6d 3d
       0.06405328 -0.13263074 -0.0034954129 0.05803133
0000b0 61 e1 27 be 14 2a 03 3e 12 73 e9 bb 20 68 46 3d
       -0.16394569 0.1280902 -0.007124313 0.048439145
0000c0 77 d5 e1 bd 38 b2 f6 3d be 1b 7e 3c 3c 99 c7 bc
       -0.11027043 0.12045711 0.015509544 -0.02436506
0000d0 aa d3 48 3d 49 89 ee bd 2c 98 3a 3d 87 26 95 3c
       0.049029984 -0.11647279 0.04555528 0.018206848
0000e0 76 51 11 be 1d d2 ac bd 0e b9 b7 bd 54 d7 3d 3c
       -0.14191231 -0.084385134 -0.08970843 0.011586983
0000f0 79 71 e8 bd 1b 54 f1 3d b9 95 a4 3d da df b2 3c
       -0.11349768 0.1178362 0.0803637 0.021835256
000100 bb 4b 7c 3d e3 85 f8 3d f2 a1 6b bd cc 44 ac bd
       0.06159566 0.12134912 -0.05752749 -0.084115595
000110 7c 13 30 bd 81 78 f7 bc 8d 95 5d 3d 83 15 22 bd
       -0.04298733 -0.030208828 0.0540977 -0.039571296
000120 1a 5b 5b 3d c4 b5 5e bd ba 42 94 3d eb d9 97 bc
       0.053553678 -0.054372564 0.072392896 -0.018536529
000130 23 86 fa bb 64 77 97 bd 79 6d 8f bb c7 f2 84 3d
       -0.007645385 -0.07395819 -0.004377064 0.064916186
000140 55 c5 e6 3d d6 0c 8e 3d 5b 0a 9c 3d 73 45 98 3c
       0.11268107 0.06936042 0.07619163 0.018587803
000150 dc 4c 97 bc e7 f6 38 bd 09 0d df 3d 98 dc 10 3e
       -0.018469267 -0.04515734 0.10891158 0.1414665
000160 2c e8 56 3e 2d be 09 3e f5 08 6b bd 19 a4 5d 3d
       0.20987004 0.13451453 -0.05738159 0.054111574
000170 6c bd 18 3d 07 51 81 3e fb 41 55 bc 4e 0e 39 3d
       0.03729002 0.2525713 -0.013016219 0.045179658
000180 3a df db 3d fb 8f 7a be a1 50 ad 3d 12 ba fa bd
       0.107359365 -0.24468987 0.08462644 -0.12242521
000190 7c 1e 40 3e d3 d0 a2 3d 6b 0a 05 be e0 88 0c be
       0.18761629 0.07949986 -0.12992255 -0.13724089
0001a0 69 a0 69 3e b1 55 a7 3d 97 76 9e 3e bc 47 1b 3c
       0.22815098 0.08170641 0.30949852 0.009477552
0001b0 f3 08 2f be e0 9c 2b 3e 6f 24 f3 3a e7 4c 26 3e
       -0.17093258 0.16759062 0.0018550287 0.16240273
0001c0 3f 31 02 3e d7 1a 3a be 23 b8 33 be c9 0c e3 bd
       0.12714098 -0.18174301 -0.17550711 -0.11086423
0001d0 6c ce 84 bd 85 07 27 bb b0 10 67 bd 13 bd ca bc
       -0.06484684 -0.002548666 -0.0564124 -0.02474836
0001e0 cb 87 ec 3d 89 17 25 bd e6 68 63 bd 66 e1 ef bc
       0.11549338 -0.040305648 -0.05551996 -0.029282283
0001f0 d0 48 da bd f5 57 0a 3d 84 c9 9e 3d 9a 10 e4 bc
       -0.10658419 0.03377529 0.0775328 -0.027839947
000200 6c 46 19 bc 89 0a 3e bd 86 6e 28 bc ec c4 2c bd
       -0.009355169 -0.046396766 -0.010280257 -0.042179987
000210 cf 90 c0 bd 59 b0 57 3d 5a 94 9c 3c ce 9e 74 3d
       -0.0940262 0.052658413 0.019113708 0.05972176
000220 fa a9 c8 3b 09 d0 73 3d e4 5d c9 3d 62 b4 cb 3d
       0.0061237784 0.05952457 0.09832361 0.09946515
000230 41 38 ed bc 90 dd 47 bd a9 1e 45 bd c7 b0 b1 3d
       -0.028957488 -0.048795283 -0.048124943 0.08676296
000240 23 0a 2e 3c 47 c0 51 3a 8f f2 de 3b 24 47 d5 3c
       0.010622534 0.0008001369 0.0068038176 0.026034899
000250 22 b0 e8 bb 03 63 ad bc 63 c4 be bc 30 21 67 bd
       -0.007101075 -0.021165377 -0.023287004 -0.056428134
000260 c9 e6 34 bd 5f 9f f4 bd 57 92 05 bd cc 6b 1b bd
       -0.044165406 -0.1194446 -0.032610264 -0.0379446
000270 d1 c8 8f 3d 5c aa 06 3c 07 4e 9d 3c 4c 70 83 bb
       0.070207246 0.008219328 0.019202245 -0.0040111896
000280 26 82 3e 3d 21 6f db bb a8 64 ad 3e 47 01 67 bc
       0.046510838 -0.006696597 0.33865857 -0.014099426
000290 71 f9 7a 3b 88 e5 60 3c 92 75 96 be 35 8d 2b 3d
       0.0038295651 0.0137265995 -0.29386574 0.041882712
0002a0 79 56 8e 3d 87 6e 23 be 9f f0 02 be 5b 8f f8 bd
       0.06950087 -0.15960132 -0.12787102 -0.12136718
0002b0 19 bd 4b 3d d0 e5 55 bd 9c 45 e5 3d 52 d4 f5 bd
       0.049740884 -0.05222112 0.111949176 -0.120033875
0002c0 00 3b d1 bd 91 10 c0 bd c0 05 8b ba 49 e5 e1 39
       -0.102163315 -0.0937816 -0.0010606572 0.00043086175
0002d0 7e 13 be bc fc f6 85 bd 6e fb 82 3d b7 23 25 bb
       -0.023202654 -0.06541249 0.06395613 -0.002519829
0002e0 b2 8a fb bd c2 04 87 3e 13 5d 54 3c 8a 47 71 3d
       -0.122823134 0.26370817 0.012961644 0.058906116
0002f0 15 e0 ca 3c 4b b2 96 3d df a2 fc 3c fb 7d d9 bc
       0.024765054 0.073582254 0.030839382 -0.02654933
000300 fa 4f 3b bd 7b 72 fd bd b4 a4 e0 ba b6 dc c3 bd
       -0.04573057 -0.12375351 -0.0017138929 -0.09563582
000310 5e 11 af bd e9 bb c5 bd 3e 12 38 bd ae 2e 3a 3d
       -0.085482344 -0.09654982 -0.044939272 0.045454673
000320 59 3f 7a bd 6f 4c 99 bb c5 82 cb bd 48 cc 1b 3d
       -0.06109557 -0.004678301 -0.09937052 0.038036615
000330 ea fb a8 3c 97 87 80 3d e1 4c 67 3d 6d c4 cf 3b
       0.020627934 0.06275862 0.0564698 0.0063405544
000340 18 9b cd bd a8 59 c7 bd db 8e 45 3d 6e 90 fa 3d
       -0.100393474 -0.097338974 0.04823194 0.12234579
000350 4a 37 d1 3d 98 58 08 3d 91 66 31 3d 2d 1b 4e 3d
       0.10215624 0.033287615 0.043310706 0.050318886
000360 04 6d 09 be 0f 97 8b bd c2 33 73 3d 17 ba e1 bd
       -0.13420492 -0.068159215 0.059375532 -0.11021822
000370 66 2a 08 3e 12 d4 af 3d ef 24 43 3d 74 c5 0f bd
       0.13297424 0.08585371 0.047642644 -0.035100415
000380 15 cb 8a bc 09 c9 c3 bd e7 9b 86 bc 6a 7e e4 3d
       -0.01694254 -0.09559829 -0.016431762 0.11156924
000390 18 28 9c 3c 07 98 a8 3d 94 54 c3 bc 98 ef 22 3d
       0.019062087 0.08232122 -0.02384404 0.039779276
0003a0 61 1e 00 3e fc 38 2c 3d c0 b0 80 3e cd 2f b2 3d
       0.12511589 0.042046532 0.2513485 0.087005235
0003b0 54 f2 8e be af 50 b3 bd 1c 19 b4 bc 03 91 19 be
       -0.27919257 -0.087556235 -0.02198463 -0.14996724
0003c0 a7 53 18 3e 3a d7 59 3d 3c 59 16 3d 8a 9f b8 bd
       0.14875661 0.05318377 0.036706194 -0.09014805
0003d0 75 b0 1b 3d e4 ba 6d 3c 17 9f 1f be 86 7b d9 3b
       0.03801008 0.01450989 -0.15588032 0.0066370396
0003e0 a6 7e 4b 3d 6c 86 1e 3e 67 54 27 3e 17 88 11 be
       0.04968133 0.15480965 0.1634079 -0.1421207
0003f0 2b 05 07 3e 9c f3 d9 3d 6d 63 e6 bd 99 c4 1e 3e
       0.13185565 0.10642168 -0.11249433 0.15504684

conv_block.1.0.bias f4 [4]
000000 cd b1 58 3d 6c 59 bd bd 7b 41 f7 3c 25 c1 60 3b
       0.05290394 -0.092455715 0.03018259 0.003429481

conv_block.2.0.weight f4 [4, 8, 3, 3]
000000 87 73 8c bd 30 fe b1 bd 88 d0 8d bd 44 34 fe 3d
       -0.068579726 -0.086910605 -0.0692454 0.124123126
000010 6e ba 56 3a 36 02 68 bd 86 5a 54 ba 20 7a 0a be
       0.00081912323 -0.056642734 -0.0008100647 -0.1352315
000020 58 48 6b 3c ab 34 77 3d fa 1f 7b bd 21 79 8d 3d
       0.01436051 0.060352962 -0.061309792 0.06907869
000030 14 90 21 bd d1 f3 10 3d 13 91 13 3d 83 54 64 3d
       -0.039444044 0.03538877 0.036027025 0.05574466
000040 11 2d 0b be 73 28 15 3d 58 04 d0 bd c4 ef af 3d
       -0.1359141 0.03641553 -0.101570785 0.085906535
000050 6d 8b 9d 3d 94 30 db 3d 74 3d 83 bd 86 bf 5d bd
       0.07692609 0.10702625 -0.06408206 -0.05413773
000060 de 1d a3 bd d8 62 2a bc a6 da af 3d a3 c9 68 bd
       -0.07964681 -0.010399543 0.08586626 -0.05683292
000070 d8 43 bc bd 2c 21 a5 3b bd 40 21 3d 92 ce 05 bd
       -0.09192628 0.005039355 0.03936838 -0.032667704
000080 d1 a0 c5 3d 43 7b e5 bd a3 96 dd 3d 99 2d a6 3d
       0.09649814 -0.11205151 0.10819747 0.08114166
000090 79 88 4f 3e 7c 98 05 3e 91 b3 06 3d de 48 ee bd
       0.20266904 0.1304645 0.03288609 -0.11634992
0000a0 42 78 2f bd 22 73 22 3e d9 1e 25 bd 84 36 83 3e
       -0.042839296 0.15864232 -0.04031262 0.2562753
0000b0 ee e2 bd 3d 39 b4 5d bd 08 47 1c 3d 7b 50 93 bd
       0.09271799 -0.05412695 0.03815368 -0.07193085
0000c0 1a 9e ea bd ce 08 f3 bd 11 f9 a5 3c 13 86 21 3e
       -0.11455937 -0.11866914 0.020260366 0.15773802
0000d0 14 d6 c3 bc 2c e4 93 3d 60 d5 30 be d6 f6 5e 3d
       -0.023905791 0.07221255 -0.17268896 0.05443462
0000e0 f9 00 a4 3d f8 56 0b bd 8a 02 84 bc b7 df 13 3d
       0.08007998 -0.034018487 -0.016114492 0.036102023
0000f0 2a 08 0e 3e 9f ae fb bc f2 20 89 bd 05 cd 0e be
       0.13870302 -0.030722914 -0.06695737 -0.13945396
000100 0d db b2 3d a2 a1 1c 3e 17 52 be bc 5b ab 5d 3d
       0.08733187 0.15296033 -0.023232503 0.054118495
000110 b4 4b 41 bd 80 44 cf 3d 10 66 d0 bc 51 9e 46 be
       -0.047191337 0.10120487 -0.025439292 -0.1939633
000120 b0 98 90 bd bd c7 ca 3a 6b 3f f4 3c 3c 18 99 bd
       -0.07060373 0.0015470904 0.029815396 -0.074753255
000130 fd e3 9f bd 54 c7 8d bd f3 1d c9 bc 8f e1 e3 bd
       -0.07807157 -0.069227844 -0.024550414 -0.11127006
000140 83 63 80 bd 84 2b 9e bc 2d 7b b0 3d ac 3c eb bd
       -0.0626898 -0.01930786 0.08617244 -0.114861816
000150 5a a2 6a 3b e6 3a 7a bd e8 bc 25 be 46 08 94 bd
       0.0035802335 -0.061091326 -0.16185343 -0.072281405
000160 52 d8 29 be 38 d8 c8 bd 49 10 66 3d ee 55 92 3d
       -0.16586426 -0.098068655 0.056167874 0.07145296
000170 69 de e9 bd 84 9f 20 3d 9a cf ba 3d b7 b2 e7 bd
       -0.114193745 0.039214626 0.09121628 -0.11313384
000180 a5 d9 57 bd cf 41 21 bd 42 16 de bd f5 fb c9 bd
       -0.052697796 -0.0393694 -0.10844089 -0.0986251
000190 d4 0d 16 bd 01 db 91 bd ef f6 e8 3d 13 27 8a bd
       -0.03663428 -0.0712185 0.11375224 -0.06745734
0001a0 9b 94 30 3c a8 d0 db 3d 0a 26 9b 3d 95 3e 20 3d
       0.010777618 0.107331574 0.07575615 0.039122183
0001b0 4b 99 04 3e 1c 7c ba 3c f5 ab 60 3a 2b 48 61 bd
       0.12949102 0.022764258 0.00085705455 -0.055000465
0001c0 75 98 ea bd ff 74 9c 3d ae 54 29 3d 39 ca 64 3d
       -0.1145486 0.07639503 0.041340522 0.055856917
0001d0 0d 06 09 3e 87 e9 92 3d f3 bd 84 3c 33 6e 9d bd
       0.13381214 0.07173448 0.016203856 -0.076870345
0001e0 d0 f9 dc bc d0 b4 d1 bd 31 aa 8e 3d a7 25 c8 3d
       -0.026974589 -0.10239565 0.06966055 0.097728066
0001f0 44 31 3b bd a8 d0 df bd c7 01 b0 bd 02 dd 07 bd
       -0.04570128 -0.1092847 -0.08594089 -0.033169754
000200 a4 18 07 3e da 24 d0 3c b9 7f 0a be 56 7c fb 3c
       0.13192993 0.025408197 -0.13525285 0.030698936
000210 b4 61 16 3e 16 03 54 be a5 18 fa bd 09 ea a4 bc
       0.14685708 -0.20704302 -0.12211732 -0.020131128
000220 9d 1b f1 bc e9 c9 c7 3d fa fd a6 bd bb df 89 3d
       -0.029432112 0.09755308 -0.08153911 0.06732126
000230 53 be 81 bd 4a e5 04 be 7d a3 09 3d e5 46 07 bd
       -0.063351296 -0.12978092 0.03360318 -0.033026595
000240 b2 ef ad bd 7a 19 19 3e cb d2 66 3c af e0 3d b9
       -0.08492984 0.14951125 0.014088343 -0.00018108146
000250 bb ee 66 bd dd 3f c1 3d c6 ca a9 bb 31 14 92 bd
       -0.056380015 0.09436009 -0.005181643 -0.071327575
000260 bb 2a 04 3e 6f 66 c6 bc 34 6d aa bd 22 ff 19 3e
       0.12906925 -0.024218766 -0.0832161 0.15038732
000270 4b cb 97 3d fe 14 4b 3e 12 21 8b bd cb 9d 08 3d
       0.07411822 0.19832227 -0.06793417 0.033353608
000280 23 89 15 be 87 4a c7 bc c5 73 66 3d dc b1 24 bd
       -0.14603095 -0.02432753 0.05626275 -0.040208682
000290 2d 7a 09 bd 9f aa cf bd c8 f9 54 3d 90 5b de 3c
       -0.03356378 -0.10139965 0.051996022 0.02714327
0002a0 36 8c b7 bc 3c 96 3f 3d 32 3a 09 3d c8 fc 9f bd
       -0.022405725 0.046774134 0.033502765 -0.07811886
0002b0 64 1f e5 bc ac 63 36 3d 87 83 36 ba 69 0e 06 3c
       -0.02796907 0.04452865 -0.0006962348 0.008182147
0002c0 67 e1 30 bd fd 98 a0 bd a8 a8 97 3d 3a 09 12 be
       -0.04318371 -0.0784168 0.074052155 -0.14261332
0002d0 94 ad 39 bd f4 d9 bb bd 7d 5e 92 3d 5d c2 0e 3d
       -0.045331553 -0.09172431 0.071469285 0.034853328
0002e0 70 2b 2d 3e bf 38 cf 3d d3 1c 41 3e 70 69 29 3e
       0.16911101 0.10118245 0.18858652 0.16544127
0002f0 e5 00 d6 bd f7 5d cf 3b 89 7e 2c 3c eb 41 2f bc
       -0.10449389 0.00632834 0.010528215 -0.010696868
000300 bb 84 6f bc 2d 27 28 bd 47 d6 46 3e 51 98 8d 3d
       -0.014619048 -0.041052986 0.19417678 0.06913818
000310 36 e4 2d 3e 00 04 6f bd 1c 05 0c be 12 27 1c 3e
       0.16981587 -0.058353424 -0.13673824 0.15249279
000320 48 cb 89 3d 44 2d fe bd 3d 28 b2 3c c3 c7 c4 bd
       0.06728226 -0.124109775 0.021747703 -0.09608414
000330 d2 7d f2 b9 05 ad a0 bd 56 94 a3 bd be d2 97 bd
       -0.0004625158 -0.07845501 -0.07987277 -0.07413243
000340 91 53 f8 bd 7e 8d e8 bd a0 a2 b5 bb 2a 3b c0 bd
       -0.12125314 -0.113551125 -0.005543068 -0.09386285
000350 48 b1 e7 3d 92 8e 1f 3e 3e 03 fb 3d 89 eb d8 3d
       0.113131106 0.1558173 0.12256478 0.105918
000360 ba fc ec bc 0e a7 2f bd 14 75 3e bc 4b 0b a5 3d
       -0.028929103 -0.042883925 -0.011624593 0.080587946
000370 11 2b fb bc 27 69 18 3e 40 66 6a 3b 23 c2 59 bd
       -0.030660184 0.14883862 0.0035766512 -0.05316366
000380 8b 90 48 3c f6 a3 f4 3d 57 a6 f7 bc 2e dd 09 be
       0.012241493 0.119453356 -0.030230684 -0.1346328
000390 2e 94 5d bd fa b0 24 3d c8 56 3c 3e ab f8 09 3d
       -0.054096393 0.04020784 0.1839248 0.033684414
0003a0 e5 9a a3 bc ef d5 c3 bd dc 8f 38 bc ca 08 2a bd
       -0.01997132 -0.09562289 -0.0112647675 -0.04151229
0003b0 89 1f f7 3c e1 60 5d 3d 2a ef d9 ba a5 9a 89 3d
       0.030166404 0.05404747 -0.0016627063 0.06718949
0003c0 fc cc d4 3d 05 e6 08 be f7 fc a0 3d 2f 6e d2 3d
       0.1039066 -0.13368995 0.07860749 0.10274922
0003d0 35 78 09 3d 67 bf 07 3c b4 2a 06 3d ff 85 09 bd
       0.033561904 0.00828538 0.03275557 -0.033575054
0003e0 f2 e6 0e 3e ba e0 16 bb ff 6a df 3d a7 ae bc 3d
       0.13955286 -0.002302213 0.1090908 0.09213
0003f0 89 d3 9e 3c ba 30 4d 3c 5b 44 4f 3d a2 f8 90 ba
       0.019387977 0.012523824 0.0506023 -0.0011060426

conv_block.2.0.bias f4 [4]
000000 c4 46 93 3c 74 72 be 3d 1d e6 ae bc 11 46 3c bd
       0.01797808 0.09299174 -0.021349961 -0.045965258

conv_block.3.0.weight f4 [4, 8, 3, 3]
000000 b0 43 89 bd 03 b6 c9 3d 63 d8 33 bb 84 16 f0 bd
       -0.067023635 0.09849169 -0.002744221 -0.117230445
000010 1a 53 de bd 19 50 be bd 7c f4 a1 bc 91 48 a7 bd
       -0.10855694 -0.09292621 -0.0197699 -0.08168138
000020 43 7a ef 3d 99 d6 05 3e 58 04 e8 3d 5b a0 97 bd
       0.116932414 0.13070144 0.113289535 -0.07403632
000030 af 04 12 3e 21 d3 51 bd e7 ec 50 3d e8 cd 7f 3d
       0.14259599 -0.05122674 0.051007178 0.062452227
000040 54 02 a2 ba 14 81 1a 3e a2 f3 4c be 67 db c8 bc
       -0.0012360313 0.15088302 -0.20014814 -0.024518682
000050 e4 21 03 3e 75 49 4d 3e d2 02 6e 3e d6 75 64 be
       0.12805897 0.20047553 0.23243263 -0.22310576
000060 16 96 b5 3d 6a 1a 50 be 7c 77 23 3e 7a 04 f0 3b
       0.08866517 -0.20322576 0.15963548 0.0073247524
000070 d0 60 33 3e 57 00 e8 bd 96 1b 3a bd 09 b6 b3 3c
       0.175174 -0.1132819 -0.045436464 0.021937387
000080 07 81 1a 3e 1b 62 40 3d 17 a1 ee 3d bc 4d 9a bd
       0.15088283 0.04696856 0.11651819 -0.07534358
000090 e3 ca 81 bd 68 40 87 bd dc 87 a8 bc d3 2e d5 bc
       -0.06337526 -0.066040814 -0.020572595 -0.026023304
0000a0 8d c6 e6 3d 58 03 8c 3d c2 44 c9 3d 65 08 fa 3b
       0.11268339 0.06836575 0.09827568 0.0076303952
0000b0 d1 8e b0 bd fc cb ee 3d 22 f4 89 bc 20 6e 7b ba
       -0.0862099 0.11660001 -0.016840044 -0.00095913
0000c0 fb 92 07 be d6 b0 25 bd 95 8f 23 3e 00 f2 85 3e
       -0.13239662 -0.040451847 0.15972741 0.26161194
0000d0 22 93 c4 bd ac 72 4b be 34 cb 71 bc d4 00 00 3e
       -0.09598376 -0.19867963 -0.01475792 0.12500316
0000e0 c0 56 ac bd dd 05 0d 3d b1 37 3e 3d d0 86 9b 3d
       -0.08414984 0.03442942 0.04643983 0.07594073
0000f0 28 71 ff bb 70 40 e9 3d 98 0a d6 bd 97 7d eb bd
       -0.0077954717 0.113892436 -0.10451239 -0.11498564
000100 31 89 db bd fe cf ba 3d 9c 57 d4 3d e0 71 a7 3c
       -0.107195266 0.091217026 0.10368273 0.020440042
000110 92 a7 6a 3d 54 48 ff 3d c2 27 e9 3d 9d d9 a5 3b
       0.057288714 0.12464967 0.11384536 0.005061342
000120 27 86 ec bc 85 a7 54 3d 9b f6 0a 3e 4a 28 7d 3d
       -0.028872563 0.05191757 0.13570635 0.061806
000130 65 14 42 3d 27 e1 2d be e1 69 64 3c 9a 4a 97 3d
       0.04738273 -0.1698042 0.013941259 0.07387276
000140 c7 51 0b 3e 0d b4 98 3d ac 5e 46 bd d4 2f 24 bd
       0.13605414 0.07456217 -0.04843013 -0.040084675
000150 d3 a5 03 3e b8 34 c0 bd ef 52 a4 3c ea a0 e3 bd
       0.12856226 -0.09385055 0.020059077 -0.11114676
000160 3f 89 b0 bd bb 9e 6d 3d e0 aa ee bc a7 aa e5 be
       -0.086199276 0.058012705 -0.029134214 -0.4485676
000170 ce 46 5c 3e 93 29 ae be c3 f3 80 3c c1 21 18 3e
       0.21511385 -0.34016094 0.015741235 0.14856626
000180 cf 87 e1 3d 00 62 5a 3e 45 24 2e be 07 bc 81 3d
       0.110122316 0.21326447 -0.17006023 0.063346915
000190 4c 32 30 3d 74 c3 8a 3d d3 08 08 be f5 d3 da bd
       0.043016717 0.06775561 -0.13284616 -0.10684959
0001a0 dc 30 ee bd b6 80 e4 bc ab e1 57 bd 70 0c 7d 3d
       -0.11630413 -0.027893405 -0.052705448 0.06177944
0001b0 e5 87 25 3d bb 1e 07 3c ed 42 92 bc 65 d3 c2 3c
       0.040412802 0.008247073 -0.017854178 0.023782441
0001c0 b6 3a 74 bd 62 7a 18 3d de fa ae 3d c7 49 38 bd
       -0.059626304 0.03722609 0.08543943 -0.044992235
0001d0 0c d6 a0 bc b6 73 ae bd 31 0b 48 bd b7 53 9f bc
       -0.019633316 -0.08518164 -0.048838798 -0.019449098
0001e0 6b 7f 17 be 38 fe 82 bd 70 ba 63 be c1 d6 7f be
       -0.147947 -0.06396145 -0.22239089 -0.24984266
0001f0 ba d8 88 3e d3 d4 ce bd 06 fe 3f bd a6 f0 d3 bd
       0.2672785 -0.10099187 -0.046873115 -0.103486344
000200 bf a0 d4 bd 40 bc 30 3c c4 04 a6 bd 72 78 43 bd
       -0.103822224 0.01078707 -0.08106378 -0.047722287
000210 ba 6f c7 3d f1 8b 89 3d c8 f7 ce bc 14 c0 18 3d
       0.09738107 0.06716145 -0.025264636 0.037292555
000220 4b 3d 13 be 2e 51 cf bb c2 7a dc 3c 6f 4f 8f 3d
       -0.1437885 -0.006326816 0.026914004 0.06997573
000230 56 8b b3 3d ae b9 ea 3c 0e c4 39 bc 49 77 aa bd
       0.087668106 0.028652992 -0.011338247 -0.08323533
000240 96 db 4d 3e 4d 6d 30 3d 78 46 1f bd b9 f2 91 bc
       0.20103297 0.043072987 -0.038885564 -0.017815934
000250 8d 97 94 3d 05 4f 28 3e 4a 37 e9 3c 84 1a d4 3d
       0.072554685 0.16436394 0.028468747 0.1035662
000260 7f 36 4c bb 69 e1 7f bd 4f 48 2e bd ae 0e 61 3d
       -0.0031160412 -0.062470827 -0.042549428 0.05494564
000270 97 96 a4 3d e5 48 35 3d 35 b4 f0 bc 22 37 58 3d
       0.08036535 0.04425897 -0.029382804 0.052786954
000280 ee 11 17 3e de b4 07 3e 80 25 ee 3e ed 02 e8 3e
       0.14752933 0.13252589 0.46512985 0.45314732
000290 cd ff 4d 3e 35 21 90 3e 99 17 18 be ba 8b 11 3e
       0.20117112 0.28150335 -0.14852752 0.14213458
0002a0 1f 70 98 bd 74 23 18 3e b6 4e d7 bd 9e e3 89 3d
       -0.074432604 0.14857274 -0.1051306 0.06732868
0002b0 c1 38 0a be 34 01 24 bc 85 f1 34 be a9 2d ab 3c
       -0.13498212 -0.0100100525 -0.17670257 0.020895796
0002c0 b2 5b d7 bd 2a 16 99 bd 9a 28 08 be 88 af a3 3d
       -0.10515536 -0.074749306 -0.13296738 0.07992464
0002d0 f2 a5 fe 3c 82 bc fe 3d 0a c1 84 bd 71 97 d6 3d
       0.031084988 0.12438299 -0.06482132 0.10478104
0002e0 c9 92 00 3e 03 24 a9 bd ac 6f 44 3d bf 17 02 bc
       0.12555994 -0.08258822 0.04795806 -0.007940232
0002f0 3d 25 a6 3d 18 66 b5 be 8e dc a7 be 53 81 92 bc
       0.081125714 -0.35429454 -0.32785457 -0.017883932
000300 27 64 35 be 99 33 9f bc 0b 67 e1 3d 1d 09 16 be
       -0.17713986 -0.019433783 0.11005982 -0.14651914
000310 b1 eb 05 3e c5 b3 34 3e 50 ed db 3d 2d 47 b3 3d
       0.1307819 0.17646702 0.10738623 0.0875381
000320 a3 92 9a bd 72 d1 ad 3c 74 1a 9a 3d 64 7b ad bd
       -0.075475 0.021218035 0.07524577 -0.084708005
000330 d0 f5 00 bd b2 e3 44 bd ad 6b a5 bd 6a 80 77 3c
       -0.031484425 -0.04806871 -0.08077178 0.0151063
000340 12 de 75 bc 59 f5 be 3c 4a 8d 45 3d a5 a2 9d bd
       -0.015006559 0.02331035 0.048230447 -0.076970376
000350 7b 48 1a 3e 47 f1 8d bd db 3e 8f 3d 56 e0 9e 3d
       0.15066712 -0.069307856 0.069944106 0.077576324
000360 70 7a 2f bc bd 87 9c 3d 23 4c 75 3d 13 a8 a1 bd
       -0.010710344 0.076430775 0.059887063 -0.07893386
000370 3a 69 da bd a0 39 d1 bc d0 62 8d bd c6 1d b6 bc
       -0.106646016 -0.025540173 -0.069036126 -0.022230994
000380 3c 62 d6 3c 30 11 95 bd af 51 cb 3c 8e cd 81 3d
       0.026169889 -0.07278669 0.024819223 0.063380346
000390 b5 d8 05 be a9 62 c8 bd ad 1f c1 bc 48 08 a5 bd
       -0.13070948 -0.09784443 -0.023574675 -0.0805822
0003a0 40 59 21 bd 12 b5 26 bd 76 0a 48 bd 8b 9c 1f bd
       -0.039391756 -0.040700026 -0.0488381 -0.03896765
0003b0 8f f6 5a bd 53 c9 49 3d 3c fa 43 bc 9d 58 0c be
       -0.053457793 0.049264263 -0.011961516 -0.13705678
0003c0 61 97 37 be e1 3f 87 be 19 7c 15 bd cc 19 db 3d
       -0.1792884 -0.26415923 -0.036495302 0.1069828
0003d0 9e b1 a0 bd e7 da 88 3b 8b 17 f5 bc 20 dc 80 3b
       -0.07846378 0.004176486 -0.029918453 0.003932491
0003e0 a0 b7 77 3d c6 a3 d6 3d fc 1f ff 3a ed 92 77 bd
       0.060477853 0.10480456 0.0019464488 -0.060442854
0003f0 5b 56 b3 bb fd 86 45 3d 64 4b 60 bc 29 c1 63 3d
       -0.005472941 0.048224438 -0.0136898495 0.055604134

conv_block.3.0.bias f4 [4]
000000 9d 5b 54 bc 56 e7 5c 3c e2 93 5c bd 04 09 2c 3d
       -0.012961295 0.013482889 -0.05385197 0.042000785

conv_block.4.0.weight f4 [4, 8, 3, 3]
000000 5b 44 41 bd be 91 63 bd b7 4f 0a 3e 50 20 85 bd
       -0.04718433 -0.055558912 0.13506971 -0.06500304
000010 a9 2d b1 3d 82 3b 02 3d 6c 58 3f bd dd 74 ad bd
       0.08651287 0.031795032 -0.046715185 -0.084695555
000020 61 1a be 3d 09 0f b1 3c cb b4 d9 3c c4 2f 96 3d
       0.09282375 0.021613615 0.026575467 0.07333329
000030 4b d5 2b bd 20 bc 66 bd d2 60 5c bd 12 43 02 3e
       -0.04195146 -0.056331754 -0.053803273 0.12720898
000040 96 02 85 3d 74 71 7e 3c 37 4d 89 be af 46 08 3c
       0.06494634 0.015529979 -0.26816723 0.0083176335
000050 0f 61 3f 3c ac 9d 2b 3e d6 c7 dd 3d 0d 15 1f be
       0.011680855 0.16759366 0.10829131 -0.15535374
000060 fe 8f 80 bd 87 be 52 be 62 6f 2d bd f0 3f ac 3d
       -0.06277464 -0.20580493 -0.04234255 0.084106326
000070 b6 29 80 bd dc 01 88 bd a0 a9 a1 bd 10 d0 e3 3d
       -0.06257956 -0.0664098 -0.078936815 0.11123669
000080 53 9e a4 3d 64 ed 4c 3d 6c dc 65 3d 05 78 57 3d
       0.080380104 0.05003108 0.056118414 0.052604694
000090 87 43 d6 bc b6 ed 46 bd 4f ec 90 bd 1f 59 cb bc
       -0.026155246 -0.048566543 -0.07076322 -0.02482277
0000a0 96 8c cc 3c bd e9 ce bd 84 37 6c 3d 3d 30 fe bb
       0.02496938 -0.10103176 0.05767013 -0.0077572153
0000b0 6d 8b 43 bd cb f6 88 3d 78 b8 7c bd ac c1 75 3d
       -0.04774039 0.06687697 -0.06169936 0.059999153
0000c0 7c f6 1a 3d a3 c0 46 bd f6 d0 ba 3d 99 62 d1 3d
       0.037832722 -0.048523556 0.091218874 0.10223884
0000d0 f8 0e 09 be dd 4b 2b bd 7f 02 8a 3d f8 03 ce bd
       -0.13384616 -0.041820396 0.06738757 -0.10059351
0000e0 fa 6a a8 3d 32 df c0 bd 97 d8 f5 bb 03 65 40 bd
       0.08223529 -0.09417571 -0.007502626 -0.046971332
0000f0 4c 1a 0f bc e1 e0 dc 3c 85 9e 3c 3d ca 1f d8 bd
       -0.008734297 0.0269627 0.046049614 -0.10552938
000100 06 9e 77 be 20 50 8f be 92 3f 4e be 97 0f 01 3d
       -0.24181375 -0.27990818 -0.20141438 0.03150901
000110 a1 27 c3 3d ac 82 80 3e 46 a9 0f be 49 42 d2 3d
       0.09529043 0.25099695 -0.14029416 0.10266549
000120 25 b6 86 ba 44 ba 4f be b3 44 fd bd 1f c6 a5 bd
       -0.0010277672 -0.20285898 -0.12366619 -0.08094429
000130 ab 85 d6 3c 06 0a f8 bc 58 fd c8 bd 5a da 12 be
       0.026186785 -0.030278217 -0.098139465 -0.14341107
000140 16 e7 35 be cd fb 05 be 7c 19 c2 bd 9b 20 96 bd
       -0.17763934 -0.13084336 -0.09477517 -0.07330438
000150 33 59 11 3d eb 6f 12 3d 2a 74 db 3c f1 33 15 3d
       0.035485458 0.035751265 0.02678879 0.03642649
000160 89 ca 96 bd 6c d9 4f bd 30 66 e7 be 03 99 0c 3f
       -0.07362849 -0.05074446 -0.4519515 0.5492098
000170 a9 1e 8c 3d 2e 7c d4 3e bd 35 ef be cc 49 e9 be
       0.068417855 0.41500992 -0.46720687 -0.45564115
000180 24 a0 7e be 36 89 2b be 0d 65 b2 3c ad 99 47 3d
       -0.24865776 -0.1675156 0.0217767 0.04873054
000190 62 f1 8c 3d 81 ae 71 3d 6f 47 fe bd 33 6f 0c be
       0.068819776 0.05900431 -0.124159686 -0.13714294
0001a0 c0 4a 88 3d 19 d5 5b 3d 16 0e 0f bd d8 2d 24 bd
       0.066548824 0.053670023 -0.034925543 -0.040082783
0001b0 ec 18 1c 3c 6f 17 59 bb 5a 33 80 bd c9 9d d9 bc
       0.009527426 -0.003312554 -0.062597945 -0.026564496
0001c0 c0 94 31 be a1 25 02 bd 83 64 f9 3c 51 4a 16 3c
       -0.173419 -0.031774167 0.030443436 0.009172992
0001d0 59 09 1c 3d 18 07 ef 3d b8 ce 30 3e 0d ab c7 3d
       0.038094852 0.11671275 0.17266357 0.09749422
0001e0 cf 22 5c bd 1b fd 4a bd f7 9a 8a bd 0a f8 4b 3d
       -0.053744134 -0.049557786 -0.067678384 0.049797095
0001f0 80 e0 a1 3d 10 88 94 3d 45 e1 5c bd d4 0d b8 bd
       0.07904148 0.07252514 -0.05392577 -0.089870125
000200 89 23 01 be 99 6d 0a bd ac 5a 0e bd ba 86 d7 bc
       -0.12611212 -0.033795927 -0.03475444 -0.02630936
000210 dc b9 93 bd 0e 29 25 3d 9e c1 70 3d 9c 3e 51 be
       -0.07213184 0.040322356 0.058778398 -0.2043404
000220 6a 3c a8 3e 4a 71 9b be a9 a5 8d be 70 bf b3 be
       0.32858592 -0.3035987 -0.2766545 -0.35106993
000230 bd ac ad 3d c6 78 b2 bd 04 89 77 3a 0b 91 35 3e
       0.08480213 -0.08714442 0.0009442719 0.17731111
000240 e6 1c 42 be b1 11 3e 3d 71 01 85 bd ba ef 68 3d
       -0.18956336 0.04640359 -0.064944156 0.056869246
000250 93 ad 72 3d 36 91 96 3d 0e 27 e9 bd f0 6b c0 bd
       0.059247565 0.073519155 -0.11384402 -0.093955874
000260 30 76 7d 3c 41 47 57 3d bf 8d 99 bd f5 c1 da bc
       0.015470073 0.052558187 -0.07497739 -0.026703814
000270 9a 15 a9 3d ed 06 39 bd b8 29 ca bd 5e 9a fc 3d
       0.08256073 -0.04517262 -0.098712385 0.12334131
000280 41 dd 1e bd 23 c8 28 bc 04 68 c2 3e eb 4b 87 be
       -0.038785223 -0.010301623 0.37969983 -0.26425108
000290 4d 75 6b be 95 50 c5 be d2 0e 59 be ce eb 07 3e
       -0.22993965 -0.38538042 -0.2119706 0.13273546
0002a0 07 dc c3 be 62 80 04 3e 36 54 35 3e 38 01 ff bd
       -0.38253805 0.12939599 0.17707905 -0.12451404
0002b0 41 00 e2 bd 44 68 8a 3d da c9 06 bd 82 3d 76 3d
       -0.11035205 0.06758168 -0.032907344 0.060117252
0002c0 4e 84 8c 3d 10 22 b3 3d f1 28 d8 3d c1 6a cc 3d
       0.068611726 0.08746731 0.10554684 0.09981299
0002d0 b2 db 03 bd 4c cf a6 3d 60 a2 2d 3d 72 fd 1b 3d
       -0.03219194 0.081450075 0.04239118 0.0380835
0002e0 7a 4c 7a bb 25 59 97 bd 3d f8 d5 3d c7 6f 93 3c
       -0.0038192556 -0.0739005 0.10447738 0.017997636
0002f0 3a f1 80 3c 7f 45 a7 bd 68 3a 8f 3d 7f 12 bd 3d
       0.015740026 -0.08167552 0.06993562 0.092320435
000300 cf f6 fd bd 15 b5 00 be da d2 ed bc 91 77 68 3d
       -0.12400591 -0.12569077 -0.029031206 0.056754652
000310 f3 13 61 bd 6f dc 60 3d 18 14 41 3d 4a ac a3 bc
       -0.054950666 0.05489772 0.047138304 -0.019979615
000320 f6 34 bc 3d 18 ca 27 3b 10 b4 ca bd 65 12 e4 3c
       0.09189789 0.0025602635 -0.098976254 0.027840802
000330 6d c9 d8 bd 23 aa 09 bc 9a a3 5d bc 1f fe 40 3e
       -0.10585294 -0.00840238 -0.013527775 0.1884694
000340 8b 56 26 3e 4f ae aa 3b 66 31 52 be 19 61 5b bc
       0.16243951 0.0052087675 -0.20526657 -0.013389849
000350 79 5c 2d be 99 5b 9f 3e c1 0a 8f be b7 f8 1d 3d
       -0.16929807 0.3112457 -0.27937892 0.03856727
000360 1f 92 0a 3d a9 8b 15 3e 15 a1 0c bd 7f 6a 73 bb
       0.03383076 0.14604057 -0.034333307 -0.0037142334
000370 f9 61 dc 3c 4c c4 f9 3d da 45 24 3e 5a 0a 6a bd
       0.026902186 0.12195644 0.16042271 -0.05713878
000380 78 11 8e bd cd 3e 16 3e 76 c3 f2 3d 2e f1 16 bd
       -0.06936926 0.14672394 0.118536875 -0.0368511
000390 cb d3 33 bb dc e1 c1 3d ed 1f b1 bd 81 ff 66 bd
       -0.002743947 0.094669074 -0.086486675 -0.05639601
0003a0 1a cf 03 3b 94 c6 f0 3d 43 7f 86 be 72 7d 50 3e
       0.0020112456 0.11756626 -0.26268968 0.20360354
0003b0 b3 1d 5b 3e 8e 64 53 3d 19 44 92 bd b7 62 54 be
       0.21398048 0.05160957 -0.07141895 -0.20740782
0003c0 31 a6 c8 bd 54 ea 8b 3e 33 60 b0 3e a4 16 1d bd
       -0.097973235 0.27327216 0.34448394 -0.03835167
0003d0 d2 42 8f bd 9d 43 bd bd 30 4e 93 bc 44 04 cc bc
       -0.06995167 -0.09241412 -0.017981619 -0.024904378
0003e0 e9 28 cc 3c 62 13 04 3e c0 84 1f bd 4a 04 ea 3d
       0.024921851 0.12898019 -0.03894496 0.11426599
0003f0 28 a4 09 3e b7 63 e8 3d a1 3b 8a bd f1 ff 10 3d
       0.13441527 0.11347144 -0.067496546 0.035400335

conv_block.4.0.bias f4 [4]
000000 6e 5c d4 3b 7c 8a 5a 3d b9 35 95 3b 62 c3 1b bd
       0.006480745 0.053354725 0.0045535234 -0.03802813

conv_block.5.0.weight f4 [4, 8, 3, 3]
000000 3b a5 b1 bd e9 a8 3f bc 7e 74 0f be 4e 1a 1c 3e
       -0.08674093 -0.011697986 -0.14009282 0.1524441
000010 1c d2 24 bb 55 5a 31 bd 7f bc 3c be bc de 10 be
       -0.002514965 -0.043299038 -0.1843128 -0.14147466
000020 6c 3d 56 3d 75 56 85 bd 1d bd 4a 3d 04 f1 22 be
       0.05230467 -0.06510631 0.04949676 -0.15912253
000030 21 70 25 3c ba 87 0b bd 98 8c 04 be 1c af 0a bd
       0.010097534 -0.034064986 -0.12944257 -0.033858404
000040 46 05 d7 3d ae 37 c1 bd 81 33 c4 bd 1b f0 57 bd
       0.10499053 -0.09434448 -0.09580136 -0.052719217
000050 c6 04 6e bd c1 ff 32 bd cc 32 4e bd ca 0d 27 bd
       -0.05811002 -0.043700937 -0.050341412 -0.040784635
000060 0e 6b 18 be 21 a7 d9 bd 3c aa d9 3c 62 91 1d be
       -0.14884588 -0.106275804 0.026570432 -0.1538749
000070 43 6f 57 bd 8c 62 b9 be 4c f6 dc be a6 12 8c be
       -0.05259634 -0.36207998 -0.4315666 -0.27357978
000080 a2 34 86 3d 85 97 78 bd b6 56 0b 3f be 59 ce 3e
       0.06553008 -0.060691375 0.54429185 0.40302843
000090 b8 78 c8 3b a0 d5 43 bd 18 45 71 3d 7c 50 05 be
       0.0061179064 -0.04781115 0.058903784 -0.13018984
0000a0 b0 fc 19 be 53 e9 e8 bc d9 09 f6 3c ea bf dd 3c
       -0.15037799 -0.02843157 0.030033993 0.02706905
0000b0 25 0d d4 bc 5c 4e 9d 3e d1 ba 6a 3d 58 59 74 3a
       -0.025885174 0.30723846 0.05730707 0.00093211746
0000c0 49 a1 57 be 47 02 38 3e f2 01 c7 be be 3e 19 be
       -0.21057619 0.17969619 -0.38868672 -0.1496534
0000d0 e2 a8 0e bf 51 1a 33 bc d7 d8 dd bd ea 26 62 3e
       -0.55726445 -0.010931567 -0.108323745 0.22085157
0000e0 d9 8d 6a 3e d5 30 37 3c d8 ee 24 be ce 5b 18 be
       0.22905673 0.011181076 -0.16106737 -0.1487877
0000f0 58 a9 5f 3e ea e2 08 bd c6 59 30 bc 41 99 16 be
       0.21841943 -0.033419527 -0.010763591 -0.14706899
000100 35 8e 08 be 60 11 fe b9 74 01 0c be 8a 0e fe bd
       -0.13335498 -0.000484596 -0.1367243 -0.12405117
000110 51 d8 5c 3d 63 8f 33 3d 24 a5 48 bc 6b 30 b9 bd
       0.053917233 0.043837916 -0.012246404 -0.09042438
000120 f6 fe c6 3d 15 89 42 3d f2 32 12 3d 78 8f 83 bd
       0.09716599 0.047494013 0.035693116 -0.06423849
000130 57 ae 46 3d b2 99 1a bd 44 85 ba 3c 00 a8 ab 3d
       0.048506107 -0.03774423 0.022768624 0.08381653
000140 c1 be 1f be 6e d8 bd 3d 34 d6 ee 3d c2 db dc 3d
       -0.1560011 0.09269796 0.1166195 0.10784103
000150 de 88 bf 3c dd 68 b7 bd a9 36 6f 3c fd e5 56 3c
       0.023380693 -0.08955548 0.014600434 0.013116357
000160 48 5f 02 bc b9 64 ca bd ce 1c b8 3d 9c 93 85 bb
       -0.007957287 -0.098824926 0.08989869 -0.0040764343
000170 ed 34 c2 bd 46 26 66 bb 26 bf 67 bd 81 d0 bc bd
       -0.09482751 -0.0035118028 -0.056578778 -0.092194565
000180 39 ac ad bd 8c f3 94 bd 31 1d ed 3a f8 4c 0b be
       -0.084801145 -0.072730154 0.0018090365 -0.1360358
000190 c7 a2 55 bb 31 c5 70 3e cc 1a 25 3e b6 41 a1 3e
       -0.0032598244 0.23512723 0.16123503 0.31495446
0001a0 2a 9a a3 3d f4 3d 79 3e eb f6 89 be 10 26 df be
       0.07988389 0.2434004 -0.26946196 -0.43583727
0001b0 d7 05 0a bd 8f 19 5a 3d 06 da f1 3d e4 b5 4f 3d
       -0.033696976 0.05324703 0.11809163 0.050710574
0001c0 24 d2 00 be bd 60 37 3d 44 0b 08 3d f7 d1 af 3d
       -0.12580162 0.04476999 0.03321387 0.085849695
0001d0 b7 2a df bd b1 e9 e1 be bf d2 20 bd 3c d5 ca 3d
       -0.10896819 -0.44123605 -0.039263483 0.099039525
0001e0 67 5a 48 3e d8 32 e2 bd 7c c3 af 3e 4e 17 59 3c
       0.19565736 -0.11044854 0.3432883 0.013250185
0001f0 d1 db 39 3e 44 de 30 3d a6 64 1e be 48 2f 1d be
       0.1815026 0.04318072 -0.15468082 -0.15350068
000200 f1 65 68 be 07 7e e9 3c 81 aa 50 bd b7 66 47 3d
       -0.22695138 0.028502477 -0.050943855 0.04868194
000210 fd ab b0 bd 66 85 69 3d 8a 9c b4 3d 18 42 b2 bc
       -0.08626554 0.057011984 0.0881892 -0.021760032
000220 8f 57 2d bd 14 1e c7 3d 72 33 27 ba b1 de 32 3c
       -0.04231983 0.09722534 -0.00063782104 0.010917352
000230 52 41 7f 3c bd 36 b7 3d 5a 7b e3 bb 72 e5 f5 3d
       0.015579538 0.089459874 -0.006942195 0.12006654
000240 86 1d 69 3d e5 b3 75 3c a4 15 5b bd 2f 9a c3 3c
       0.05691292 0.0149965035 -0.053487435 0.023877231
000250 e3 63 85 bd 38 05 af 3d d3 a2 d5 bc c9 59 17 bb
       -0.065131925 0.08545917 -0.026078617 -0.0023094288
000260 82 78 ad 3d 9a 64 0f 3c 97 83 f8 3c 9a 2b a1 bd
       0.08470251 0.008752013 0.030336184 -0.078696445
000270 c9 04 71 3d 02 24 f0 3d 0b bd c7 3d 4d bc e0 bd
       0.058842454 0.11725618 0.09752854 -0.109734155
000280 e9 fc d5 3d 3e 1f 60 3d c5 af be 3d de 0c 36 3d
       0.104486294 0.054717295 0.09310869 0.044445865
000290 f9 a7 8d bd eb e7 05 bd 6d 06 56 bd 7c 9f 32 3d
       -0.06916804 -0.032691877 -0.05225222 0.043609127
0002a0 9c 08 01 bd b6 c8 69 bd 52 67 9a bd 3d c4 91 3e
       -0.03150235 -0.05707618 -0.07539238 0.2847003
0002b0 60 7b 43 3d 0d 7f 3c 3d 1d e7 33 be 37 72 d5 bd
       0.04772508 0.046019603 -0.17568631 -0.104221754
0002c0 6a 25 03 be ba bf b5 be b6 ec 78 bd d9 48 cd 3e
       -0.12807241 -0.35497838 -0.06077262 0.4009464
0002d0 60 31 0c bd f5 7b 7b 3c 04 f9 11 bd 1c be fe 3d
       -0.034226775 0.015349378 -0.03563787 0.12438604
0002e0 1c 02 3b 3c 4c cc 88 3d e2 03 8c bd af 7e c0 bd
       0.011414077 0.066795915 -0.06836678 -0.09399163
0002f0 01 ec 21 3d 10 46 14 bd 55 31 fb bc f3 aa c3 3c
       0.03953171 -0.03619963 -0.030663172 0.023885226
000300 cb a8 a7 3d 34 34 b3 3d af 83 a2 3d 30 58 26 3e
       0.081864916 0.08750191 0.07935273 0.16244578
000310 e2 f1 35 3d 8d d5 49 be e9 bf fd 3d 59 c8 e9 3d
       0.04442013 -0.1971037 0.123901196 0.114151664
000320 b5 b1 9a 3d 4e c0 d6 3d ff 7f a0 3c 9d aa 34 3d
       0.07553426 0.10485898 0.019592283 0.044108022
000330 18 4b 0e be af d4 27 be e8 4f 27 bd 80 8f be 3d
       -0.13895833 -0.16389726 -0.04084769 0.09304714
000340 d1 50 70 3d 6f 9f ba 3d 2b ab 9b 3c 52 a1 ac bd
       0.058670823 0.09112441 0.019002518 -0.08429207
000350 56 1b 09 bd 33 82 c9 3d d6 9a 9d bd b9 8d a5 bd
       -0.033473335 0.09839287 -0.07695548 -0.08083672
000360 38 2c 63 bd 92 0a 11 be 9f 51 dd 3d ce 4b 2f 3d
       -0.055462092 -0.14164189 0.108065836 0.042796902
000370 af 0d db 3d 53 f0 aa 3d 86 c2 1e be 5d 7c 36 be
       0.10695969 0.083466195 -0.15503892 -0.17820878
000380 b7 85 d3 bd 51 ad e2 bd 14 a7 42 3d bc c4 3c 3d
       -0.103282385 -0.11068214 0.04752262 0.046086058
000390 72 52 82 3d ef 42 70 3d 33 b1 e4 bd 8e 5a ed bc
       0.063633814 0.058657583 -0.111666106 -0.028973844
0003a0 05 40 6d bd b4 75 8d bd 44 f8 35 bd d7 a3 3c bd
       -0.057922382 -0.06907216 -0.044426218 -0.046054687
0003b0 bb d9 dd bd 78 46 92 3d 60 20 dd 3c d4 19 bc bc
       -0.108325444 0.07142347 0.026992977 -0.022961535
0003c0 26 96 e6 bd 71 17 9a bc 06 83 1a bd 00 68 d1 3d
       -0.11259107 -0.018810006 -0.03772261 0.102249146
0003d0 97 ce ca 3d bb be 22 bd 1f 5f 6b 3e ec 6f 29 be
       0.09902685 -0.039732676 0.22985505 -0.16546601
0003e0 14 e3 92 be b5 3c b7 be 25 de 93 3d 5d b6 bd 3e
       -0.28688872 -0.35788503 0.07220105 0.37053195
0003f0 db 96 ec 3d 01 53 31 3d 8a 6e a0 3d b9 61 25 bc
       0.11552211 0.04329205 0.07833584 -0.0100941

conv_block.5.0.bias f4 [4]
000000 a8 c3 2e 3d c2 66 bb bc af 3a 95 bc eb 6a 94 3c
       0.04266706 -0.022876147 -0.01821646 0.018117389
