model_4k_synla_4096.pt (torch, 22447 bytes, 18 tensors)

conv_layer.weight f4 [8, 1, 3, 3]
00000000: c49e 1d3d 82d1 7abe 10fd 2e3d bcdd 0c3e
00000010: 92cf 42bd 8d46 2d3e 2a94 a6be 6345 243e
00000020: 5561 053d e8c6 9e3e 6526 ae3e 46ea f83d
00000030: 1972 5abe a928 97be 3931 923e 4173 473d
00000040: ccd0 6d3e 29f6 92be cd46 05be 87e6 61be
00000050: 723d af3c 2e5e 5f3e dd24 f4bd 746a 233e
00000060: d52c 853e 1500 5dbe 7669 f8bd ab8a 76be
00000070: 132c 1bbe 2123 e63d 15d9 a9be f8b0 3d3e
00000080: 7c75 7ebe d38c aa3c 479f 483e 165d 503e
00000090: eb74 2abe 90ee ca3d 158a 34ba 9089 c73a
000000a0: fba3 7e3e 7828 be3d 85e6 8b3c b034 e8bd
000000b0: 8ecf 893e ae20 8ebe 0940 6d3e 391f be3c
000000c0: 4704 9ebd ab09 ac3e 7302 f93b 4ad5 8cbe
000000d0: 8b16 80be 89af 9cbe e063 2cbd 475f 28be
000000e0: c94c cc3e 113c dcbd e470 7abe 2a50 55be
000000f0: 83a6 6a3e 958d 4c3b d06c f93c 1884 0b3e
00000100: 3714 46be a23b 6cbc 6455 99bd ffaf b8be
00000110: e803 b43e 4186 3cbe ec4f c13e 85fd 823c
0.03848149 -0.24493983 0.042721808 0.1375646 -0.047561236 0.16921444 -0.32534915 0.16042094
0.032563526 0.31011128 0.34013668 0.12154059 -0.21332587 -0.2952321 0.2855318 0.0486939
0.23224181 -0.2870343 -0.1301529 -0.22060595 0.021391604 0.2181327 -0.119210936 0.15958577
0.26010767 -0.21582063 -0.1212949 -0.24076335 -0.15153532 0.11237169 -0.33173433 0.1852454
-0.24849504 0.020819103 0.1959201 0.2034801 -0.16646163 0.099087834 -0.0006887031 0.0015223492
0.24867241 0.092850626 0.017077694 -0.11338174 0.26916164 -0.27759308 0.23168959 0.023208247
-0.077156596 0.33601126 0.007599169 -0.27506477 -0.250172 -0.30602673 -0.042087436 -0.16442595
0.39902332 -0.10753644 -0.24457127 -0.20831361 0.22915082 0.003121232 0.030447394 0.13624609
-0.19343649 -0.014418514 -0.0748699 -0.36071774 0.3515923 -0.18410589 0.37756288 0.015990028

conv_layer.bias f4 [8]
00000000: ab6a 633e 5e6c 473e a9eb c7bd 7a34 4a3c
00000010: bec1 623e 56aa 363e 6759 c13d b952 13be
0.2220866 0.19474933 -0.097617455 0.012341613 0.2214422 0.17838416 0.0944088 -0.14387025

conv_block.0.0.weight f4 [4, 8, 3, 3]
00000000: 9bc3 70bb c1f0 073e c050 29be bb62 81bd
00000010: 7849 0d3d 3aed 0e3c d959 063c 586c 16bd
00000020: 348b 43bd d521 223d 1bde 873d 54e1 fbbb
00000030: e3c6 003e 383c 85bd 3000 e6bd ebcb 2ebc
00000040: 064e c33d 8bed 653b bfe4 80bc 9950 413d
00000050: fbec 773d 7a66 e1bb cf7d 87bd b7c1 133e
00000060: d00c 8b3d 8a08 dabd a33a 563d 2074 1d3e
00000070: 3712 a13d d766 4e3d 3236 6cbd b4d5 573e
00000080: 4ef2 723c d820 97bc 2cc2 bf3d a768 3d3d
00000090: b6e7 453d 80ca bcbb f7b9 8fbc fd56 02bd
000000a0: f28d a33d 5cf3 f63c 58fd d13c ec54 043c
000000b0: e285 edbd b95c 8fbd 855c d0bd 308e 04be
000000c0: d8d5 a83b 4f5e 63bc 4810 e3bd 17cc a83c
000000d0: e4ac 3d3e 268c 05bd 3bd2 b3bc 03fd abbd
000000e0: c6e2 edbd 96ab 9bbd 6e6e 52bd eb1d b53d
000000f0: ec78 fc3c df1a 4bbc 3db8 aabc 1e12 68bd
00000100: a409 583d 88ea 8dbb 3c83 353e 8765 38bd
00000110: a34c 5b3d 0997 2f3e 006c 5ebd 0411 2dbd
00000120: a40b 54bd d8d9 f8bd 4bed 14bd b071 7fbd
00000130: 10a9 3bbe 5d3e 7cbd 2617 a13d 230c c9bd
00000140: 57bf 3d3d 6379 113d 3727 1b3d bf18 adbd
00000150: 6ee7 393d f923 2b3c be79 4ebc 6d48 84bd
00000160: 9329 9fbd 13b4 be3d 825c 93bc 7211 dfbd
00000170: 271d ae3d d627 963d 2bfa f9bd e6a8 2cbb
00000180: 2c9c 2fbc c356 493c 8f51 7dbd 1ef6 07bd
00000190: 6687 de3d 91c6 cabd fda4 18bd 03f3 b1bd
000001a0: d98a 373c 0041 943d 45db bcbd caf8 7e3d
000001b0: a0de df3d b771 d4bd 4904 64bd a779 37bc
000001c0: d12d a7bd 6772 4cbd e3be 943d 6382 d6bc
000001d0: eb99 e2b9 a864 25bd bfc3 f43b bcaf 0a3b
000001e0: 0a33 bf3d a014 b03d 5ff3 cdbd 04c7 a1bc
000001f0: 2cd5 813d 5cb7 54bd f89f 41bd 9dfb 6d3d
00000200: 4bc9 9c3c 478a 123e 2f9f 69bc 96aa aa3a
00000210: 2824 5e3c 3246 2abe 2331 423d 126d d1bd
00000220: a486 bcbd 3667 56bd 0cb8 203e d6d4 69bd
00000230: d307 123e 6dc9 38bc 7964 bbbc c454 ab3d
00000240: b6fb fe3d 15ad 933d be63 1d3c 7d86 3dbd
00000250: 246c 7fbb 1357 afbd 16ce 86bc a518 d1bd
00000260: 4e1e 48bd 7279 0f3d 7e5e 25bd 2388 c1bc
00000270: 2433 473d 5cd2 063d 02ac d0bd aace d9bc
00000280: 671e 343d 114f d6bc c597 5c3d 3edb 403d
00000290: 4e14 243d e4f7 e93d e80c c7bd dd50 853d
000002a0: 188f d8bd a4b8 8a3c 4a54 983d d951 cc3d
000002b0: b537 c73d 089c 92bd 872d ac3d 2ebd 5abc
000002c0: 1212 1cbe 65be 9abd 375f 9a3c 4cea 14be
000002d0: e2ad 36bd 7ac6 ed3d 0bfd 37bd 3d0d dd39
000002e0: 9131 86bd c8f8 9bbd 5f5d 883c 4563 293d
000002f0: 0d86 57bd d2a2 bebd 4f54 d2bc b1d8 1a3d
00000300: 53b2 e8bd eaf6 203e 7a60 40bc 28fd bf3c
00000310: 980a e9bd ea3c 6cbd 6e75 8fbd 3df6 91bd
00000320: ffb2 063e 5cd0 c6bb bd6f 0cbe 3c1d 12bd
00000330: 7b5f 423d 5038 a23d 74af da3d e357 a0bd
00000340: bd0a b13d 8861 2a3d 1941 13bd 7d38 c5bd
00000350: e825 afbc 2e82 44bc 7781 fe3c 0905 163e
00000360: 9281 f43c 48e5 03be 1a7c 0e3e 8347 903d
00000370: af0d babd 8be8 443d 5771 173d cd48 a43d
00000380: 2095 80bd 1848 793d 2c55 9ebd 14f3 71bc
00000390: 1e4e b7bd 8377 a83d 07b6 0e3e d6a3 793c
000003a0: 60a3 90bc ed01 04be 746a 1e3e e547 393d
000003b0: 6897 9dbd 8d0a 25be 82ed c8bd 9ebb f0bd
000003c0: f861 63bc 5274 0a3d 0fe0 7dbb d4bd 1cbe
000003d0: a8f1 36bc a7fc edbd 3c70 523e 683a e5bd
000003e0: 490a 50bc 0c88 33bc 4e96 3a3d b46f 46bd
000003f0: 7b3f 8ebd 181c 97bc 51d9 9dbc c158 3d3d
-0.0036737684 0.13275434 -0.1653471 -0.063176595 0.034493893 0.008723551 0.008200132 -0.03672442
-0.047740176 0.039583046 0.0663416 -0.0076867733 0.1257587 -0.065056264 -0.112305045 -0.010668735
0.09536366 0.0035084214 -0.015734075 0.047196005 0.060528737 -0.0068786712 -0.06615793 0.14429365
0.06789553 -0.1064616 0.052302014 0.1537633 0.07864802 0.050391044 -0.057668872 0.21077615
0.014828278 -0.018448278 0.09363207 0.046242382 0.04831668 -0.0057614446 -0.01754473 -0.03182124
0.07986058 0.03014534 0.025633499 0.008076888 -0.11597802 -0.07000107 -0.10173897 -0.12944865
0.0051524453 -0.013877465 -0.1108709 0.02060513 0.18522984 -0.03260436 -0.021950832 -0.083978675
-0.11615519 -0.07601087 -0.051374845 0.08843597 0.030819379 -0.012396543 -0.020839805 -0.056657903
0.05274357 -0.004330937 0.17725843 -0.0450187 0.053539883 0.17147459 -0.054302216 -0.042252555
-0.051768914 -0.121509254 -0.036359113 -0.06236428 -0.18326211 -0.06158291 0.07865743 -0.09816768
0.046325054 0.035516154 0.037879195 -0.084519856 0.045386724 0.010445588 -0.012602268 -0.064591266
-0.077716015 0.0931169 -0.017988447 -0.10891999 0.08501654 0.07331817 -0.12205919 -0.0026345789
-0.010718387 0.012288752 -0.06184536 -0.0331937 0.10865669 -0.09901155 -0.03726672 -0.08688929
0.011202537 0.0723896 -0.0922151 0.062248982 0.10931134 -0.10373252 -0.05566815 -0.011198438
-0.08163036 -0.04991379 0.07262971 -0.02618522 -0.00043220757 -0.040379196 0.007469624 0.0021161875
0.09335907 0.08597684 -0.10056185 -0.019748218 0.063394874 -0.051932678 -0.0472717 0.058101285
0.019138953 0.14310561 -0.014259144 0.0013020809 0.013558425 -0.1662834 0.04741014 -0.10225882
-0.09205368 -0.052344523 0.15695208 -0.05708774 0.14260797 -0.011278492 -0.022875058 0.08365777
0.12450354 0.07210747 0.0096063 -0.046270836 -0.003897437 -0.0856153 -0.016455691 -0.10209779
-0.048857026 0.03502793 -0.040373318 -0.023624485 0.048632756 0.032915458 -0.10189058 -0.026587803
0.043974306 -0.026160749 0.053855676 0.047084086 0.040058427 0.114242345 -0.097192585 0.06509564
-0.10574168 0.016933747 0.07437952 0.09976549 0.09727422 -0.07158667 0.08407121 -0.013350768
-0.15241268 -0.07555846 0.01884423 -0.14542502 -0.04459942 0.11610122 -0.044919055 0.00042162268
-0.06552423 -0.07615811 0.016646085 0.041354436 -0.052618075 -0.09308399 -0.025674967 0.03780431
-0.11362138 0.1571919 -0.011741752 0.023436144 -0.11378974 -0.05767528 -0.0700482 -0.07127044
0.13154219 -0.006067319 -0.137145 -0.03567241 0.04745434 0.07920897 0.10677996 -0.07829263
0.08644626 0.04159692 -0.035950754 -0.09629915 -0.02138038 -0.011993928 0.031067593 0.14650358
0.02984694 -0.12880433 0.13914528 0.0704489 -0.09084641 0.048073333 0.036973324 0.08021698
-0.06278443 0.06085977 -0.07731089 -0.014767427 -0.089504465 0.0822592 0.13936625 0.015236815
-0.017656028 -0.1289136 0.15470296 0.04523458 -0.07694894 -0.16117306 -0.09810926 -0.11754535
-0.013878338 0.033802338 -0.0038738286 -0.15306789 -0.011166014 -0.11620455 0.20550627 -0.11192781
-0.012697765 -0.010957729 0.045553498 -0.048446372 -0.06945702 -0.018446013 -0.019268664 0.04622722

conv_block.0.0.bias f4 [4]
00000000: 9e61 e5bd a1f6 573d 7ee4 8b3d 1240 c63d
-0.112002596 0.052725438 0.06830691 0.09680189

conv_block.1.0.weight f4 [4, 8, 3, 3]
00000000: bad7 fe3d a8e5 c1bb dddf 65bd 702f 8dbd
00000010: 9407 05bd d4d7 55bd cbaf 04bd a9d3 773c
00000020: 628d 7ebd 37cf 04bd 8ade 56bd 8338 c03c
00000030: e911 cd3c 2d8e 91bb a7cc 643d ecde 2ebc
00000040: 58dd e03c 7852 bebb 9c43 6e3e 98d5 1f3e
00000050: 92f1 bdbd 77cd ad3d 10f8 223d 841f 833d
00000060: 03ee 413d de60 543d b9ff a23d fc92 71be
00000070: 71d1 4a3d b03c a9bd 11cb de3d 4825 8e3e
00000080: 73e2 81bc 1364 62bd 13ca ebbd 7e92 7fbd
00000090: 3b39 393d 1d90 1e3e 8661 31be b05c 863c
000000a0: 5112 ed3d 9962 b03d be86 8abd a8aa 09be
000000b0: 3e49 17bd 9dd4 9ebd 56bc 2a3c c484 ecbd
000000c0: 7d9a 72be 63fb 553d 0048 e4bd ffaf 6e3b
000000d0: a144 c43d 34c7 203d c443 9dbb 1e8d b2bd
000000e0: 696b 1ebc 451b 473d 400c 2cbd 44f2 fc3c
000000f0: 312d 76bd 22a6 aabc 197d bfbd 424c 313e
00000100: 872b bd3d a79b 083e 5d64 23be 76a5 e33c
00000110: 288c 0c3e 5ff7 c03d bde0 133e 2c39 18bb
00000120: 5fe3 afbd d7ac 9cbd 94bc 49bd dc92 b73c
00000130: 4cdb ccbc 64c6 683d a57c dabc 05fa 75bd
00000140: ec91 9fbd 52ba 963d bb60 96bd a3a5 af3d
00000150: 791a 1f3e a534 a43b 5ae6 a8bd 873d b3ba
00000160: c2a5 a23c f299 52b9 ed81 d93d aca9 203c
00000170: 2030 233d abd1 143e c255 cb3d 2b01 643d
00000180: 1e75 bbbd 9008 863d ec1d 823d 0280 9bbd
00000190: f4a1 b73d c901 043d 32f8 533d a86e 033e
000001a0: 9ca1 e53a fdbf 063e 3b5d 4abe 021f c0bd
000001b0: 3867 14bc 5e50 1a3c 87aa cdbb 4435 56bd
000001c0: 0169 cfbc e45f 1e3d 0c64 153e abfa c1bd
000001d0: 251c a3bd 89e1 91bc 8a75 023e bb6c 253d
000001e0: e316 bfbd a2de 193e ef61 143e 9583 143d
000001f0: e142 88ba f46e 4b3b 299b 77bd 1df9 803d
00000200: 2644 b6bd 0d45 463c 2316 833b 99f4 e6bc
00000210: ca16 f43d 10fb 61bd cdcd caba 71bc a63c
00000220: 87f6 a43d 82b0 60bc 544d a0bd f55c 00be
00000230: 9c77 d03c f3c9 f7bd aab3 863d dd53 2e3e
00000240: 413e c43d a590 dabc e476 893d a115 203d
00000250: 4e99 74bd bacd f03d cb67 88bd f3f9 a43b
00000260: a3bc cd3d c860 b73d 25ea b73d 10e3 7bbd
00000270: d3d6 58bd 4f09 aa3d e072 f6bc 3790 f53c
00000280: 316a bd3d 7c0e 083e a237 b2bd 5823 ac3d
00000290: 1bf4 5e3b b977 08be 236a 6e3d d843 38be
000002a0: 6d4c bebd fa44 a93d 238b 6cbc bdc4 86b7
000002b0: 402b 39be 00be f93d a504 383d 9e6b 2e3e
000002c0: 82a4 febb cdd9 083d 007d 6abc b5ba 9c3d
000002d0: a163 13bd b08f 6abe de37 d5bb e1f9 2f3e
000002e0: 69b0 4d3d 55a0 1abe a696 63bc ba72 1dbd
000002f0: f77e e3bc 1030 7cbc b414 c1bd 0969 05bd
00000300: 15d4 613d f932 0ebe 6274 503d 2161 9c3d
00000310: f1dd 92bd 1b95 5dbe c462 c83d 928a 05bd
00000320: 1001 b93c 5f26 3dbd 452c a43c 1ea1 0fbd
00000330: 6275 d13d 40d8 c03d ccca c4bd 8d98 8b3d
00000340: f3fe 4c3e 04d6 babd b89c f63b 4c0b 06be
00000350: be68 993d f1e5 00be 4d26 e1bd bbcd 22be
00000360: a726 cf3d 1534 983d 390c ea3d 13b3 3dbd
00000370: ff2a 95bd 953c f33d 70c9 ac3d 27a0 ba3d
00000380: f8c1 90bd 2179 abbd 3324 ee3c 4e83 443c
00000390: de2a 11bc 1770 ba3a 6459 913d 3fa9 203c
000003a0: 55f4 d7bb 6afe 66bd cc1a 51bd 0d83 283e
000003b0: 6d5c 483d 61d0 0fbe e49a 133e df75 14be
000003c0: 7d7f b7bd 12cc 15bd a2c2 24bd a69c 64be
000003d0: 767c 843e c232 0c3d 1b94 043e 13e4 12be
000003e0: ad6c 313d 3161 c3bd d94d 953e cf3c 523e
000003f0: 09c2 38be 0d6b 923d 4781 433d 2828 073e
0.1244349 -0.0059172697 -0.056121696 -0.068938136 -0.03247793 -0.052207783 -0.03239421 0.015126147
-0.062146552 -0.032424178 -0.052458324 0.023464447 0.025032954 -0.0044419975 0.055859234 -0.010673266
0.027449295 -0.005808171 0.23267978 0.15608823 -0.092745915 0.08486455 0.039787352 0.064024955
0.047346126 0.051850192 0.079589315 -0.23591226 0.049516145 -0.08263528 0.108785756 0.27762818
-0.01585505 -0.05527122 -0.11513152 -0.062395565 0.045220595 0.15484662 -0.17322358 0.016401619
0.11575759 0.08612556 -0.06763981 -0.13444006 -0.036935084 -0.077553965 0.010420879 -0.115487605
-0.23691745 0.052241694 -0.111465454 0.003642082 0.095834024 0.039252475 -0.004799338 -0.08718322
-0.009669163 0.04860999 -0.04200387 0.03087724 -0.06010169 -0.020831171 -0.09350032 0.17314246
0.09236818 0.13340627 -0.15956254 0.027788859 0.1372534 0.09422182 0.144412 -0.0023227436
-0.085882895 -0.07650154 -0.049252108 0.022408895 -0.025006913 0.056829825 -0.026670763 -0.06005289
-0.07791504 0.073597565 -0.073426686 0.085765146 0.15537442 0.0050111585 -0.08247061 -0.0013674953
0.01985443 -0.0002008451 0.106204845 0.009806078 0.039840817 0.14533107 0.099284664 0.055665176
-0.09153198 0.06544602 0.063533634 -0.07592775 0.08966437 0.032228265 0.05175037 0.12835181
0.0017519477 0.13159175 -0.19762127 -0.09380914 -0.009057812 0.009418575 -0.006276432 -0.05229689
-0.025318624 0.038665667 0.14588946 -0.09471639 -0.079643525 -0.017807739 0.1274015 0.040386897
-0.09330537 0.15026334 0.14490484 0.0362583 -0.0010395908 0.0031041475 -0.060450707 0.062975146
-0.08899717 0.012101424 0.0040004416 -0.028192805 0.11918409 -0.055171072 -0.001547271 0.020353528
0.08054834 -0.013713958 -0.07827249 -0.1253546 0.02544766 -0.12099066 0.06577237 0.17024179
0.095821865 -0.0266803 0.0671213 0.039083127 -0.059716515 0.11757989 -0.06660422 0.005034679
0.10045745 0.089540064 0.089802064 -0.06149584 -0.052939247 0.08302557 -0.030084074 0.029975994
0.0924877 0.13286775 -0.08702017 0.08405179 0.003402001 -0.1332692 0.05820669 -0.1799463
-0.09291921 0.08265109 -0.01443747 -1.6065658e-05 -0.18082905 0.12194443 0.044926304 0.1703324
-0.0077710757 0.033410836 -0.014312029 0.07652799 -0.035983685 -0.22906375 -0.006506904 0.17185165
0.050217066 -0.15100224 -0.013890898 -0.03843949 -0.027770502 -0.015392318 -0.09427777 -0.032570872
0.055133898 -0.13886632 0.05089224 0.07635713 -0.07171238 -0.2163891 0.09784463 -0.032602854
0.022583514 -0.04617917 0.02004064 -0.035065763 0.10227467 0.094162464 -0.09608993 0.06816206
0.2001913 -0.091228515 0.0075260065 -0.13090247 0.07490681 -0.12587716 -0.109936334 -0.15898792
0.10114794 0.07431809 0.114281125 -0.046313357 -0.072835915 0.118767895 0.08436859 0.09112578
-0.070682466 -0.08372713 0.029069996 0.011994196 -0.008860318 0.0014224079 0.07097128 0.009805976
-0.006590406 -0.056394972 -0.051050946 0.16456242 0.04891627 -0.14044334 0.14414555 -0.14498089
-0.08959863 -0.03657157 -0.04022468 -0.22325382 0.25876206 0.034228094 0.12947123 -0.14344816
0.043316532 -0.09540022 0.29160956 0.20531009 -0.18042769 0.071493246 0.04773071 0.13198912

conv_block.1.0.bias f4 [4]
00000000: d18b 623d 9702 653c 90a7 d1bc b67f a53c
0.05530912 0.013977668 -0.025592595 0.020202499

conv_block.2.0.weight f4 [4, 8, 3, 3]
00000000: a4c4 d3bd 615e 8c3e f5ff d63d 0942 82bc
00000010: 1fd4 813e 6a36 07bd cf84 ad3c 7200 edbd
00000020: d59a 3e3d e047 463e 3c8a 283d 91ca ec3b
00000030: 0061 d4bd 3d74 d23d 1b19 0abd afa4 63be
00000040: 783c f03d c649 b13d 2e0a 4abd 2686 36bd
00000050: 0121 603d 2ea6 b13c 7dd7 0fbe 0d67 aabd
00000060: 6b83 203d 4bb4 2e3d 806f ebbd 41b6 1dbc
00000070: 535e a0be 8e2c f13d effb b03d dad1 243e
00000080: 25b5 bebe 5ee3 5cbd 0c7e 21be 518c 663e
00000090: de01 9f3d 759b 22be 6244 be3c ed0e 2e3e
000000a0: 4155 0dbe b2ce 553e 802c 8a3d 449e 003e
000000b0: d7b4 77be 80f1 29bd 4345 a83d d4bf b5bd
000000c0: a873 51bd 0e0d af3b ebe3 cf3d 6161 cb3d
000000d0: 35a7 a3bd 2545 713d 7279 f3bd 11f9 6d3c
000000e0: d3d0 c6bd 38cd 9bbe 0289 843e 84db 913d
000000f0: f3c0 19be 846b 26be 5210 a23d 82ea 8abd
00000100: f66a 0e3e 3ef0 99bd 243f 433d 51e7 37be
00000110: 7482 e8bb a893 5bbc 50e4 26bc b8ff bbbd
00000120: 79e9 a3bd b503 2dbd 5a8e 28be 1f6d f33d
00000130: 9988 623e 25eb 253d 5cd5 a7bd 227a d4bd
00000140: d766 22bd 7d94 f1bd be7f 283e 1cd3 09bd
00000150: fe17 3cbc 48c7 9f3d f15a 22be 077c 9abd
00000160: 67fd 173e 82f5 db3d d055 5dbd 524f 643c
00000170: 6292 9c3d db1f 753d 5e96 bc3d 2aff b5bd
00000180: e87c 91bd 22f7 a4bd 8104 95bc 57f4 06bd
00000190: 87c8 3c3e c43a 793b 6a3c d4bd fbe7 3ebd
000001a0: c235 523e 874e 323e 1124 d8bd 1fba c7bd
000001b0: dd98 dfbc 9288 643e c3b3 243e b48d a9bc
000001c0: 21c4 3ebe 6067 223d 5b8f 6c3d 0081 113e
000001d0: b6b6 16be b357 c6bd 5bf6 6fbd 724b 7d3c
000001e0: 1602 8bbd 37c0 c3bd 6f02 40bd 9378 bdbd
000001f0: f3c1 d03d bd0e 47bd ad6c 88bd 52f9 11bd
00000200: fc56 00be 5f5a 5c3c e60f 8b3d f25f 63be
00000210: 127c 173d f973 833e eea9 2c3e f663 7b3d
00000220: bd9f 87bd b7f9 edbc a457 013e f3b6 353d
00000230: 2dad ab3d ad7c d03c fc20 9bbc f928 bd3d
00000240: 845a c3bd fd64 afbb 26c5 dabc 8165 043d
00000250: f88b 1fbe 8488 63be 7b69 d9bc 7b9d ac3d
00000260: 43c8 623d c29c b03d 383d f4bd a2db 24bd
00000270: e55b ecbd 312c 9dbd 661b 243d 307a 003e
00000280: b72d 143d 7481 e7bd 6d5d 9c3d 1486 e83b
00000290: 0d86 bbbd 8b93 623d 8a20 433d 7ec1 123d
000002a0: a192 9dbc 8987 00be ce1e 3ebd 7b84 cbbd
000002b0: 4a6e 4e3e 0d3b e2bd ee83 6b3b f0b4 4b3d
000002c0: 8f19 813d 7cf0 313d 325a 15be 08f8 2cbe
000002d0: b00c 113d 7fdb 5dbb c925 be3c 9205 93bd
000002e0: 9279 643d 1253 1e3e 2370 a93c 6d87 3c3d
000002f0: ef91 413c bcb7 f5bd b664 c53d 8a62 483d
00000300: 3e26 c93d 70ab 9f3d f28d 913d 60e2 a13d
00000310: 32a4 8bbc 853d dd3d 0589 e8bc b247 fe3c
00000320: cc0b d23d 1c9d 6cbd 9b05 7dbe b494 90be
00000330: 727d 433e a2d9 7e3d 2de7 98bd 7597 38bd
00000340: aa39 e8bc 6966 66bd 24e1 743c c237 8d3b
00000350: d1ac 82bc af22 b0bd aa5f b8bd d7a8 8dbd
00000360: 48ff df3d 26bc 23bd e211 80bd 04b3 06be
00000370: 3edb 303d 03de 4e3c 057f 153e 9667 febd
00000380: 0b34 8c3d d86e 2e3d 3efa 353e a315 75ba
00000390: 9c53 80bd d190 193e c728 da3c 03d2 f9ba
000003a0: b516 663d e572 443e a90e 413d ab60 043d
000003b0: 6641 c3bd 2b67 bfbc 840e 9e3d 8b17 36bd
000003c0: 1e22 163d d7d1 47bd 147f 6c3d 7434 583e
000003d0: 69d0 b0bd 94ef 283e a479 1abe 5bf5 a73d
000003e0: 1095 0dbc 20c1 d1bc 0a41 6f3e 8951 5cbd
000003f0: 1389 a53c 5e55 273e 93f8 de3d 9f1a f93c
-0.103402406 0.27415755 0.10498039 -0.015900629 0.25357148 -0.033010878 0.021181492 -0.115723506
0.046534378 0.19363356 0.041147456 0.0072262962 -0.10370064 0.10276077 -0.03371535 -0.2223079
0.117302835 0.08656649 -0.049326114 -0.044561528 0.054718975 0.021685686 -0.14047046 -0.083204366
0.03918783 0.04265241 -0.11495876 -0.009625972 -0.31321964 0.11776076 0.086418025 0.16095677
-0.37247577 -0.05392777 -0.1577074 0.22514464 0.07764028 -0.15879615 0.023225967 0.16997881
-0.13802053 0.20879629 0.06746769 0.12560374 -0.24190079 -0.041490078 0.082163356 -0.08874479
-0.05113569 0.0053421324 0.10150894 0.09930683 -0.079908766 0.058903832 -0.11888398 0.014524714
-0.09707799 -0.30430007 0.2588578 0.071219474 -0.1501501 -0.16251951 0.07913269 -0.0678301
0.1390799 -0.07516526 0.047667637 -0.17959334 -0.0070956293 -0.013401903 -0.01018627 -0.09179634
-0.08003516 -0.042239863 -0.16460553 0.118860476 0.2212242 0.040507454 -0.08194992 -0.103748575
-0.039648857 -0.117959 0.1645498 -0.033648595 -0.01148033 0.07801682 -0.15855004 -0.075431876
0.14842759 0.10740186 -0.054036915 0.013934927 0.07645108 0.059844833 0.09208368 -0.08886559
-0.07103902 -0.08054949 -0.018190624 -0.032947864 0.1843587 0.0038029412 -0.103630856 -0.046607953
0.2052832 0.17412768 -0.10553754 -0.09752297 -0.02729457 0.22317722 0.16084199 -0.020697452
-0.18629505 0.039649367 0.057753902 0.14209366 -0.14718136 -0.09684696 -0.058584552 0.015459882
-0.06787507 -0.095581464 -0.04687732 -0.09251513 0.10193243 -0.04859804 -0.06661353 -0.03563816
-0.12533182 0.0134492805 0.06790142 -0.22204569 0.036983557 0.25674418 0.16861698 0.061374627
-0.066222645 -0.029049737 0.12631088 0.044363927 0.0838264 0.025450075 -0.018936627 0.092363305
-0.09538749 -0.005352615 -0.026705336 0.032323364 -0.15580738 -0.22220045 -0.026539555 0.084284745
0.055366766 0.08623649 -0.11925739 -0.04024852 -0.11540965 -0.076744445 0.04006519 0.12546611
0.03617641 -0.11303988 0.07635007 0.0070960615 -0.091564275 0.05531649 0.047638454 0.03582906
-0.019234957 -0.12551703 -0.046416096 -0.09937378 0.2015926 -0.11046419 0.003593679 0.049733102
0.06303703 0.043442234 -0.14585188 -0.16891491 0.03541249 -0.0033852754 0.023211377 -0.07178797
0.05578 0.15461376 0.020683354 0.04602759 0.011814578 -0.11997935 0.0963835 0.0489221
0.09821747 0.07796371 0.07107152 0.07904506 -0.017046068 0.108027495 -0.028385649 0.031040046
0.10256156 -0.05776702 -0.2470917 -0.2823845 0.19090822 0.06221927 -0.07465968 -0.045066316
-0.028347809 -0.05625001 0.014946256 0.0043096254 -0.015951546 -0.08600365 -0.090026215 -0.06916969
0.10937363 -0.039974354 -0.06253411 -0.13154227 0.043177836 0.012626174 0.14599235 -0.12422101
0.06845864 0.042586178 0.17771241 -0.00093492324 -0.06265947 0.1499665 0.026630772 -0.0019059781
0.056174 0.19184454 0.04713312 0.032318752 -0.09533958 -0.023364624 0.077176124 -0.044456046
0.03665363 -0.048784103 0.05773838 0.2111376 -0.08633501 0.16497642 -0.15085465 0.08201095
-0.008641496 -0.025604784 0.23364654 -0.053788695 0.020206964 0.16341159 0.108872555 0.030408202

conv_block.2.0.bias f4 [4]
00000000: 6e9f 7d3d 95c7 8ebd 6e72 923d 13e1 8bbd
0.061919622 -0.06971661 0.07150732 -0.06830039

conv_block.3.0.weight f4 [4, 8, 3, 3]
00000000: e467 d23c 8dac 933d 8aef ffbd ca3e 09be
00000010: 4591 063d d0eb 87bd 929b b6bd e579 0e3e
00000020: b93f 95bd e98d 22be b800 c4be 1436 29bd
00000030: 9928 02be c64f 52bd 1191 f5bd 05af cebd
00000040: 95a9 01bd cf30 3bbe 347a b23d 6763 5d3d
00000050: 6aeb 3339 c043 fabd 535d 5dbd c2df 803d
00000060: d02d 80bc a956 ce3d 8ee6 b13d a2ab c53d
00000070: 3feb bdbd bb5d 803e 96b9 903d 6258 10bc
00000080: 83c8 85bd 657c e23d 5692 b7bd 1ba8 70bd
00000090: ad08 93bd 04b3 fcbd d094 ddbc f8e5 8b3d
000000a0: fc03 d7bd 5748 b5bd 6d4f 08bd d506 49bd
000000b0: ec4b 9b3d e083 72bd 93a6 183e c3fc 49bc
000000c0: 2725 d5bc 8a71 01be 7785 80bd 40f9 f13d
000000d0: c04f 613c 0d66 ea3c 417c 49be e618 cebb
000000e0: 0e38 6e3d 4ac2 843c 4350 a43d 65e0 fcbb
000000f0: dc00 33be 82d8 69be 210d 1fba 454c dcbd
00000100: 6b0b 983d f23a 4ebc e228 033d 1959 28bd
00000110: 880f aa3d 4076 3ebd 8daf 35bd 0742 2f3d
00000120: d6b2 543d d643 1f3e 3720 12bd 8e7c 81bc
00000130: 3e9a 98bd 2cc2 0e3e 1f91 2c3e b8da 073e
00000140: 9c53 843d 2046 68be b7a4 8c3d 405f 2abb
00000150: 8549 f0bd b90b 88bc f3ed 5abd f282 dd3d
00000160: 5b0a ffbd 16e1 433d aeba 983c dbd4 073c
00000170: f13a d2bb 1c67 283e cf81 da3c 3651 61bd
00000180: 46e4 ccbd 18c7 25bd e927 1b3e 71f7 ea3c
00000190: bebd 743d 6ee3 253d 7022 b63d 299d 983d
000001a0: 3aca 253e 96db 173d ae14 dabc 8a10 21bd
000001b0: 5221 8a3d 5836 72be 400f 523e ceaa 87bd
000001c0: 55e9 023e c9c5 e3bd 64d0 55be 69eb c23d
000001d0: 4410 c73c e527 d73d b8b6 d93d 62c9 c83d
000001e0: 4b59 9cbd 2d7b ab3d 40b5 dc39 a338 093e
000001f0: 37d4 2cbd 40ff 003e 9c2f f03b 6927 623d
00000200: 208c b93c e80c 0bbe 7cb1 0c3d 271c 423e
00000210: 187f 043e 4da7 b4bb 8982 d13d 5447 093e
00000220: c617 f2bc 798e 02bd 6408 b8bd 72c7 cabd
00000230: d74e 23bd 93b8 823d df17 92bd e3ae b2bd
00000240: 3e6a bc3c 14e0 0fbe faf8 cf3d 5016 4abd
00000250: 379e 203c d593 2f3e 9553 fb3c 71bf 4fbe
00000260: b760 da3d 2086 13be 12f5 be3b a56f a33c
00000270: 0af7 2ebe 35f2 0bbe bf0f 66bd 10d3 1e3d
00000280: 2955 e1bd bdaa 833e 757d 053d 121c 383d
00000290: 6063 2fbd c038 5cbd b028 a1bd 411f bebd
000002a0: 6f20 ddbc 2b80 88bc dbb6 83bd 379a 0ebe
000002b0: cbe4 1dbd 3908 6bbc 9112 d13c 6355 a63d
000002c0: 9e27 18bd d6c0 8e3d a083 d2b9 aab2 8d3d
000002d0: 809a 7cbd 55f3 103e 63af 0dbd 30fd 7ebe
000002e0: 1f94 0cbe c830 f1bd f521 77be 7d08 b03d
000002f0: 3a6f 1a3c 049a cd3d ac9b 9cbc a696 0dbe
00000300: b17e 553d c4f7 a03c 0b56 7c3b e7bf 223d
00000310: 1ed2 7bbd 2866 22be 79a5 a4bd b6be 503c
00000320: 64f1 d4bc d597 c9bd 55f7 ad3d e7ee e3bd
00000330: 378d 173e b96d b33d be69 e9bd 0185 8b3d
00000340: ca5a a53c 7d8b 253d 11ca 9e3d c990 083d
00000350: 6952 e03d ffc4 9dbd 5a20 d8bd 18bf c7bd
00000360: 985b e73c e474 98bd 66a5 9ebd 7e4e bdbd
00000370: c6e8 fa3d 1584 2c3d 34d1 aabb 09f4 e3bd
00000380: be79 783e a08b 723e ae4f b23d 065c 953c
00000390: ecf3 3fbe 09b9 a7bd 2955 82bd 8da7 1b3d
000003a0: 4e10 2c3e c4e0 34be 1e9b 8e3a 8452 a13d
000003b0: 2850 bc3c 6993 9c3c f01c 29be 6f34 d9bc
000003c0: 726b 823d bedd b53d ccfe 423d 66fe 463d
000003d0: d882 f53d 30bd 503d 6350 43bd 7d7a 483e
000003e0: bfb0 063d 708f 51bd 1e74 c8bc 6468 533e
000003f0: 1bf1 05be d982 d03d 3cfe e43d 9f70 55bd
0.025684305 0.07210646 -0.1249686 -0.13402858 0.032853384 -0.066367745 -0.089163914 0.13913687
-0.07287545 -0.15874447 -0.38281798 -0.04131134 -0.127108 -0.05134561 -0.1199056 -0.10091976
-0.031655867 -0.18280338 0.08714715 0.054049876 0.00017158469 -0.122199535 -0.05404408 0.062926784
-0.015646845 0.10075123 0.08686553 0.09651877 -0.09273385 0.2507151 0.07066648 -0.008810135
-0.06532385 0.110588826 -0.08963458 -0.058754068 -0.07179389 -0.12338832 -0.027048498 0.068309724
-0.10498807 -0.08851688 -0.03327887 -0.04907878 0.0758284 -0.059207797 0.14907293 -0.0123283295
-0.026018692 -0.12640968 -0.062754564 0.11815119 0.013751924 0.028613115 -0.19676305 -0.006289589
0.058158927 0.016205925 0.08023121 -0.0077171796 -0.17480797 -0.22836497 -0.0006067325 -0.10756735
0.07424053 -0.012587296 0.03202141 -0.041100595 0.083037436 -0.04649949 -0.04435687 0.042787578
0.051928364 0.15553221 -0.035675254 -0.015806463 -0.07451294 0.13941258 0.16852234 0.13267028
0.0646126 -0.22683 0.06867354 -0.0025996715 -0.11732773 -0.016607152 -0.053449582 0.108159915
-0.12453147 0.04782208 0.018643703 0.008290495 -0.006415718 0.16445583 0.026673226 -0.05500909
-0.10004477 -0.040473074 0.15151943 0.028682442 0.059751265 0.040500097 0.08893287 0.07451851
0.16190425 0.037074648 -0.026621189 -0.039322414 0.067446366 -0.23653543 0.2051363 -0.06624375
0.12784322 -0.11121709 -0.20880276 0.09517557 0.024299748 0.10505656 0.10630554 0.09804036
-0.07634219 0.08373103 0.00042096712 0.13400511 -0.04219457 0.1259737 0.007329894 0.055213366
0.022649825 -0.13579142 0.03434895 0.18956052 0.12939107 -0.005513108 0.10229976 0.13406116
-0.029552352 -0.031874154 -0.089859754 -0.099013224 -0.03987011 0.06382861 -0.07133459 -0.08724763
0.022999879 -0.14050323 0.101549104 -0.049337685 0.009803346 0.17146237 0.030679503 -0.20287873
0.10662978 -0.14406633 0.0058275545 0.019950697 -0.17086425 -0.13666613 -0.05616736 0.038775504
-0.11002571 0.257162 0.03259035 0.044948645 -0.04281938 -0.05376506 -0.07869089 -0.09283305
-0.026993005 -0.016662678 -0.06431361 -0.13926016 -0.038548272 -0.014345222 0.025521548 0.08121755
-0.037147157 0.06970374 -0.0004015239 0.06918843 -0.06167078 0.14155324 -0.03459109 -0.24901271
-0.13728379 -0.117768824 -0.24134047 0.08595369 0.009425933 0.10039142 -0.019117199 -0.13826999
0.052122775 0.019649394 0.0038503434 0.039733794 -0.06147968 -0.15859282 -0.08039374 0.0127407815
-0.02599401 -0.09843413 0.084944405 -0.111295514 0.14799963 0.08761162 -0.11397122 0.06812478
0.020184893 0.04041623 0.07753385 0.033341203 0.109532185 -0.0770359 -0.105530456 -0.09753245
0.028241917 -0.0744417 -0.07746391 -0.09243487 0.12251429 0.04211815 -0.0052129272 -0.111305304
0.24265191 0.23686075 0.08706604 0.018232357 -0.18745393 -0.081895895 -0.06363899 0.038001586
0.16803095 -0.17663866 0.0010879969 0.07877067 0.02298744 0.01911326 -0.16514945 -0.02651426
0.0636815 0.088801846 0.047606274 0.048582457 0.11987847 0.050961673 -0.047684085 0.19577976
0.032883402 -0.051162183 -0.024469431 0.2064529 -0.13080256 0.10181207 0.11181304 -0.052109357

conv_block.3.0.bias f4 [4]
00000000: 1358 88bc c9cf 90bd efe3 b53a e789 41bd
-0.01664356 -0.07070882 0.0013877134 -0.047250655

conv_block.4.0.weight f4 [4, 8, 3, 3]
00000000: 2b2f df3d 0ff3 fbbd ee98 e3bd 7650 76bd
00000010: 2cef aa3c caa9 b83d e3d8 c5bd 826d 0b3d
00000020: 3860 ccbd 97d3 7b3d 60d3 d1bd a921 91bd
00000030: 81b4 083e 87d9 7a3d 010f 4cbd 19da 58bd
00000040: eda9 c83b 4ee7 803d 772a 853d 00ac 98bc
00000050: af1c 1bbe f10d aabd cccd d9bd 1faf 4abd
00000060: bd92 8c3d 7212 93bd bb3c 523d 1008 ee3c
00000070: 6a43 443e a720 ea3c 69b0 8a3d 691d 173d
00000080: df64 373d ff5b 8abd 0464 d53d c24a 74bd
00000090: 7650 06bd cb9c 173e e824 d03d 8307 3bbd
000000a0: 4097 74bd 9984 fcbd 3aaa be3d ddd4 66bd
000000b0: b9ce 4d3d 3d12 23bd b945 79bd 5d7c 63bd
000000c0: eb95 c43d 3f80 96bd 574f 553d bea1 e63c
000000d0: 3287 72bc d247 9e3d 3a8c 10bc 80d3 24be
000000e0: d82e d73d 2bd0 6e3d 1ab0 973d 53cf 4a3d
000000f0: 9c71 dcbd 4f08 2dbe 4fec 203e 992f 463c
00000100: 7202 1abd deea 9f3d 8423 8f3d 18a5 af3d
00000110: 1d97 a83d 5d7c b2bb 2321 ebbc 67ec 863c
00000120: d3ac ed3d 1807 6e3c 56ce 92bd 4868 bd3b
00000130: c16e 7e3d f698 db3d 528e 623c dfe4 7c3d
00000140: d91c debd a19a 7438 3137 f73d f1b6 2abd
00000150: 8f45 283b 348e ed3d 102e f93c 615c c13c
00000160: 3b49 c73c f979 5b3e 5929 eb3d 8fb5 8c3d
00000170: f855 00be 963b 973c 5b39 1f3e 4b92 603d
00000180: c988 36be 248f 7b3d 676f ae3d a9db 07be
00000190: 781e 2a3a 291f f43b 006d 82be baa1 96bc
000001a0: 898b ae3d 42e3 d0bb 367e 50be 47c9 27be
000001b0: 3421 8cbb d8cf d3bd f623 0bbe 300e fb3b
000001c0: 5fc5 613d 2460 e6bd b445 083d d0c4 e4bd
000001d0: eaf8 6cbc 2080 18bd 18e8 b63d e6a6 363c
000001e0: 5791 08be d29f 303d 162c e43d d88a a5bd
000001f0: 47a4 b33c 9c5d 8abc 0308 93bd 6c40 6a3d
00000200: 160f 0d3e 2596 d63c 3052 81be 2b1f 743c
00000210: f290 2c3e 6526 7dbb ab72 a6bd e046 22be
00000220: 10be c5bd 31ab 3fbd 861d 77bd 8208 31bd
00000230: a460 d4bd baee 2ebe 5b55 b43c f1d7 50bd
00000240: 9389 7abd 128f 243d ec33 0c3e d43a ff3d
00000250: c059 153d 8d3c 9bbd 3f08 3abb 25fe 4ebc
00000260: 931c 013e 67f6 803c 7a4c 52bd cf1e e03d
00000270: aeb2 283d 7de6 75bc 3e0c d7bd 48ec 0e3e
00000280: d3bb 2dbd ffcf e53d 59b1 53bd f7db a0bd
00000290: c015 27bd ae1d dbbd b452 2f3d 11da 263d
000002a0: ae21 c2bd 4070 933b 4106 083d 125c cabc
000002b0: 05a1 a6bc e68a bdbd 05c3 10bd 6c01 8bbd
000002c0: 91bd b2bd a918 393c ce7d 253d f5c5 65bd
000002d0: 5811 0fbd 2434 143e 9983 0bbe b8a8 3fbe
000002e0: 8a84 b63d a7ae 23be db88 a4bd ddaf 933d
000002f0: e6ed 063d 15ff 1bbd fe88 d0bd ab6b 733d
00000300: 4ecb b93d cff3 35bd 48a3 793d f451 5cbd
00000310: 6496 ca3c 8088 aeb9 6811 3b3d 06d1 02be
00000320: 28f0 08bd a112 4fbc d413 473d 6daf 97bd
00000330: 9563 f4bd 8c77 aebc 1ea5 273e c52b 643d
00000340: 7bc1 bcbd 3366 5b3d 0f2e dfbd a671 2b3d
00000350: 8d41 07be 9a62 6f3d fcaa 46be 5f83 a6bd
00000360: a86e 3cbd 74ea 823d f529 bc3c 3ebc 223c
00000370: 6979 08bd ba9c 54bd 0774 37bd bf9e 073e
00000380: d255 fd3d 6d6e de3b 3678 1bbd 23ed 96bd
00000390: 9961 27be f0e2 cbbc c717 5e3d ccde 893e
000003a0: 3b56 44be 1bb9 213d 1580 5ebd 5832 34bd
000003b0: 0a0e 29be ba13 febd bb39 703d 998f 1cbd
000003c0: 180e 2a3b 2f1b a53d c439 c23d c30a 4ebe
000003d0: 92ec d43d 6bf2 063a 10ed 973d c933 1fbd
000003e0: 1ecc d7bb bad5 cdbc d59c ebbd 2555 46be
000003f0: a0b8 ea3c cfc7 273e 90b7 50be 1d90 34be
0.108976685 -0.12302219 -0.111131534 -0.060135327 0.020866 0.0901676 -0.096605085 0.03403998
-0.0997929 0.061481085 -0.10245395 -0.07086498 0.13350107 0.061242606 -0.049818996 -0.05294237
0.0061237724 0.06294118 0.0650224 -0.018636703 -0.1514766 -0.0830344 -0.10634956 -0.049483415
0.068639256 -0.071812525 0.05132745 0.029056579 0.19166341 0.028580023 0.06771929 0.036893282
0.044773933 -0.06755828 0.10419467 -0.059641607 -0.032791577 0.14805906 0.10163289 -0.04566146
-0.059714556 -0.123299785 0.09309812 -0.056355346 0.050245974 -0.039812315 -0.06085751 -0.055538524
0.09598907 -0.0734868 0.052077617 0.028153297 -0.014802741 0.077285424 -0.008822495 -0.16096306
0.105069816 0.058303993 0.074066356 0.049514126 -0.10763857 -0.168977 0.15715145 0.012096309
-0.03759999 0.07808469 0.06989196 0.08576411 0.082319476 -0.005446954 -0.028702324 0.016470147
0.11605229 0.0145280585 -0.07168262 0.0057802536 0.062117342 0.10722534 0.013827877 0.061741706
-0.10845346 5.8318143e-05 0.12071074 -0.041678373 0.0025676226 0.11599389 0.030417472 0.02360362
0.024326911 0.21433248 0.11482496 0.06870567 -0.12532794 0.01846103 0.15549223 0.054827016
-0.17825617 0.061415806 0.08517342 -0.13267387 0.00064895255 0.0074500036 -0.25473785 -0.018387664
0.08522708 -0.0063747475 -0.20360646 -0.16385375 -0.004276419 -0.103423774 -0.13587937 0.0076616034
0.05511987 -0.11248806 0.0332696 -0.111703515 -0.014463643 -0.037231565 0.08930987 0.01114819
-0.13336693 0.043121167 0.11141221 -0.08083123 0.02192892 -0.01689034 -0.071792625 0.057190344
0.13775286 0.026194641 -0.25258017 0.014900009 0.16852167 -0.0038627621 -0.0812734 -0.15847349
-0.09655392 -0.04679412 -0.06033089 -0.043221004 -0.10369995 -0.17083254 0.022013357 -0.050987188
-0.061166357 0.040175505 0.13691682 0.124623924 0.036462545 -0.075799085 -0.0028386263 -0.012633835
0.12608556 0.015742494 -0.051342465 0.10943376 0.041186027 -0.015008566 -0.10500382 0.13957322
-0.04241545 0.11221313 -0.051682804 -0.07854455 -0.040792227 -0.1069902 0.04280348 0.040735308
-0.0947908 0.004499465 0.03320909 -0.024702106 -0.020340452 -0.092550084 -0.035342235 -0.067873806
-0.08727563 0.011297383 0.04040318 -0.05609699 -0.03492865 0.14473015 -0.1362442 -0.18716705
0.089119986 -0.15984593 -0.080339156 0.07211278 0.03294172 -0.038085062 -0.10182379 0.059428852
0.090719804 -0.044421967 0.060946733 -0.053789094 0.024729915 -0.00033289567 0.045670897 -0.12775049
-0.033432156 -0.012638719 0.048602894 -0.07406507 -0.11933056 -0.021297239 0.16371581 0.055705804
-0.09216591 0.05356426 -0.10897457 0.04185643 -0.132086 0.058443643 -0.19401163 -0.08130526
-0.046003968 0.06392375 0.022969225 0.009932576 -0.03331891 -0.05190728 -0.044788387 0.1324415
0.123698846 0.006788066 -0.03795644 -0.07369449 -0.16345824 -0.024888486 0.054221895 0.26927793
-0.1917352 0.03948317 -0.054321367 -0.043993324 -0.16509262 -0.12406106 0.058648806 -0.038222883
0.0025948342 0.080618255 0.09483674 -0.20121293 0.10396685 0.00051478174 0.07418263 -0.038867746
-0.006585612 -0.025126327 -0.11504523 -0.19368418 0.02865249 0.16384815 -0.20382524 -0.176331

conv_block.4.0.bias f4 [4]
00000000: ff98 6c3c 21f8 eb3c afe2 073a c81f 4a3d
0.014440774 0.02880484 0.000518362 0.049346715

conv_block.5.0.weight f4 [4, 8, 3, 3]
00000000: 2b2b 723e b520 303e 55e6 423e c900 debb
00000010: 9071 7bbd 154a cfba d85f 693c 282f 39bd
00000020: 1fa8 233e 4014 023e 8879 8fbd f5b6 60bd
00000030: bcda df3d 8e73 e63c d3ba bcbd 7e71 a6bd
00000040: eeb8 273d 8f4b 823d 403c 063d ac30 36bc
00000050: 592c d4bd 5fb1 493d 0ba2 81bd f1e3 a73b
00000060: 48cb 9f3d 8dcb 4a3d af6c be3a a3cd 113d
00000070: 9f69 983c da28 0c3c 8225 f7bb e887 993d
00000080: 1878 b4bd aac9 fe3d 4779 793c 870e b33d
00000090: 9f74 313d b13d bebd c27e ad3d ca2c ebbd
000000a0: bf09 a1bd f705 76bd 7a8b 5d3d 9ac1 953d
000000b0: dccc 3f3d 9f90 423d e01a 4bbc 0944 133e
000000c0: a58e 4f3e a7a7 10be 5175 403d 1c65 d8ba
000000d0: f9c5 2b3e 1248 1c3e b01a 9e3d 7505 b73c
000000e0: 1271 6c3e 6210 603e 5cda 73bd ed3b c63d
000000f0: 03aa d53d abfc 213e e7c7 50be fad5 d03d
00000100: 7cd0 0f3d c37f a7be ce78 133e 356e 4d3d
00000110: 4c79 3e3e 41c5 9abd 48a0 363e 4003 32bd
00000120: fdc6 1c3d a085 b33d b28d cdbc 622c 603e
00000130: 1e51 1d3e f4e5 21bb a02e ad3c 3ac2 763e
00000140: 0bca 773e 2cb5 cf3d 2769 f03c ba51 d63d
00000150: 8cc8 51bd bcf1 6b3c a3ff 1e3b f40d 473c
00000160: 619c 963c bffe cfbd 5e1f ca3d 8e30 f03d
00000170: 4d61 543d 79bc d43d 59ec 5f3d 0a4f 73bd
00000180: 823d 51bd beda 10bb acd1 0d3d 1b35 a33d
00000190: 25a0 a33d b26d 003e 5ce0 40bd ea72 0c3e
000001a0: ad85 21bd 5a1f 713d 3e92 9d3c 0c57 2e3d
000001b0: 1f6d ce3d ddf9 993d 77f3 7c3c 45b6 bbbd
000001c0: dcef 2ebd 871c 353d baa4 713d 05b5 c2bd
000001d0: fc61 4abd e539 16be 884d 1cbe 7660 543e
000001e0: f5a5 fb3d 1181 1e3e 5a6a f5bc 5bfb 18be
000001f0: 824e 84bd dd8c 793e 5721 ec3d 7e06 4d3e
00000200: dbea c33d 4919 873e cad2 97bd 5519 1b3e
00000210: c86f a83d eabb 363e 8988 a9bd a81b 463d
00000220: 6eba 183e 0294 06be 7b86 4b3e 3663 c4bd
00000230: 9ac5 8c3e eb35 43be 3e11 e93d 805a e73c
00000240: 5f03 223e 5fb5 153e 5227 493e 9bf4 51bd
00000250: b467 513e 6157 093e abaf 27bd c747 ac3d
00000260: d5b9 18be 4262 9cbd c6d1 1b3c 27fb d43d
00000270: a3f7 1c3d c8c2 8cbc 09a5 b8bd 00cf 9e3d
00000280: 874f 153e 5ed6 55bd 9a5e 1d3d 1757 d13d
00000290: b041 1b3d ab63 14bd 9c21 90bd 70ba a1bc
000002a0: e5ab 01bc b85d eabc 8ad6 e4bd 079d a9ba
000002b0: f523 1a3d edf9 923c f983 a73d e830 67bd
000002c0: ce5f d23d 4ca0 013e 71a8 c93c cce8 7d3a
000002d0: d3e5 19bd 4e27 6c3d 113f 773c 9961 60bb
000002e0: e686 7c3d 8918 55bd d9cd a6bc 7b89 74bd
000002f0: 57b0 eb3d 14a2 f03d c2c4 d7bd 7ee9 3ebd
00000300: 560f 223e 24ab 243e 6c81 773d 3d82 6e3d
00000310: 56f7 3cbe 41af a43e e4e9 8b3b f3b2 18be
00000320: d059 7f3e 14e5 a83d 7fb1 e8bd 5b52 d33d
00000330: edc7 0a3e a9cd 29be f77d 653e 053b 01be
00000340: f35a b53e c5f2 c93c fb2c 2f3e bebc 12be
00000350: bdff a63d b3ba 7cbe d2fe fe3d 4d4c 1f3e
00000360: 7591 373e d29f 0a3e 609e 383d 7387 373d
00000370: 3ca1 4a3d 4745 2f3e 515b bc3d dd97 d93d
00000380: 7ad4 b1bc e489 80bd c026 7a3d 19fc c03d
00000390: 64e7 863d ba01 b6bc 8954 91bc 1e2d 1fbd
000003a0: 2809 1e3c 3b12 263d b115 6ebb 8d22 9ebd
000003b0: 9907 913d 6a0e 90bd 3d47 023e eae3 a93d
000003c0: ca22 3dbd 5e69 9f3d a054 6e3c e41b 00bd
000003d0: 161c f93d 798a 74bd af01 023e 4e47 b6bd
000003e0: ad91 cf3d f380 b63b d831 773d 4289 863c
000003f0: db63 8e3d 2efd ae3d 60e7 4dbd 7bc0 45bd
0.2364928 0.17199977 0.19033177 -0.006774996 -0.0613876 -0.0015814925 0.014244042 -0.045210987
0.15982102 0.12703037 -0.07005602 -0.05486198 0.10930392 0.028131273 -0.092153214 -0.08127116
0.040947847 0.06362068 0.032772303 -0.011120003 -0.10360021 0.04924142 -0.06329735 0.0051236083
0.07802445 0.049510527 0.001452824 0.0355965 0.018605052 0.008554662 -0.007542313 0.07496625
-0.088119686 0.12440808 0.015226669 0.08743005 0.04332411 -0.092891105 0.08471443 -0.11483152
-0.07863187 -0.060064282 0.054088093 0.07312317 0.04682623 0.047501203 -0.012396544 0.14381422
0.20269258 -0.14126454 0.04698688 -0.0016509625 0.1677474 0.15261868 0.07719934 0.02234147
0.23090008 0.2188125 -0.059534416 0.09679399 0.10432818 0.15819041 -0.20388757 0.10197063
0.035110936 -0.32714662 0.14401552 0.05015393 0.18600959 -0.075571544 0.1783458 -0.04346013
0.038275708 0.08765721 -0.02509198 0.2189193 0.15362975 -0.0024703713 0.021140397 0.24097529
0.24198167 0.10141978 0.029347016 0.10464807 -0.051216647 0.014400896 0.0024261258 0.012149323
0.018385114 -0.10156011 0.09869264 0.11728011 0.051850606 0.10387511 0.054668758 -0.05940155
-0.05108405 -0.0022103037 0.034623787 0.079691134 0.079895295 0.12541845 -0.047088966 0.13715711
-0.039434124 0.05886779 0.019234773 0.042563483 0.10079407 0.07518361 0.015438906 -0.091656245
-0.042709216 0.04421666 0.058994986 -0.09507183 -0.04940985 -0.14670523 -0.15263951 0.20739922
0.12287513 0.15478922 -0.029957939 -0.14939635 -0.06460287 0.24370141 0.115297966 0.20022008
0.095662795 0.2638648 -0.07413252 0.15146382 0.082244456 0.17845121 -0.08277995 0.04836622
0.14914867 -0.13142398 0.19875519 -0.095892355 0.27494508 -0.19063537 0.11380242 0.028241396
0.15821598 0.14619969 0.19643906 -0.051258665 0.20449716 0.13412239 -0.040939014 0.08412128
-0.1491464 -0.07635929 0.009510463 0.10399466 0.038322102 -0.017182723 -0.09015853 0.07754326
0.14581119 -0.05220639 0.038420297 0.10221689 0.03790444 -0.036227863 -0.070376605 -0.01974222
-0.007914518 -0.028609142 -0.111737326 -0.0012940475 0.037631948 0.01794144 0.08179469 -0.056443125
0.102721795 0.12658805 0.024616452 0.00096858735 -0.037572693 0.05765467 0.01509072 -0.003423786
0.061652087 -0.05202535 -0.020361828 -0.059701424 0.115082435 0.11749664 -0.105355754 -0.046609394
0.15826163 0.1608091 0.06042616 0.058229674 -0.18453726 0.32164958 0.0042698253 -0.14912014
0.24936604 0.08246818 -0.1136198 0.103184424 0.13552828 -0.1658236 0.22411333 -0.1262017
0.3542095 0.024651894 0.17107002 -0.14329812 0.08154247 -0.24680595 0.12450947 0.1555645
0.17926581 0.13537529 0.045072913 0.04480691 0.04947017 0.17116271 0.09197105 0.10624669
-0.021707762 -0.062763005 0.06107211 0.09423084 0.06587103 -0.02221762 -0.017740505 -0.038861386
0.009645738 0.04054473 -0.0036328847 -0.07721434 0.07081527 -0.07033999 0.12722488 0.08295424
-0.046175756 0.07783769 0.014546543 -0.0312766 0.1216356 -0.05970237 0.12695955 -0.08900319
0.10135207 0.005569571 0.06035027 0.016422872 0.0695264 0.08544384 -0.050269485 -0.048279267

conv_block.5.0.bias f4 [4]
00000000: bf53 07bd 1a05 27bd 2b38 5dbd 3fbd 95bd
-0.03303885 -0.04077635 -0.054008644 -0.073114865

conv_block.6.0.weight f4 [4, 8, 3, 3]
00000000: d112 83bb 98fc 773d cadf e6bc 1c58 e63c
00000010: 9757 ab3d 8429 d0bd 41bc 94be 5b78 363e
00000020: 64d1 c2bd c488 9e3d 0dee e13b 7373 2b3d
00000030: f9ec c83d a1b8 b1bc a2f2 e7bd e5c9 043d
00000040: 295c 623c b9f8 ae3d 6177 7f3e dca5 25bb
00000050: 0fb2 c3bd bfea 47be bed2 a83d 9020 8c3d
00000060: 4081 653c eb61 2b3d eea5 b1bc 6943 71bd
00000070: bbc2 b9bd ec76 293e 10a7 aabc 500e 583e
00000080: 4d7c 2abd e6aa 933d 3a6e 4abe f7de a4bc
00000090: 4214 ad3d d73b 2bbd d496 7cbd cc92 b43c
000000a0: 909b f0bd 48d1 e63d 30ea 4e3c e4e9 dabd
000000b0: d597 efbc ac08 8e3d 10f3 5ebd b02d b4bd
000000c0: 130c 34bd 7dd6 d2bd d703 bdbd 11ca 4b3b
000000d0: 10c8 6fbd 0425 01bd 0c64 dcbd fbf2 9bbb
000000e0: 20c2 c23d e280 94bd 162f c83d 68a4 fa3c
000000f0: 2a54 24bd eb4e 3c3d 161d 3fbd 6276 71bd
00000100: 2e03 773d 7f96 9e3d 17f6 43bd ab55 aabd
00000110: e573 c6bc 6cb0 05be c642 ebbd 070c bd3d
00000120: efc0 163e 1ddb 0abe fdea 6c3e e1ea ab3c
00000130: b68e 97be 69c9 1c3e 407b ca3d d0fd 8b3d
00000140: a419 02be fd70 72bd bc30 a3bd 7da7 883d
00000150: 1d8b 89be 7f58 883c 409a 173e 1809 a93b
00000160: 4d24 223e 2924 9abd 6aaa 7e3d 44e8 cf3c
00000170: ed4a 8dbd bb0d 6f3d d326 6d3e 47f0 adbc
00000180: 8921 583d eb33 413e 473b 6cbe 9b37 2ebe
00000190: faf8 763d 9b80 4e3e 9243 bf3d 4ffc 7c3d
000001a0: e905 b6bd 2146 85bc 3ba5 95bb 2c7b 1f3e
000001b0: 6e0a a9bd c38a 4c3d 27d1 01bd 44e9 40bd
000001c0: 2ded bd3d 5e7a b1bc 0739 e13d 35d1 e0bd
000001d0: 097e fa3d 25f9 5a3d e6d1 4c3d 238a 6f3d
000001e0: 6097 90bd c8e4 e63c a445 a03d 7b12 59bd
000001f0: 8db4 87bc 649a 1bbd a476 85bd fe19 56bd
00000200: e4f4 903d 14dc 67bd 5d7c 7c3d d833 e33d
00000210: 0620 de3b bc86 803d abc3 f23d c51b eebd
00000220: d20f 9dbc 98aa ca3c 2535 fcbd 79e4 eabd
00000230: d0e3 823d e8e0 a8bd 819c 52bd bd1d 873d
00000240: da92 02bd 7e8f 523d 4c7a 3f3d 8330 c6bd
00000250: d4bb 023e 2e41 cb3d b0a3 4e3e e0ca 3dbe
00000260: e637 c13e 1110 a53d 41e3 8e3d 6e8e e2bc
00000270: 5055 d5bd 2ce7 d23d 301e 723e 044d 8c3e
00000280: e510 5fbe b7b2 143e 2285 0dbd a117 bf3d
00000290: 207d ac3e 6b23 bbbc abd6 7b3d 6d39 a0bd
000002a0: 6b4c 6c3e dca7 08be 4810 69bd 7eea 8f3d
000002b0: 75ce 213e a638 8abd 1c09 d3bd cffb 2e3e
000002c0: aa0a 0c3d ed0c 4bbe 05e4 50be 8e23 8c3e
000002d0: 82cb 8a3d 9737 a0bc edb5 df3d 4383 9f3d
000002e0: 8bb4 28bd 1ac1 13bd 3c5b c7bb 8fa1 9c3d
000002f0: 6344 b93d 6160 c93d aca0 c6bd f771 8fbd
00000300: b2d1 803d 3081 a1bd c2e4 2b3c a925 cabc
00000310: 8440 f73c 62e0 ad3d 823d 83bd 5814 a03d
00000320: eff1 a23b e22d a2bc d502 e4bc 05ec 153e
00000330: 2a3d 98bd e90f 8b3d 8a46 473d c04c fb3d
00000340: 7786 41bd 97ff c03c e8b1 69bd de56 143b
00000350: 7aed 073e a055 13bd c7e9 8fbd 1160 ebbc
00000360: 26c6 41bd 28ee ad3b 777a 2cbd dce4 cb3d
00000370: efe5 7fbd 8b0b c1bd d16b 673e c715 dcbd
00000380: ee4a bf3d c20f 85bd 8b4b 243c 43a6 3a3d
00000390: b16a 633d 958f 99bd 37b1 233e ee01 713e
000003a0: 16a3 4cbe fd30 e43c e21b 643e a5dc c83d
000003b0: af49 f4bd efc1 c73d 2906 8cbd 6c54 453e
000003c0: 7536 4c3e 80d3 643e 2bd8 053e 9ba6 cebd
000003d0: 3004 37bd 1322 99bc 3bcc c2bd 316a f33a
000003e0: af96 2b3e 994e 063e 1068 48bd 6327 0cbe
000003f0: d125 e63d a2f0 c93d 5a23 b839 296d bebd
-0.004000046 0.060543627 -0.028182883 0.028118186 0.08366316 -0.101641685 -0.29049876 0.1781935
-0.09512594 0.0774093 0.006894833 0.041858148 0.09810824 -0.021694483 -0.113255754 0.032419104
0.013815918 0.08543534 0.24947883 -0.0025275862 -0.09555446 -0.19523142 0.08243321 0.06842148
0.014007866 0.04184143 -0.021685567 -0.058902178 -0.09070345 0.16549271 -0.020831615 0.2109921
-0.04162245 0.07210331 -0.1976861 -0.02012585 0.084511295 -0.041805115 -0.06166728 0.022042654
-0.11748421 0.11270386 0.012629077 -0.10689142 -0.029247204 0.06935248 -0.05443102 -0.08797777
-0.043956827 -0.10294817 -0.09229248 0.0031095783 -0.058540404 -0.03152944 -0.1076127 -0.00475919
0.09509683 -0.07251145 0.09774606 0.030595973 -0.040119328 0.0459737 -0.046658598 -0.05895079
0.060305767 0.077435486 -0.04784211 -0.08317121 -0.024225185 -0.13055581 -0.114873454 0.0923081
0.14722036 -0.13560148 0.23136516 0.020986022 -0.29601067 0.15311207 0.09886789 0.0683552
-0.12705094 -0.059189785 -0.0796828 0.06672571 -0.26863948 0.01664376 0.14804935 0.0051585548
0.1583416 -0.07526428 0.06217424 0.025379308 -0.068990566 0.058362704 0.23159342 -0.021232737
0.052766357 0.18867461 -0.23069488 -0.170134 0.060296036 0.20166247 0.0933906 0.061764058
-0.08887846 -0.016268792 -0.004566816 0.1557433 -0.082539424 0.04993702 -0.031693604 -0.04709746
0.09273753 -0.021664795 0.10997205 -0.10977403 0.122310705 0.05346026 0.050004862 0.058481347
-0.070601225 0.028185263 0.07825783 -0.05299614 -0.016565586 -0.037989035 -0.065167695 -0.05227088
0.07077959 -0.056606367 0.06164204 0.11093873 0.00677872 0.062756985 0.11853727 -0.1162639
-0.019172583 0.024739549 -0.12314824 -0.11469359 0.06391108 -0.082460225 -0.051418785 0.06597469
-0.03187833 0.051406376 0.04674749 -0.096772216 0.12766963 0.099245414 0.2017963 -0.18534422
0.3773796 0.08059705 0.06976939 -0.027655806 -0.10416663 0.10297999 0.23644328 0.27402508
-0.21783789 0.145213 -0.034550793 0.09330679 0.33689213 -0.022844037 0.06148402 -0.07823453
0.23076026 -0.13345283 -0.056900293 0.07027148 0.15801413 -0.06749086 -0.10304472 0.17088245
0.034189858 -0.1982915 -0.20399483 0.27370876 0.06777097 -0.019557757 0.109233715 0.07788708
-0.041187804 -0.036072828 -0.006083874 0.07648002 0.09046247 0.09832836 -0.096986145 -0.07004159
0.06289996 -0.07885969 0.010491552 -0.02467616 0.03018213 0.08490063 -0.06408216 0.0781638
0.0049726884 -0.01979727 -0.027833382 0.14640816 -0.07433541 0.06790144 0.048651256 0.12270498
-0.047247376 0.023559375 -0.05705443 0.0022634785 0.13274184 -0.03597033 -0.07027011 -0.028732331
-0.04730811 0.0053079315 -0.04210898 0.09955761 -0.06247514 -0.0942603 0.22599722 -0.10746341
0.093404636 -0.06497146 0.0100277765 0.045568716 0.05552167 -0.07498089 0.15985571 0.23535892
-0.19984087 0.02785539 0.22276261 0.098077096 -0.119281165 0.09753787 -0.068371125 0.19270486
0.19942649 0.22346306 0.13070743 -0.10090371 -0.044681728 -0.018693006 -0.0951161 0.0018571076
0.167567 0.1311592 -0.048927367 -0.136869 0.11237682 0.0986035 0.00035121554 -0.092981644

conv_block.6.0.bias f4 [4]
00000000: 75d3 453c 476a 943b a52a cbbc ce98 c2bb
0.012074341 0.004529271 -0.024800608 -0.005938626
