model.pt (torch, 22447 bytes, 18 tensors)

conv_layer.weight f4 [8, 1, 3, 3]
0	0xbe44c140	-0.19214344
1	0x3e3bfe2b	0.18358676
2	0xbeaf70f2	-0.34265858
3	0x3d1a9aff	0.037745472
4	0x3d9e98da	0.07743998
5	0x3e21fba1	0.15818645
6	0x3ea3f8f1	0.32025865
7	0x3e826b67	0.25472566
8	0xbe9a1abd	-0.30098525
9	0x3dce973e	0.10087441
10	0xbe8251c0	-0.25452995
11	0x3e8165a7	0.25272867
12	0xbe290fb4	-0.16509897
13	0xbd91ca1b	-0.07118627
14	0x3c0c7265	0.008572196
15	0xbe4df272	-0.20112017
16	0xbd4c4c2f	-0.04987734
17	0xbe090baa	-0.13383356
18	0x3c661a01	0.014044286
19	0xbdc88761	-0.097914465
20	0x3e718ba6	0.23588428
21	0x3e9abdfd	0.30223075
22	0xbde5a6a3	-0.11213424
23	0xbe8d8925	-0.27643695
24	0x3d571d49	0.052518163
25	0x3dfce558	0.12348431
26	0x3c81e04d	0.015854025
27	0xbe899ad9	-0.26875952
28	0x3c776f0e	0.015102161
29	0x3d2ffa52	0.042963333
30	0x3e1dcbeb	0.1540982
31	0xbeb30eec	-0.34972322
32	0x3d1383b7	0.036014285
33	0x3eb775fd	0.35832205
34	0xbe06e3d7	-0.13172852
35	0x3c9ec86f	0.019382684
36	0xbd58cf48	-0.052932054
37	0x3e824ba9	0.2544835
38	0x3e11d422	0.14241078
39	0x3e872039	0.2639177
40	0x3d8422d0	0.064519525
41	0xbea8d56b	-0.32975325
42	0x3e6c67a1	0.23086406
43	0xbe5d80e2	-0.21631196
44	0xbead67a8	-0.33868146
45	0xbd34bbfd	-0.044124592
46	0xbe1173bf	-0.1420431
47	0x3e2bb871	0.16769578
48	0xbe3ce19a	-0.18445435
49	0x3ea13eeb	0.31493315
50	0x3ddada96	0.10686223
51	0x3eb45dd5	0.35227838
52	0xbe44a0bc	-0.1920194
53	0xbe96134e	-0.29311603
54	0x3e85ed19	0.26157454
55	0x3e626c5b	0.22111647
56	0xbb241584	-0.0025037238
57	0xbe4e41b2	-0.20142248
58	0x3d2e7034	0.042587474
59	0x3e8ac845	0.2710592
60	0x3e7ac480	0.24489021
61	0x3e8b560e	0.27214092
62	0xbe8abe68	-0.27098393
63	0x3e1e2278	0.15442836
64	0xbd5adde6	-0.053434275
65	0xbe9dd3cf	-0.3082566
66	0x3e9a3db7	0.3012521
67	0x3e9e6d1e	0.30942625
68	0x3e978ddc	0.29600418
69	0x3e04285e	0.12906024
70	0xbeadca4d	-0.33943406
71	0x3e94d3b2	0.2906776

conv_layer.bias f4 [8]
0	0xbd6199f3	-0.055078458
1	0xbe3840da	-0.17993489
2	0xbd968094	-0.07348743
3	0xb9e54bf2	-0.00043734867
4	0xbe56179c	-0.20907444
5	0xbe9406de	-0.2891149
6	0xbdaf70d5	-0.08566443
7	0xbe453037	-0.19256674

conv_block.0.0.weight f4 [4, 8, 3, 3]
0	0x3d97ceae	0.07412468
1	0x3e020576	0.12697396
2	0x3db019e3	0.085986875
3	0x3dc54b8b	0.09633549
4	0x3e0143ec	0.12623566
5	0x3d70379b	0.05864678
6	0xbcd0a745	-0.025470385
7	0x3bdddb1a	0.0067705037
8	0x3d2601f0	0.04052919
9	0xbd81baf3	-0.06334486
10	0xbd981ea5	-0.0742772
11	0xbd133e32	-0.035947986
12	0x3e0647f1	0.13113381
13	0xbd5875b2	-0.052846618
14	0x3db7e215	0.089786686
15	0x3deac0d2	0.11462559
16	0xbdfe345b	-0.1241233
17	0x3c27fe88	0.010253556
18	0x3d40e5e2	0.047094233
19	0x3d286d45	0.041119833
20	0x3d8397ca	0.06425436
21	0xbceeae86	-0.029135954
22	0xbdd54245	-0.104130305
23	0x3e02b62f	0.1276481
24	0xbcae1a40	-0.021252751
25	0xbc009b62	-0.007849546
26	0xbcbb9a00	-0.022900581
27	0x3bcd6d98	0.006269168
28	0xbc842378	-0.016130194
29	0x3e25d5c7	0.16194831
30	0xbd3b378b	-0.045707267
31	0x3d6bee5a	0.057600357
32	0xbd615aa2	-0.055018075
33	0x3d86bdd7	0.06579178
34	0xbd8dd988	-0.069262564
35	0xbd7d74d4	-0.061878994
36	0x3ce450fe	0.027870651
37	0x3d56da94	0.052454546
38	0xbd6948dc	-0.05695425
39	0xbd234cf0	-0.039868295
40	0x3d8253b3	0.063636206
41	0x3df60096	0.120118305
42	0xbbfb36a1	-0.0076664244
43	0x3da80060	0.082031965
44	0xbd8a6822	-0.06758143
45	0xbd02e167	-0.03195324
46	0x3da33f6b	0.079710804
47	0x3e12f296	0.14350352
48	0x3e1f9b09	0.15586485
49	0x3e2129dc	0.15738624
50	0xbe0ec356	-0.13941702
51	0xbc392863	-0.011301133
52	0x3d415247	0.047197606
53	0xbd16f1ce	-0.036851697
54	0xbc2d4588	-0.01057566
55	0x3d598c7c	0.053112492
56	0x3b606ad0	0.0034243353
57	0x3d0f54a5	0.034992833
58	0x3d1f7abe	0.038935415
59	0xbe1b4920	-0.15164614
60	0xbdf7d495	-0.12101094
61	0xbc378b5f	-0.011202662
62	0xbda5d9fd	-0.080982186
63	0x3d1edf71	0.03878731
64	0x3d3a4e44	0.045484796
65	0x3e00bc64	0.12571865
66	0xbd7dcda2	-0.061963685
67	0x3dc9b0b2	0.09848155
68	0x3e0fed88	0.14055455
69	0xbcc5383e	-0.02407467
70	0x3d349b84	0.044093624
71	0x3ca74f68	0.020423606
72	0xbc2e80f8	-0.010650866
73	0xbc7f69f5	-0.015589227
74	0x3d316244	0.043306604
75	0xbdd69984	-0.104784995
76	0x3bc6c586	0.006066027
77	0xbda7bbdf	-0.081901304
78	0x3d73a8e4	0.05948724
79	0xbd63931f	-0.055560227
80	0x3daa8d31	0.083277114
81	0x3923d24e	0.00015623236
82	0x3d94398b	0.07237538
83	0x3dababee	0.08382402
84	0xbb9f50c0	-0.004861921
85	0xba278669	-0.0006390573
86	0x3dc4de4f	0.096127145
87	0xbdca0b3e	-0.098654255
88	0xbd2e098a	-0.042489566
89	0xbd85ee3d	-0.06539581
90	0xbd9603a0	-0.0732491
91	0xbdb6bf8b	-0.08923253
92	0x3d9a2ffa	0.07528682
93	0x3e030364	0.12794262
94	0x3ca436d7	0.02004568
95	0x3c917be5	0.017759273
96	0x3da026e8	0.07819921
97	0xbcc7e678	-0.024401888
98	0xbc91ff80	-0.017822027
99	0x3d003c14	0.031307295
100	0xbdec359d	-0.115336634
101	0xbe047395	-0.12934716
102	0x3d455e12	0.048185416
103	0xbbb968ad	-0.0056582303
104	0xbcf69bc8	-0.03010358
105	0xbca9af38	-0.020713434
106	0x3d98dcc2	0.07463981
107	0xbdcf45dd	-0.10120747
108	0x3d21b974	0.039483503
109	0xbd85307c	-0.06503388
110	0x3d4ac2d9	0.049502227
111	0x3d933930	0.07188642
112	0xbd948975	-0.0725278
113	0x3d931469	0.07181627
114	0xbd52bd31	-0.05144996
115	0xbda661a8	-0.08124095
116	0x3da3d4e9	0.07999594
117	0x3d8bdc0d	0.06829081
118	0x3da139b5	0.07872335
119	0xbc2c3df9	-0.010512822
120	0xbdd82e0a	-0.10555656
121	0xbc38daa4	-0.011282597
122	0xbd5a7958	-0.05333838
123	0x3d5fa98d	0.054605056
124	0x3d0ce12f	0.03439444
125	0x3e19a0f2	0.15002802
126	0x3d8daf3e	0.069181904
127	0x3d847213	0.064670704
128	0xbd2d922f	-0.04237574
129	0xbdaf507d	-0.08560274
130	0xbd834f5a	-0.064116195
131	0x3e08d1ee	0.13361332
132	0x3d64ec05	0.05588915
133	0xbdf90c3f	-0.12160539
134	0x3d04f712	0.032462187
135	0x3dd63c5b	0.10460731
136	0xbd88142e	-0.06644474
137	0xbd79f41c	-0.061023816
138	0x3dbb2aee	0.091390476
139	0xbd01099d	-0.03150331
140	0x3d5270b4	0.051377013
141	0x3c801736	0.015636068
142	0x3d3ebd10	0.046567023
143	0xbd906c9c	-0.070519656
144	0x3d41606a	0.04721109
145	0xbc9279a5	-0.01788027
146	0xbd587cbb	-0.052853327
147	0x3d3cca66	0.04609146
148	0x3d5104df	0.051030036
149	0x3de63631	0.11240805
150	0x3d62f706	0.05541136
151	0x3d8ad49b	0.067788325
152	0x3d6576d9	0.056021545
153	0x3dfce6cf	0.12348711
154	0x3d760360	0.060061812
155	0xbd62460f	-0.055242594
156	0xbd9575bb	-0.07297846
157	0x3ddcee47	0.10787635
158	0xbd8358b4	-0.06413403
159	0xbdcac2b1	-0.09900416
160	0x3dec3651	0.115337975
161	0xbd82442e	-0.063606605
162	0xbe180b63	-0.14848094
163	0xbe0757ad	-0.1321704
164	0xbdbc2d19	-0.09188289
165	0xbc837258	-0.016045734
166	0xbb10ce88	-0.0022095758
167	0xbb34ccf1	-0.0027587975
168	0xbdaa8ba5	-0.08327416
169	0x3d0b27a2	0.033973344
170	0x3cee71a0	0.029106915
171	0xbd0c2b6e	-0.034221105
172	0x3d8f2cc7	0.069909625
173	0xbe154e32	-0.1458061
174	0xbdc9c2ea	-0.0985163
175	0x3d6b7e2e	0.05749338
176	0xbda1b471	-0.078957446
177	0x3cb65c4a	0.022260804
178	0xbdb12fde	-0.08651708
179	0x3e08d995	0.13364251
180	0xbd9ce1ab	-0.0766023
181	0xbd63cae6	-0.05561342
182	0x3da301b2	0.07959308
183	0x3dc23493	0.09482684
184	0x3d55ab4d	0.05216532
185	0xbdb74c96	-0.089501545
186	0x3cf0b67f	0.029383896
187	0x3d3df6c1	0.0463779
188	0xbd479cfb	-0.048733693
189	0x3df151d1	0.11783183
190	0x3dfa5331	0.12222899
191	0xbdade625	-0.08491162
192	0xbd5f0437	-0.05444738
193	0x3c9506c8	0.01819171
194	0xbd3e3b57	-0.04644331
195	0xbc8c6edd	-0.017142707
196	0xbd2839d3	-0.04107077
197	0xbd535193	-0.051591467
198	0xbd84dad1	-0.064870484
199	0xbd683584	-0.05669166
200	0xbc9e8ece	-0.019355204
201	0x3d9ffcd5	0.07811896
202	0x3e089cd0	0.13341069
203	0x3da4f433	0.0805439
204	0x3db4b9fc	0.08824536
205	0xbe1384d8	-0.14406145
206	0xbd988c63	-0.07448652
207	0x3cb4364f	0.021998553
208	0x3e1866c9	0.1488296
209	0x3dc447d1	0.095840104
210	0x3a2f8ea1	0.00066969736
211	0xbdc7fc22	-0.097648874
212	0x3befbbc4	0.0073160846
213	0xbcfbc67d	-0.030734295
214	0xbc07af3f	-0.008281528
215	0x3c7f822b	0.015594999
216	0x3d62c82f	0.05536669
217	0x3cac7dc2	0.02105606
218	0xbd1e6801	-0.038673405
219	0x3c64ddc5	0.01396889
220	0x3c543bbb	0.012953694
221	0xbd4184f8	-0.04724595
222	0x3b3278ef	0.0027232727
223	0x3dd8a514	0.10578361
224	0xbd1177a5	-0.035514493
225	0xbd47eafc	-0.048808083
226	0x3d986c60	0.07442546
227	0x3d2be4f1	0.041966382
228	0x3d81c628	0.063366234
229	0xbca4eb79	-0.020131813
230	0xbd8fdabb	-0.070241414
231	0xbdb9c4cc	-0.09070739
232	0x3b90e367	0.0044216397
233	0xbda34064	-0.07971266
234	0xbdbbfde9	-0.09179289
235	0xbda90c3c	-0.08254287
236	0x3e1f020c	0.15528125
237	0x3db86c22	0.09005
238	0xbe18a7cd	-0.14907761
239	0xbbcc92e2	-0.0062430957
240	0x3d48bde7	0.04900923
241	0xbd5f6f8c	-0.05454974
242	0xbda1cef3	-0.079008006
243	0x3c7df983	0.015501383
244	0xbdcfbaa5	-0.101430215
245	0x3d68c736	0.056830607
246	0x3c3b289d	0.011423257
247	0x3d90c31e	0.07068466
248	0xbdf4c8b5	-0.11952344
249	0x3d5b2258	0.05349955
250	0x3da100ee	0.078615054
251	0x3c452616	0.012033006
252	0xbd8d76ac	-0.069074005
253	0xbdb0aa7f	-0.086262695
254	0xb8f66070	-0.00011748157
255	0x3d32be89	0.04363874

conv_block.0.0.bias f4 [4]
0	0xbdffe304	-0.12494472
1	0x3d827acb	0.06371077
2	0x3c6e5c7a	0.014548415
3	0x3d3704d3	0.044682335

conv_block.1.0.weight f4 [4, 8, 3, 3]
0	0x3de4b660	0.11167598
1	0x3db68c27	0.08913451
2	0xbd8c66e8	-0.06855565
3	0x3d084207	0.033266094
4	0x3d96b9d1	0.073596604
5	0x3c4e65cb	0.0125975115
6	0x3d96ef50	0.07369864
7	0xbd5fba25	-0.05462088
8	0xbd6b2122	-0.057404645
9	0xbd6135a1	-0.054982785
10	0xbdace4d8	-0.08442086
11	0x3baa725a	0.00520162
12	0xbc3098b7	-0.010778598
13	0x3df76ea0	0.12081647
14	0xbe01b2ca	-0.12665859
15	0x3da3a10f	0.07989704
16	0xbd9b0f42	-0.075712696
17	0x3d754183	0.05987693
18	0xbdfceb3c	-0.12349555
19	0x3c4f9234	0.012669135
20	0x3d681d50	0.05666858
21	0x3dd1cf26	0.102445886
22	0xbde4baf1	-0.11168469
23	0x3da75ca9	0.081719704
24	0x3d274e82	0.040846355
25	0x3d1b9e72	0.037992902
26	0x3d5e6ea3	0.05430473
27	0x3dc6d656	0.0970885
28	0xbd38a827	-0.045082238
29	0xbdc64a86	-0.09682183
30	0xbd93af3e	-0.07211159
31	0x3d15daf7	0.036585774
32	0xbdbca677	-0.09211438
33	0xbe2f0c71	-0.1709459
34	0xbde42604	-0.111400634
35	0x3e03f494	0.12886268
36	0xbd1db737	-0.038504805
37	0xbdaa6f5d	-0.08322022
38	0xbd63d91f	-0.055626985
39	0xbc994ae6	-0.018712472
40	0x3cc23edd	0.023711616
41	0xbe029540	-0.12752247
42	0xbd3d4147	-0.04620483
43	0xbdb85918	-0.09001368
44	0x3cb05368	0.021524146
45	0x3de441f1	0.1114539
46	0xbdddcdbf	-0.108302586
47	0x3de14f03	0.110013984
48	0xbd849611	-0.064739354
49	0xbe0b536b	-0.1360604
50	0x3deff58b	0.117167555
51	0x3e350e2a	0.17681184
52	0xbe0de366	-0.13856277
53	0xbe11b139	-0.14227761
54	0x3e1ec48d	0.15504666
55	0xbc623c52	-0.013808327
56	0x3b2e8c4f	0.0026633923
57	0xbe393808	-0.1808778
58	0x3cae397a	0.021267641
59	0x3ddfe29f	0.109318964
60	0xbc1b6ff3	-0.00948714
61	0x3c363ce9	0.011122921
62	0x3d360052	0.0444339
63	0x3c81cf75	0.015845994
64	0xbd9f793c	-0.077867955
65	0x3da004eb	0.07813438
66	0x3d0edc9f	0.03487837
67	0xbd9f18d8	-0.077684104
68	0x3dde69e0	0.10860038
69	0x3c116bb3	0.008875775
70	0x3c066f58	0.008205257
71	0xbbbc1858	-0.0057402067
72	0xbdafc944	-0.0858331
73	0x3e085856	0.13314947
74	0x3e013146	0.12616453
75	0x3dc9e823	0.0985873
76	0x3d501870	0.050804555
77	0xbdca00dc	-0.09863445
78	0xbda5f6fa	-0.08103748
79	0x3d0d5f90	0.034514964
80	0x3d4f8610	0.05066496
81	0x3e14f109	0.14545073
82	0xbdedd775	-0.11613361
83	0x3db0c6ab	0.08631643
84	0x3e13e26c	0.14441842
85	0xbd8d3c87	-0.0689631
86	0x3ddd55a5	0.10807351
87	0xbc82e806	-0.015979778
88	0xbdb094bd	-0.086221196
89	0xbdc9ef22	-0.09860064
90	0xbce5d327	-0.028054787
91	0xbde4ecc5	-0.11177973
92	0xbd0b5879	-0.03401992
93	0x3c0b6dc1	0.008510054
94	0x3da66938	0.08125538
95	0x3b27937d	0.0025570088
96	0x3cc4fdba	0.024046768
97	0x3dc5a5fa	0.09650798
98	0x3aa86ceb	0.0012849843
99	0x3dfdf41a	0.12400074
100	0xbdb29a73	-0.08720865
101	0xba626df7	-0.0008637602
102	0x3d1a655c	0.03769432
103	0x3de8954b	0.113566004
104	0x3d2f37b6	0.04277774
105	0x3d607242	0.054796465
106	0x3dcaeda5	0.09908608
107	0xbde9f3b3	-0.11423435
108	0x3dafca87	0.08583551
109	0xbdf31d77	-0.11870854
110	0xbdf0be3b	-0.117550336
111	0x3cef4576	0.029207926
112	0xbdb6ab66	-0.089194104
113	0x3d923c4d	0.07140408
114	0x3d8f0454	0.069832474
115	0x3d01207b	0.031525116
116	0x3e091ab9	0.133891
117	0xbd02553f	-0.03181958
118	0x3df2b646	0.11851172
119	0x3d87dc7d	0.06633852
120	0xbe046f0a	-0.12932983
121	0xbde10a6d	-0.10988317
122	0xbd5c6116	-0.053803526
123	0xbe1bcd52	-0.15215042
124	0xbe0d2334	-0.1378296
125	0x3e0cda6b	0.13755195
126	0x3da3a38a	0.07990177
127	0x3dc8c440	0.09803057
128	0xbdae1819	-0.0850069
129	0x3d3709eb	0.044687193
130	0xbd9fee03	-0.07809069
131	0xbe079493	-0.1324027
132	0x3d4ca7cc	0.04996471
133	0xbb840615	-0.0040290453
134	0x3cc72b7c	0.024312727
135	0xbceb8123	-0.0287481
136	0x3d63eef1	0.055647794
137	0xba242cc7	-0.0006262776
138	0xbde3e3a3	-0.11127403
139	0xbbe785e7	-0.007065523
140	0xbe11a11c	-0.14221615
141	0x3e0cb1ed	0.13739748
142	0x3e05549c	0.13020557
143	0x3cf1841e	0.029481944
144	0x3c4e8015	0.012603779
145	0x3dafc917	0.08583277
146	0x3d158ab3	0.036509227
147	0x3be88a6f	0.0070965807
148	0x3d294aab	0.041330975
149	0x3d88c382	0.06677915
150	0xbda2b69e	-0.07944988
151	0xbd1f2050	-0.038849175
152	0x3db4be87	0.08825403
153	0x3d9e3ef1	0.07726849
154	0xbd0e80a5	-0.034790654
155	0xbe081c8e	-0.13292143
156	0x3d82cac5	0.063863315
157	0x3d604a8c	0.054758593
158	0x3d70297c	0.058633313
159	0x3dea23ef	0.11432635
160	0x3d3474cd	0.044056702
161	0x3d92848f	0.0715419
162	0xbd5f89ca	-0.054574765
163	0x3bfbc3fd	0.0076832757
164	0xbd4e3089	-0.050339255
165	0x3d94f727	0.07273703
166	0x3d0721f2	0.032991357
167	0xbd83243b	-0.06403395
168	0x3ddec927	0.108782105
169	0x3dd4e598	0.10395354
170	0xbd94927f	-0.072545044
171	0xbdb1a5ed	-0.08674226
172	0xbcff16fd	-0.031138891
173	0x3d83465a	0.06409903
174	0x3c171973	0.009222376
175	0xbd0010c3	-0.031265985
176	0x3da23dfa	0.07921977
177	0xbda6c515	-0.08143059
178	0x3d9616d3	0.07328572
179	0xbbc006f2	-0.005860203
180	0x3df581c3	0.11987641
181	0xbdcaf4a7	-0.09909945
182	0xbda7ba01	-0.08189774
183	0x3cdc72c8	0.0269102
184	0x3c8a2838	0.01686488
185	0xbcf08485	-0.029360065
186	0xbda9a746	-0.08283858
187	0xbe020fb5	-0.12701304
188	0x3d4faf95	0.050704557
189	0xbe1ddb49	-0.15415682
190	0x3d6081dd	0.054811347
191	0xbcb9a30b	-0.022660753
192	0x3dce04e3	0.10059526
193	0x3d3a4a1a	0.045480825
194	0x3c4c9bfc	0.012488361
195	0xbe0badc0	-0.13640499
196	0xbd5959d7	-0.053064194
197	0x3da259ed	0.07927308
198	0x3df9df56	0.12200801
199	0x3d8c9475	0.068642534
200	0x3d4f4be1	0.050609473
201	0xbcd9377a	-0.026515711
202	0x3e1cf776	0.15328774
203	0xbcccf37a	-0.025018442
204	0xbab8b3f1	-0.0014091713
205	0x3cf765ed	0.03019997
206	0xbcbc3e67	-0.022978975
207	0xbcbec860	-0.023288906
208	0x3db90ba7	0.09035426
209	0xbd08fbba	-0.03344319
210	0xbd85981a	-0.06523152
211	0x3d9b71a7	0.07590037
212	0xbdba0e6a	-0.090847805
213	0x3da78ac8	0.08180767
214	0x3c4e5e04	0.012595657
215	0xbda64b45	-0.08119825
216	0x3d183d2a	0.037167706
217	0x3cf9316d	0.030419076
218	0x3cac4c4c	0.021032475
219	0x3d4fb772	0.050712056
220	0xbd880172	-0.06640901
221	0xbd95112b	-0.07278665
222	0xbdef828e	-0.11694823
223	0x3d62c24b	0.055361073
224	0x3e043514	0.12910873
225	0xbd966ecf	-0.07345354
226	0x3d077fcd	0.033080865
227	0x3d317bae	0.04333084
228	0x3d7e6757	0.06211027
229	0xbd483907	-0.04888251
230	0x3d7dfe76	0.06201025
231	0x3d20bfe0	0.039245486
232	0xbddc94ac	-0.107705444
233	0xbe14d24f	-0.14533351
234	0x3da8b8e4	0.0823839
235	0x3df4c4b2	0.11951579
236	0x3d8d6c1c	0.06905386
237	0xbdb536c5	-0.08848337
238	0x3d157815	0.036491472
239	0xbc90c5b1	-0.017672392
240	0x3df65430	0.12027776
241	0xbbf9474c	-0.007607376
242	0x3d143dd5	0.03619178
243	0x3c920ba5	0.017827818
244	0xbc85e1af	-0.016342966
245	0x3e0c671b	0.13711207
246	0xbdef8b51	-0.11696494
247	0x3d896c42	0.06710102
248	0xbe0ebfee	-0.13940403
249	0x3ca171c4	0.019707568
250	0xbdcad02a	-0.099029854
251	0xbd6a0d8c	-0.057141826
252	0xbba9ad34	-0.005178118
253	0x3d69e52a	0.057103314
254	0x3d260c86	0.040539287
255	0xbd2a5894	-0.04158838

conv_block.1.0.bias f4 [4]
0	0x3ce71338	0.028207406
1	0x3c226a1f	0.009912997
2	0x3b1187ea	0.0022206255
3	0xbda2f269	-0.07956392

conv_block.2.0.weight f4 [4, 8, 3, 3]
0	0x3d15b7da	0.036552288
1	0x3b82f841	0.0039968793
2	0x3df6c65f	0.12049555
3	0x3dd6a053	0.10479798
4	0x3dbf0fe6	0.09329204
5	0xbdddb514	-0.108255535
6	0x3d7b98dc	0.061425075
7	0x3bfd3621	0.0077274
8	0xbd58d628	-0.05293861
9	0xbdfc1957	-0.12309521
10	0x3cdc4976	0.026890498
11	0xbd1aab74	-0.037761167
12	0xbe191e46	-0.14952955
13	0x3e029976	0.12753853
14	0xbe330f7a	-0.17486373
15	0x3d387f80	0.04504347
16	0x3d794a2c	0.06086175
17	0xbe146e87	-0.14495288
18	0xbdfd65d8	-0.12372941
19	0xbd111db5	-0.03542872
20	0x3c3c3c2c	0.0114889555
21	0x3dd37384	0.10324767
22	0xbd715120	-0.058915257
23	0x3c058ed3	0.008151728
24	0xbd9c174a	-0.076216295
25	0x3d1d12d4	0.038348034
26	0xbdc2c13b	-0.09509512
27	0xbd5b4c2b	-0.053539436
28	0xbdbab8d4	-0.091172844
29	0xbdb6ca9a	-0.08925362
30	0xbdf92ac6	-0.121663615
31	0x3ad18a25	0.0015986605
32	0x3db9077f	0.09034633
33	0xbd0ae9f0	-0.033914506
34	0xbca50350	-0.020143181
35	0xbdb33110	-0.08749592
36	0xbda9d853	-0.08293214
37	0x3d0b1d5c	0.033963546
38	0xbdb53c95	-0.08849446
39	0xbe32dc91	-0.17466952
40	0x3dd0cdfa	0.10195537
41	0x3c0cd556	0.008595785
42	0xbc8f28da	-0.017475534
43	0xbb1cb969	-0.0023914224
44	0xbc966875	-0.018360356
45	0x3aafa6b6	0.0013401124
46	0x3d04fe14	0.03246887
47	0xbd492bca	-0.049114026
48	0x3dc2fbff	0.09520721
49	0x3da11705	0.07865719
50	0x3d73b108	0.059495002
51	0xbe07d30c	-0.13264102
52	0xbd81f2aa	-0.063451126
53	0x3db78830	0.089615226
54	0x3e067e9c	0.13134235
55	0x3d4a1c82	0.049343593
56	0x3e0687bb	0.13137715
57	0x3c8a8bef	0.016912429
58	0x3d19a67c	0.037512287
59	0x3c52e33d	0.012871561
60	0xbd5124fd	-0.051060665
61	0xbd640a2d	-0.055673767
62	0x3e2acee1	0.1668048
63	0x3d0a064b	0.033697408
64	0x3da5d644	0.080975085
65	0xbca1fab5	-0.019772867
66	0x3e0dfcb9	0.13865937
67	0x3d91568b	0.07096585
68	0xbe2515c5	-0.16121586
69	0x3d32a025	0.043609757
70	0xbdc3877f	-0.09547328
71	0x3d2303b2	0.039798446
72	0x3d9c07b7	0.07618659
73	0x3d09b977	0.03362414
74	0xbdbd60cb	-0.092469774
75	0xbd0cf283	-0.034410965
76	0xbdda90de	-0.106721625
77	0x3c03ce33	0.008044767
78	0xbda094a4	-0.07840851
79	0xbdcf5ae4	-0.10124758
80	0xbcc50d6b	-0.02405425
81	0xbb23ff17	-0.0025023872
82	0xbd5f2215	-0.054475863
83	0x3de81739	0.11332554
84	0xbc3c621f	-0.011498003
85	0x3e0e9920	0.139256
86	0x3c7c2c7b	0.015391464
87	0x3a4bfcba	0.00077814946
88	0xbd65d10b	-0.056107562
89	0xbd65bbf9	-0.056087468
90	0x3d93c135	0.07214586
91	0xbd211c39	-0.039333556
92	0x3aaabb21	0.001302574
93	0x3c5b64ea	0.013390759
94	0x3d134bd7	0.035961
95	0x3d0006e2	0.031256564
96	0xbdd13078	-0.10214323
97	0x3d204080	0.039124012
98	0x3d7604fc	0.060063347
99	0x3d118430	0.035526454
100	0xbe1a1251	-0.1504605
101	0x3ce5c612	0.028048549
102	0xbddb92d2	-0.10721363
103	0xbd7e344a	-0.062061585
104	0x3de9d163	0.114168905
105	0x3e14113c	0.144597
106	0x3d9890fe	0.0744953
107	0xbdc237c1	-0.094832905
108	0x3d879c9e	0.06621669
109	0x3d10a69c	0.03531514
110	0x3dc2c7ff	0.095108025
111	0x3d4139d0	0.047174275
112	0xbbe4b2e1	-0.006979332
113	0xbe152a75	-0.14566977
114	0x3a84f595	0.001014399
115	0x3dd78eb2	0.10525264
116	0xbd95bab6	-0.07311003
117	0x3e0d2bc4	0.13786227
118	0xbd848eeb	-0.06472572
119	0xbd55e0cc	-0.052216336
120	0xbdec7d95	-0.1154739
121	0x3d843e97	0.064572506
122	0x3cefc6ef	0.029269664
123	0x3d24f67d	0.040274132
124	0x3e18dc05	0.14927681
125	0x3dc250f1	0.094880946
126	0x3d8b8b79	0.06813712
127	0x3bb31004	0.0054645557
128	0xbdf2772f	-0.11839139
129	0x3dd127bb	0.10212656
130	0xbd74a431	-0.059726898
131	0xbe19bce3	-0.15013461
132	0x3cf0619c	0.029343419
133	0x3ddf3993	0.10899653
134	0xbdb716c4	-0.08939889
135	0xbd1aa21c	-0.037752256
136	0x3da1134a	0.07865007
137	0x3d885a8b	0.06657895
138	0x3d941cfb	0.0723209
139	0xbd1a0938	-0.037606448
140	0x3d2c75f3	0.042104673
141	0xbd925a22	-0.07146098
142	0xbe1976be	-0.14986703
143	0xbcc062bb	-0.023484578
144	0xbcdb4434	-0.02676592
145	0x3bf945dd	0.0076072053
146	0xbd914ac1	-0.07094336
147	0x3beafc53	0.0071711927
148	0xbd5c2f20	-0.05375588
149	0x3d53c521	0.05170167
150	0x3c98747b	0.01861023
151	0x3cadb04e	0.021202233
152	0xbd876793	-0.06611552
153	0x3a26c7f2	0.00063621916
154	0xbd954c5d	-0.07289956
155	0xbd1e71a9	-0.038682614
156	0x3dd90e18	0.10598391
157	0x3e1d5058	0.1536268
158	0xbdd106f0	-0.10206401
159	0x3d8b857e	0.06812571
160	0xbd505d5f	-0.050870296
161	0x3c061632	0.008184003
162	0xbe05282b	-0.13003604
163	0x3c82ae0c	0.015952133
164	0xbdc204ed	-0.09473596
165	0x3d6f0629	0.058355484
166	0xbba38d68	-0.004991222
167	0xbb90c204	-0.0044176597
168	0xbd4e0f5a	-0.05030761
169	0x3d2370e6	0.03990259
170	0xbd759019	-0.059951875
171	0x3d4b08e1	0.049569014
172	0xbd5c9a2f	-0.05385798
173	0xbd7d74f8	-0.06187913
174	0xbda5b3df	-0.08090948
175	0x3e12cca4	0.14335877
176	0xbd18d521	-0.03731263
177	0x3e0ecdfa	0.13945761
178	0x3d2a6f36	0.041609965
179	0x3d68df44	0.056853548
180	0xbe014059	-0.12622203
181	0x3ca61f39	0.02027856
182	0x3cc3590a	0.023846168
183	0x3ddcaeb7	0.10775512
184	0xbd619a45	-0.055078764
185	0xbda69ecc	-0.08135757
186	0xbd6d8209	-0.05798534
187	0xbdc4335f	-0.09580111
188	0xbc8b5ee0	-0.017013013
189	0xbdc28105	-0.09497265
190	0xbd93e31f	-0.07221054
191	0xbdd0341d	-0.1016619
192	0x3d9edde2	0.077571645
193	0xbdea7337	-0.11447757
194	0x3dd36902	0.10322763
195	0xbda3918c	-0.07986745
196	0xbd096dda	-0.03355203
197	0x3d07954f	0.033101376
198	0xbd6fa50e	-0.058507018
199	0x3c5a16c1	0.013311089
200	0x3dbf2a1d	0.09334204
201	0xbdba00ef	-0.09082209
202	0xbdaaacb8	-0.08333725
203	0x3d69f833	0.057121467
204	0x3dce60b8	0.100770414
205	0x3da4ca64	0.080464154
206	0xbe046ee7	-0.12932931
207	0x3da3d749	0.08000047
208	0x3dbbd105	0.09170727
209	0xbd7c8d2e	-0.061658077
210	0xbd57488b	-0.052559417
211	0xbd172e22	-0.03690923
212	0x3d2d1674	0.04225774
213	0xbde3bcc8	-0.111199915
214	0xbdcb74bb	-0.09934374
215	0xbd93bbc8	-0.07213551
216	0xbdd1382e	-0.102157936
217	0x3de3b7ee	0.11119066
218	0x3d45c5be	0.048284285
219	0x3dd2a079	0.10284514
220	0xbd907963	-0.07054403
221	0xbdb0c46e	-0.08631216
222	0xbbab4fbe	-0.005228012
223	0xbdcc6850	-0.099808335
224	0x3d50f4d5	0.05101474
225	0x3d7080be	0.058716528
226	0x3ded3564	0.11582449
227	0xbd1a3b2f	-0.037654098
228	0x3d2f5593	0.04280622
229	0xbd3e2b6a	-0.04642812
230	0x3bd5fc98	0.0065303557
231	0x3dbaf254	0.09128252
232	0xbe026b5b	-0.12736265
233	0x3d57cbe6	0.052684687
234	0x3df9e03e	0.12200974
235	0xbdcf278a	-0.10114963
236	0xbda408f0	-0.08009517
237	0xbd83a57b	-0.06428047
238	0x3d886cbd	0.06661365
239	0x3caf6703	0.021411425
240	0x3da42776	0.08015339
241	0x3cda22c5	0.026627908
242	0x3c39e9a1	0.011347205
243	0xbd415587	-0.047200706
244	0xbe024968	-0.12723315
245	0x3da059d4	0.07829633
246	0x3dcce0c2	0.10003807
247	0x3d389c94	0.0450712
248	0xbcf9b4ea	-0.030481774
249	0x3dc6a41c	0.0969927
250	0xbbfe13c7	-0.0077538225
251	0x3d976b21	0.0739348
252	0xbd99f7e3	-0.07517984
253	0xbdd544d8	-0.104135215
254	0xbda71dd8	-0.08159989
255	0xbc797dba	-0.015227729

conv_block.2.0.bias f4 [4]
0	0xbde618d8	-0.11235207
1	0xbc5611d3	-0.013065773
2	0x3db1d50c	0.086832136
3	0xbddae300	-0.10687828

conv_block.3.0.weight f4 [4, 8, 3, 3]
0	0xbd25fb92	-0.04052312
1	0x3d2ac901	0.0416956
2	0xbcef627c	-0.029221766
3	0x3d05c9da	0.032663204
4	0xbd58fd3c	-0.052975878
5	0x3c814414	0.015779532
6	0xbca8394f	-0.02053514
7	0xbd054166	-0.032533072
8	0xbd7bea34	-0.06150265
9	0x3c0e6381	0.008690716
10	0x3dbb4276	0.09143536
11	0x3ca63957	0.020291014
12	0x3c17c05f	0.009262173
13	0xbdb45a3c	-0.08806273
14	0xbe141ff5	-0.14465316
15	0xbdd0f6e9	-0.102033444
16	0xbc83e89b	-0.016102126
17	0xbe0314da	-0.12800923
18	0x3dd580ac	0.10424933
19	0x3d3742ae	0.044741325
20	0xbdbb4dda	-0.091457084
21	0xbd929826	-0.07157926
22	0xbdeb8eac	-0.11501822
23	0xbd9afc72	-0.07567681
24	0xbdc7e9ed	-0.09761415
25	0x3d93b17b	0.07211586
26	0x3b8221ef	0.0039713304
27	0xbdc97e03	-0.09838488
28	0xbdab084c	-0.08351192
29	0xbd98ef92	-0.074675694
30	0xbd1145e3	-0.03546704
31	0x3de30f79	0.110869355
32	0x3d05cd01	0.03266621
33	0x3da04e69	0.078274556
34	0xbb467750	-0.0030283518
35	0x3d522b06	0.05131056
36	0xbdc4cd97	-0.09609526
37	0x3d8e43ac	0.06946501
38	0xbd9d32a1	-0.07675672
39	0x3b9aa0c9	0.004718874
40	0x3e060663	0.13088374
41	0xbd4a3875	-0.049370248
42	0xbc9a32c3	-0.018823033
43	0x3d2c07ca	0.041999616
44	0xbcb92977	-0.02260278
45	0xbd9d4052	-0.07678284
46	0x3aaa9266	0.0013013601
47	0xbcacbcb7	-0.02108608
48	0xbd9c7e90	-0.076413274
49	0xbc2e8c3b	-0.010653551
50	0x3dcb7787	0.099349074
51	0x3e004ece	0.12530062
52	0xbe0d50d1	-0.1380036
53	0xbd02fdf8	-0.031980485
54	0x3ccfb9bb	0.025357118
55	0x3d622a3d	0.055216063
56	0x3d344a28	0.044016033
57	0x3da4b283	0.08041861
58	0x3d0b95ce	0.03407841
59	0xbe04e893	-0.12979345
60	0x3b0a3d12	0.002109353
61	0xbdebf66b	-0.1152161
62	0xbdf18440	-0.11792803
63	0xbdeddf14	-0.116148144
64	0xba396f98	-0.00070738187
65	0xbdefe760	-0.11714053
66	0x3d691ce4	0.056912318
67	0xbdc1621e	-0.094425425
68	0x3de46d74	0.11153689
69	0xbdd08ded	-0.1018332
70	0x3d629750	0.055320084
71	0xbd60910f	-0.05482584
72	0x3dc635ab	0.09678205
73	0x3cb5ed65	0.022207925
74	0x3d53ac4e	0.051677994
75	0xbe02a679	-0.12758817
76	0xbdfc2fe3	-0.12313821
77	0x3c8d65fe	0.017260548
78	0xbd5ec790	-0.054389536
79	0x3c6e0773	0.014528143
80	0x3df0ec5b	0.11763831
81	0x3cca3a3b	0.02468597
82	0x3d4d440d	0.050113726
83	0x3e0fe680	0.14052773
84	0xbb469792	-0.0030302745
85	0xbc1b59f6	-0.009481898
86	0xbd1726cb	-0.03690223
87	0x3d12d9ae	0.035852127
88	0x3e00b5a4	0.1256929
89	0xbde00307	-0.109380774
90	0xbb80aba4	-0.003926711
91	0xbd00fadf	-0.03148925
92	0xbda5ad75	-0.08089725
93	0xbdc71ce1	-0.09722305
94	0xbe0c727f	-0.13715552
95	0xbde9d7b6	-0.11418097
96	0x3cb28446	0.021791589
97	0xbd72a2ea	-0.0592374
98	0xbdfcabc7	-0.123374514
99	0xbc9c7781	-0.019099953
100	0xbc9d65d1	-0.019213589
101	0xbddc1cf0	-0.10747707
102	0xbdce1a2c	-0.10063586
103	0x3ded61fc	0.11590955
104	0x3e16beaa	0.1472117
105	0x3c8ba8e8	0.017048314
106	0xbe05edf9	-0.1307906
107	0xbd34f03a	-0.04417441
108	0x3cb146e9	0.021640258
109	0xbd77fff5	-0.060546834
110	0x3dfae657	0.12250965
111	0xbde403a2	-0.111335054
112	0x3db369f4	0.08760443
113	0xbd90295d	-0.070391394
114	0x3cbadccf	0.022810368
115	0xbd81ac8f	-0.06331741
116	0xbdc79bf3	-0.09746542
117	0xbd3c89b8	-0.046029776
118	0x3dabb98b	0.08384999
119	0xbdcdf564	-0.1005657
120	0x3cc4f148	0.024040833
121	0x3bbd32d3	0.005773881
122	0xbdd63c3f	-0.1046071
123	0xbd1c6341	-0.038180593
124	0xbdc7f659	-0.09763784
125	0x3daa70e8	0.083223164
126	0xbdeedf1e	-0.1166365
127	0x3d24fd89	0.040280852
128	0xbc919994	-0.017773427
129	0x3e146251	0.1449063
130	0x3d674ecd	0.056471635
131	0xbc7e8245	-0.015533988
132	0x3d1cd17d	0.03828572
133	0x3d224fd6	0.03962692
134	0xbd390423	-0.04516996
135	0xbd30f9aa	-0.04320685
136	0x3cb54faf	0.022132723
137	0x3dcda80c	0.10041818
138	0xbd34bd17	-0.044125643
139	0xbcc67188	-0.024224058
140	0xbd089a45	-0.033350248
141	0xbddc1418	-0.1074602
142	0xbd6262df	-0.055270072
143	0x3dba5925	0.09099034
144	0x3d7723c2	0.060336836
145	0xbddfddf5	-0.10931007
146	0xbd09e199	-0.033662412
147	0xbe0aee27	-0.1356741
148	0xbbcc4239	-0.0062334803
149	0x3ac7ca7a	0.0015242838
150	0x3d22fa58	0.039789528
151	0x3c229e37	0.009925417
152	0x3d722062	0.059112914
153	0x3c1b14c8	0.009465404
154	0xbe20a683	-0.15688519
155	0x3c594dad	0.013263148
156	0xbe420ab2	-0.18949392
157	0x3ba41dd6	0.0050084395
158	0xbdb21624	-0.08695629
159	0xbc088bbf	-0.008334099
160	0x3d4b656e	0.049657278
161	0xbd47825b	-0.0487083
162	0xbca5508e	-0.020180013
163	0xbe0d7e99	-0.13817824
164	0xbc7bf75b	-0.015378798
165	0x3d9683a5	0.07349328
166	0xbd59388f	-0.053032454
167	0x3da2f0c3	0.07956078
168	0x3dc264a1	0.0949185
169	0x3dd370a5	0.103242196
170	0x3cee85d4	0.029116549
171	0xbe1d034e	-0.15333292
172	0xbd54d39b	-0.051959615
173	0x3db5a457	0.08869236
174	0x3db32853	0.087479256
175	0xbb1eff66	-0.0024261116
176	0xbcc00a48	-0.023442402
177	0xbd781812	-0.06056983
178	0x3d7f066e	0.06226199
179	0x3d49f91f	0.049309846
180	0xbd9335af	-0.07187974
181	0x3dd7d929	0.10539467
182	0xbddd64f5	-0.10810272
183	0xbbf1ed06	-0.0073829917
184	0xbd036a1a	-0.03208361
185	0xbdf0b7a5	-0.117537774
186	0x3d686d59	0.056744907
187	0xbde804da	-0.1132905
188	0xbd4ebf86	-0.05047562
189	0xbc08769d	-0.008329061
190	0x3d5e47a5	0.054267544
191	0x3dbc900e	0.09207164
192	0x3cec2051	0.028824003
193	0xba7fcf49	-0.0009758366
194	0xbdbcaa0d	-0.09212122
195	0xbdf66b85	-0.120322265
196	0xbd0eae79	-0.03483436
197	0xbd41bf5f	-0.047301646
198	0xbde9cb39	-0.11415715
199	0x3c426268	0.011864282
200	0xbd99bca9	-0.07506687
201	0xbcbe3c39	-0.023222076
202	0xbdf92d68	-0.12166864
203	0xbe0e2d33	-0.1388443
204	0xbcd4226e	-0.025895324
205	0x3d2fc9a5	0.042916913
206	0x3da4707f	0.080292694
207	0xbc7aea19	-0.015314602
208	0xbda4900b	-0.080352865
209	0x3ce4e26c	0.027939998
210	0x3da00393	0.07813182
211	0x3c3a3229	0.011364498
212	0x3c5f6c14	0.013636608
213	0x3d00047e	0.031254284
214	0xbdef0246	-0.116703555
215	0x3cd34652	0.025790367
216	0xbd18e7cd	-0.037330437
217	0xbc7cd8f5	-0.015432586
218	0xbd3e060b	-0.04639248
219	0xbdd8d400	-0.10587311
220	0x3d5c4b12	0.05378253
221	0x3ddf926f	0.10916602
222	0x3dc7f7b7	0.09764045
223	0xbceb6b08	-0.02873756
224	0x3cfdcf73	0.030982709
225	0x3dff2893	0.12458911
226	0x3dea2b9a	0.114340976
227	0xbcfd2bd3	-0.030904686
228	0x3cebab02	0.028768066
229	0xbd4f04a9	-0.050541554
230	0x3e1e83a1	0.154799
231	0xbc89b7b4	-0.01681123
232	0x3c8e2518	0.017351672
233	0x3e080a72	0.13285235
234	0xbbf7b68d	-0.0075596035
235	0x3dc9b788	0.09849459
236	0xbda7403b	-0.08166548
237	0xbd35f0b0	-0.04441899
238	0xbdff7b24	-0.12474659
239	0x3d2c39cb	0.042047303
240	0x3d264b1f	0.040598985
241	0x3dd28b2e	0.10280453
242	0x3de2d2a9	0.110753365
243	0x3c1de480	0.009636998
244	0xbe1ce9da	-0.15323582
245	0x3e222e10	0.15837884
246	0x3c7a0346	0.0152595695
247	0xbe0e6cdb	-0.13908713
248	0x3d4610a6	0.04835572
249	0xbd4aec17	-0.04954156
250	0x3bb5a38b	0.0055431775
251	0xbdfbfb6a	-0.12303813
252	0xbdb541ff	-0.088504784
253	0x3c8ca7f3	0.017169928
254	0x3df68650	0.12037337
255	0xbda559d9	-0.08073778

conv_block.3.0.bias f4 [4]
0	0xbda5369c	-0.080670565
1	0x3df3df02	0.1190777
2	0xbc2ea99b	-0.010660554
3	0x3dc2e858	0.09516972

conv_block.4.0.weight f4 [4, 8, 3, 3]
0	0xbd5be61d	-0.05368625
1	0xbdccb07b	-0.099945985
2	0xb98df1bf	-0.0002707373
3	0xbd4d95d7	-0.050191727
4	0xbdecf67c	-0.11570451
5	0xbd0268db	-0.03183828
6	0x3cd66b67	0.02617426
7	0xbc8ba95a	-0.017048527
8	0xbd1a94d5	-0.037739594
9	0xbb4f0b7f	-0.0031592546
10	0x3d469972	0.04848618
11	0xbdbe544d	-0.09293423
12	0x3dcca365	0.099921025
13	0x3d17b92c	0.037041828
14	0x3d3a509c	0.04548703
15	0xbc979825	-0.018505165
16	0xbdc2f0cf	-0.09518587
17	0x3b964a07	0.0045864615
18	0xbae7480e	-0.0017645375
19	0xbdbe266a	-0.09284671
20	0xbc3343ba	-0.01094144
21	0x3e12fb6f	0.14353727
22	0xbe0e3860	-0.13888693
23	0xbc884829	-0.016635971
24	0x3c50bfc1	0.01274103
25	0xbe260942	-0.16214469
26	0xbdd277b7	-0.1027674
27	0xbcb38b85	-0.021917114
28	0x3df80786	0.1211081
29	0x3b2f430a	0.002674284
30	0x3cfec422	0.031099383
31	0xbdaa93bb	-0.083289586
32	0xbc1815b8	-0.009282522
33	0x3d7caf6e	0.06169074
34	0x3de66332	0.11249389
35	0xbd724dff	-0.059156414
36	0xbc13195e	-0.008978216
37	0xbba25c5f	-0.004954859
38	0x3d260c19	0.04053888
39	0x3ddd96b3	0.10819759
40	0xbd70cba6	-0.058787964
41	0x3ce38948	0.027775422
42	0xbdaaa81c	-0.083328456
43	0xbd7ec8da	-0.062203266
44	0xbdd7e4c9	-0.10541684
45	0x3d927fb8	0.07153267
46	0x3dbfce33	0.09365501
47	0x3d5d8aee	0.05408757
48	0xbe06b9d8	-0.13156831
49	0xbd9878f5	-0.07444946
50	0x3d54ca3f	0.05195069
51	0x3dd37ba9	0.10326321
52	0xbd0fd2a2	-0.035112984
53	0xbdeeea36	-0.11665766
54	0xbdc0e987	-0.09419542
55	0xbcbadae6	-0.022809457
56	0x3da2ba27	0.07945662
57	0xbd28d09a	-0.041214563
58	0x3da8b1bc	0.08237025
59	0x3d9e7009	0.07736213
60	0xbda93dfe	-0.08263777
61	0xbdfabfee	-0.12243639
62	0x3d55607a	0.05209396
63	0xbd386a07	-0.04502299
64	0xbdd6db0d	-0.10490999
65	0x3dbfb32b	0.093603455
66	0xbd834eed	-0.06411538
67	0x3cd6aac9	0.026204484
68	0x3dcf4111	0.10119832
69	0x3d7117e6	0.058860682
70	0x3db61b4d	0.08891926
71	0xbd560ff7	-0.05226132
72	0x3d400c9b	0.04688702
73	0xbd2d3d62	-0.042294867
74	0xbba85ec1	-0.0051382487
75	0x3cd9fef6	0.026610833
76	0x3defdda4	0.117121965
77	0xbd509ca3	-0.05093063
78	0xbccef54d	-0.025263453
79	0xbc48afab	-0.012248914
80	0x3d23f843	0.040031683
81	0x3d7d00e3	0.061768424
82	0xbd92b409	-0.07163245
83	0x3d94f246	0.072727725
84	0x3cf761e0	0.030198038
85	0xbdabb0b3	-0.08383312
86	0x3d37f4fd	0.044911373
87	0xbdc425a0	-0.09577489
88	0xbdef74a5	-0.1169217
89	0x3d1bc347	0.038028028
90	0xbcc1e640	-0.023669362
91	0xbd0c0d0d	-0.034192134
92	0xbb3a2ba6	-0.0028407364
93	0x3e1b1eee	0.15148517
94	0xbd2e6d2c	-0.042584583
95	0xbd79cb15	-0.06098469
96	0xbd698f32	-0.057021327
97	0x3d8f7992	0.070056096
98	0xbd0042e2	-0.031313784
99	0x3da3c5d1	0.07996715
100	0xbd9dd7d4	-0.077071816
101	0xbe027d69	-0.12743153
102	0x3da09250	0.07840407
103	0xbc965f46	-0.018355977
104	0x3d87a8b0	0.066239715
105	0xbcba7a1e	-0.022763308
106	0x3dc49965	0.0959957
107	0x3d13f333	0.036120605
108	0x3d867b7a	0.0656652
109	0x3ce6324a	0.028100152
110	0xbceb877c	-0.028751127
111	0xbdbbd9a7	-0.09172373
112	0x3dbfeb91	0.093711026
113	0x3ccba492	0.024858747
114	0xbdf1b6c4	-0.11802438
115	0xbc237b82	-0.009978177
116	0x3dd8e301	0.105901726
117	0xbdaf206e	-0.08551107
118	0xbda35f0a	-0.07977112
119	0x3e130841	0.14358617
120	0xbd3aa3b5	-0.04556628
121	0x3d9f5f05	0.077817954
122	0xbdc8a53e	-0.097971424
123	0x3d4b7d7c	0.049680218
124	0x3d3f9164	0.046769515
125	0x3d95a46b	0.07306751
126	0x3dc1c659	0.0946166
127	0x3bb115b1	0.005404197
128	0xbcf7ebd1	-0.030263813
129	0x3b70df38	0.0036754142
130	0xbb56f004	-0.003279687
131	0xbc6afc6a	-0.014342407
132	0x3db435a2	0.08799292
133	0x3db4d0f5	0.08828918
134	0xbe0aef33	-0.1356781
135	0xbd5daad0	-0.054117978
136	0xbcbf384a	-0.02334227
137	0xbc8f811b	-0.017517617
138	0xbe1ee4e4	-0.15517002
139	0x3dfc32b3	0.123143576
140	0xbd4da6c2	-0.05020786
141	0xbd33bb3c	-0.043879732
142	0x3d6304cc	0.055424497
143	0xbde3a54d	-0.11115513
144	0xbd99ca3c	-0.07509276
145	0xbd0fecaf	-0.03513783
146	0x3c1ac9bc	0.009447511
147	0x3dda5392	0.10660471
148	0xbd761845	-0.06008174
149	0x3d861983	0.06547835
150	0x3d412ec1	0.04716373
151	0x3dbeda13	0.09318938
152	0xbde50d11	-0.11184133
153	0x3bda1bd4	0.0066561494
154	0xbcea4bcc	-0.028600596
155	0xbde40043	-0.111328624
156	0x3db856e0	0.09000945
157	0x3d83c548	0.06434113
158	0xbd9f57e2	-0.07780434
159	0x3db7ae75	0.08968822
160	0xbd0a77e2	-0.033805735
161	0xbdd4350e	-0.10361682
162	0x3c444f5d	0.011981812
163	0x3cde25a9	0.027117567
164	0xbe123a99	-0.14280166
165	0xbd8460c2	-0.064637676
166	0xbd87d3f1	-0.066322215
167	0xbe05a53e	-0.13051316
168	0x3c59fc91	0.013304845
169	0x3dc33c48	0.09532982
170	0xbd7b894d	-0.061410237
171	0x3d85be6b	0.0653046
172	0x3d8d25b2	0.068919554
173	0x3da61f51	0.08111442
174	0x3cdea2d0	0.027177244
175	0xbc0937ae	-0.0083750915
176	0x3da831c0	0.08212614
177	0x3dc7cb81	0.09755612
178	0x3daeb6b9	0.08530945
179	0xbdc1b1df	-0.09457754
180	0xbd844ec8	-0.06460339
181	0x3cacab9c	0.021077923
182	0x3d422e87	0.047407653
183	0xbd3c23d6	-0.045932613
184	0x3e045349	0.12922396
185	0xbc38e11b	-0.011284138
186	0xbdf73918	-0.12071437
187	0x3dda0cd8	0.10646981
188	0x3bbb5937	0.0057174223
189	0x3c3350fa	0.010944599
190	0xbdbe27e4	-0.09284952
191	0x3da50736	0.08058016
192	0x3dd5dfb3	0.10443058
193	0xbdec2265	-0.11529998
194	0xbcf32c4d	-0.02968421
195	0x3db1c088	0.086793005
196	0x3cbc0dfe	0.02295589
197	0x3daa9e14	0.08330932
198	0x3d928cd6	0.071557686
199	0x3af65401	0.0018793346
200	0xbd75962d	-0.059957672
201	0xbca2d4aa	-0.019876797
202	0xbc8c48fe	-0.01712465
203	0x3d1e68d9	0.03867421
204	0xbdaf62a3	-0.08563735
205	0x3d954dcf	0.072902314
206	0x3d943e34	0.07238427
207	0x3d8dbfed	0.069213726
208	0xbdb34652	-0.08753647
209	0x3d85cf1e	0.06533645
210	0x3cdc315b	0.026879003
211	0x3e082d33	0.13298492
212	0xbdced204	-0.10098651
213	0xbdedd20b	-0.11612328
214	0xbcce72fe	-0.025201317
215	0x3d92b34b	0.07163104
216	0xbb44dcae	-0.0030038762
217	0x3dc07dc2	0.093989864
218	0xbca97e66	-0.020690154
219	0xbb38a872	-0.0028176573
220	0xbda69f0a	-0.08135803
221	0x3d9c981c	0.076462
222	0x3da637ed	0.08116136
223	0xbdb2ede8	-0.08736783
224	0x3c7f4583	0.015580538
225	0xbd0c5b0e	-0.034266524
226	0x3dd87b92	0.10570444
227	0x3dd69030	0.1047672
228	0x3d80469c	0.06263468
229	0x3cc3a40b	0.023881933
230	0xbdc1fb25	-0.0947173
231	0x3df14c86	0.11782174
232	0xbd9a0a50	-0.07521498
233	0xbd9bb079	-0.07602019
234	0xbddabcf1	-0.10680569
235	0x3d11c188	0.035584956
236	0x3d9c310a	0.07626541
237	0xbd514033	-0.051086616
238	0xbd302b2b	-0.04300992
239	0xbde17534	-0.11008683
240	0x3dae9183	0.08523848
241	0x3ca1652b	0.019701561
242	0x3d0ba4da	0.03409276
243	0xbce2b916	-0.027676146
244	0x3bf10d7e	0.0073563447
245	0xbcc0aebf	-0.023520825
246	0x3daff340	0.08591318
247	0x3d268eb2	0.04066343
248	0xbe009769	-0.12557758
249	0xbc77bc88	-0.015120633
250	0x3da24e1e	0.07925056
251	0x3d83d68c	0.06437406
252	0x3b0641e1	0.0020486044
253	0x3d1237f5	0.035697896
254	0x3d86fb48	0.06590897
255	0xbdd583fc	-0.10425565

conv_block.4.0.bias f4 [4]
0	0xbc3aeace	-0.011408521
1	0x3d7d33d9	0.061817024
2	0xbd77e46c	-0.060520574
3	0xbda4cb16	-0.08046548

conv_block.5.0.weight f4 [4, 8, 3, 3]
0	0x3d993ee5	0.07482699
1	0xbc95501d	-0.018226678
2	0x3e01d2aa	0.12678018
3	0x3d2da0f2	0.042389818
4	0x3db566ca	0.08857496
5	0xbcedf8a6	-0.029049229
6	0xbda302a6	-0.079594895
7	0x3d2a274f	0.041541394
8	0xbdfb8a89	-0.12282283
9	0x3d9d6f37	0.07687228
10	0x3cfb2696	0.030658048
11	0xbde4934c	-0.11160907
12	0xbdd63486	-0.10459237
13	0xbd9ab82a	-0.07554658
14	0x3bd0269c	0.006352259
15	0xbdb0af23	-0.08627155
16	0xbd032bd4	-0.03202422
17	0xbcc488a1	-0.023990931
18	0x3dfd7665	0.123760976
19	0x3dff125e	0.12454675
20	0x3c461237	0.012089304
21	0x3a012af9	0.0004927363
22	0xbd0b3aa5	-0.033991475
23	0x3d90139d	0.07034991
24	0x3c85aeb0	0.016318649
25	0x3e316c6b	0.17326514
26	0x3d2b61c5	0.041841287
27	0x3dc948d3	0.09828343
28	0xbc8a5909	-0.016888158
29	0xbd8091f3	-0.062778376
30	0xbc342965	-0.010996197
31	0xbd7ae5da	-0.06125436
32	0x3dc4967a	0.095990136
33	0xbd92f1a2	-0.07174994
34	0xbda6e5c2	-0.081492916
35	0xbd8c84b9	-0.06861252
36	0x3d862441	0.06549884
37	0x3dc2dbb7	0.095145635
38	0x3c2a9135	0.010410597
39	0xbd81d18f	-0.06338798
40	0xbd1b3ae8	-0.037897974
41	0x3cd2b34c	0.025720261
42	0xbd88a81b	-0.066726886
43	0xbdeaa539	-0.11457295
44	0xbdcefa89	-0.101063795
45	0xbdabc35b	-0.083868705
46	0x3d86efb7	0.06588691
47	0xbdae89b7	-0.08522361
48	0x3cb06649	0.021533148
49	0xbd977c2b	-0.0739673
50	0x3dd02081	0.1016245
51	0x3b83f67f	0.0040271874
52	0xbc1b6e05	-0.00948668
53	0x3daef57a	0.08542915
54	0xbdd4edbe	-0.10396908
55	0xbd3291c7	-0.043596055
56	0xbd1a8342	-0.037722833
57	0xbd20afe2	-0.039230235
58	0x3dedf4a5	0.11618928
59	0x3d5d50d3	0.054032158
60	0xbd530294	-0.05151613
61	0x3d98d5b0	0.07462633
62	0xbd60e5be	-0.0549066
63	0xbcf37fa0	-0.029723942
64	0xbd843191	-0.064547665
65	0x3d8e10e6	0.06936817
66	0xbd505ce7	-0.05086985
67	0x3cc12885	0.023578892
68	0x3daa4a82	0.083149925
69	0xbd03d4a3	-0.032185208
70	0xbcc31c4b	-0.023817202
71	0xbdb1dff4	-0.08685294
72	0x3d117b01	0.035517696
73	0x3e0cc51c	0.13747066
74	0x3cc0ec5b	0.023550203
75	0xbdc680f5	-0.09692565
76	0x3d854a7e	0.06508349
77	0xbd19b116	-0.037522398
78	0xbcb2ae6c	-0.021811686
79	0xbdb13c6b	-0.08654102
80	0x3d96ab47	0.07356887
81	0x3cbe3b30	0.023221582
82	0x3d903676	0.070416376
83	0xbddd94c6	-0.10819392
84	0x3dc53a04	0.09630206
85	0xbda27bcb	-0.07933768
86	0xbdee296f	-0.116289966
87	0xbd5ae96c	-0.053445265
88	0x3dee3311	0.11630834
89	0xbdf25918	-0.118333995
90	0x3c9cade0	0.019125879
91	0x3dc5d06a	0.096588925
92	0xbe07415e	-0.1320853
93	0x3dc8b3f3	0.097999476
94	0xbe13a7a6	-0.14419422
95	0xbd9ff398	-0.07810134
96	0xbdf3b540	-0.11899805
97	0xbdadc4e2	-0.08484818
98	0x3d25534a	0.040362634
99	0xbdec4792	-0.115370885
100	0x3d86065a	0.0654418
101	0xbdaa1a40	-0.08305788
102	0x3b9079ed	0.004409066
103	0xbc0d7de6	-0.008635974
104	0xbc409824	-0.011755023
105	0x3ceccb5a	0.02890556
106	0x3d810c9c	0.06301233
107	0x3d396dc2	0.04527069
108	0xbbda79e2	-0.0066673616
109	0x3d99b0e6	0.07504444
110	0x3d1f94fc	0.038960442
111	0xbb901225	-0.0043966942
112	0xbbd918f1	-0.0066252877
113	0xbdd42067	-0.10357743
114	0xbdaa8d53	-0.08327737
115	0xbda1844b	-0.07886561
116	0xbdd28833	-0.10279884
117	0x3da44d2c	0.08022532
118	0x3c2d4f3d	0.010577974
119	0x3de64793	0.112441204
120	0xbd2df32f	-0.042468246
121	0x3dcbfced	0.09960351
122	0xbd077207	-0.03306773
123	0xbd95bb7e	-0.07311152
124	0xbde495e4	-0.11161402
125	0xbd147d84	-0.036252514
126	0xbdeb4c58	-0.11489171
127	0x3dc76a0c	0.09737024
128	0xbdbdfb04	-0.09276393
129	0xbd9db09e	-0.07699703
130	0x3cf26bcb	0.029592415
131	0x3dd5228e	0.104069814
132	0xbdddcf69	-0.10830576
133	0x3d3d4f3f	0.046218153
134	0x3d7bcff0	0.0614776
135	0xbd2490f5	-0.040177304
136	0x3d1a43c2	0.037662275
137	0xbd726253	-0.0591758
138	0x3d0e831f	0.034793016
139	0xbd8cfe6f	-0.06884467
140	0xbb527f8a	-0.0032119476
141	0x3ad85d8c	0.0016507371
142	0xbdbc3781	-0.09190274
143	0xbcb98768	-0.022647575
144	0xbdbdb269	-0.09262545
145	0x3d16b362	0.036792167
146	0xbe1dde7d	-0.15416904
147	0xbd2091a1	-0.039201383
148	0xbc82e849	-0.015979903
149	0xbe35e673	-0.1776369
150	0x3e0bf8ef	0.1366918
151	0x3cf74ac2	0.030187014
152	0x3d9fe840	0.0780797
153	0xbd526a3f	-0.051370855
154	0x3c530543	0.012879672
155	0xbd187237	-0.0372183
156	0x3da50974	0.08058444
157	0xbdda19a9	-0.106494255
158	0xbd86341e	-0.06552909
159	0xbd1b9ea9	-0.037993107
160	0x3d2f0967	0.042733576
161	0xbdae4f31	-0.08511198
162	0xbd96a335	-0.07355348
163	0x3db02283	0.086003326
164	0x3d70690c	0.05869393
165	0xbc40690c	-0.011743795
166	0xbcf04014	-0.02932743
167	0x3adae71e	0.0016700958
168	0x3d5dc0ad	0.054138828
169	0x3a491da0	0.0007671956
170	0x3cea8a8f	0.028630523
171	0x3defc758	0.11707944
172	0xbd5ed750	-0.054404557
173	0xbcfd6b1a	-0.030934859
174	0xbd4d4ba0	-0.05012095
175	0x3d8efc46	0.06981711
176	0x3d8950c3	0.06704857
177	0x3c435c7c	0.011923905
178	0xbc5783c5	-0.013153975
179	0xbdcdce08	-0.10049063
180	0xbcc0c8ee	-0.02353331
181	0xbc0127eb	-0.007883052
182	0xbd2a323d	-0.041551817
183	0xbd82f38a	-0.06394108
184	0xbce6529d	-0.028115565
185	0x3dc35e82	0.0953951
186	0xbd22b698	-0.039724916
187	0x3d9b6e10	0.07589352
188	0xbdb56aa7	-0.08858233
189	0x3dc43ff7	0.09582513
190	0x3de3db27	0.11125784
191	0x3deefc20	0.11669183
192	0x3d026166	0.031831168
193	0xbd776061	-0.06039465
194	0xbc1e4529	-0.009660044
195	0xbddcbdfa	-0.10778423
196	0x3c3352ab	0.010945003
197	0xbdc82e7d	-0.09774492
198	0x3d86f039	0.065887876
199	0xbdd280cd	-0.10278473
200	0xbb663ad5	-0.0035130281
201	0xbd4396b7	-0.047751155
202	0x3d312b07	0.043253925
203	0xbd9bd341	-0.07608653
204	0xbd889471	-0.06668938
205	0x3dd75cd9	0.10515756
206	0x3de61ff5	0.11236564
207	0xbc8b47f1	-0.017002078
208	0xbdb763e9	-0.08954603
209	0x3b387dd0	0.0028151162
210	0xbc9dc8a0	-0.019260705
211	0x3df135bf	0.117778294
212	0x3de3dfb4	0.11126652
213	0x3dc206ea	0.09473975
214	0xbca2e001	-0.019882204
215	0xbd054bb3	-0.032542896
216	0x3dc4127a	0.095738366
217	0x3de39fbd	0.11114452
218	0xbd4452bb	-0.04793046
219	0xbd2ce819	-0.042213533
220	0xbd233820	-0.039848447
221	0x3a97c45e	0.0011578908
222	0xbd8b339e	-0.067969546
223	0xbc8a1d7e	-0.016859766
224	0xbd90ad73	-0.07064333
225	0xbc99d1bf	-0.018776773
226	0x3d3ceef4	0.04612632
227	0xbde70724	-0.11280659
228	0xbd99298e	-0.07478629
229	0x3d819808	0.06327826
230	0xbd2fca8e	-0.04291778
231	0xbdb46e1b	-0.088100635
232	0xbdb27f7d	-0.08715723
233	0x3ce60af2	0.028081391
234	0xbd957200	-0.072971344
235	0x3cc6edd5	0.024283329
236	0x3ca949e3	0.020665115
237	0xbd84c370	-0.06482589
238	0x3dc4c6d2	0.096082345
239	0xbdcae899	-0.09907646
240	0x3ce41776	0.027843218
241	0xbd7ecb54	-0.062205628
242	0xbcfb2a9b	-0.030659964
243	0xbce1b981	-0.027554275
244	0x3de4f70d	0.11179934
245	0xbcdfc475	-0.027315358
246	0xbdcb5704	-0.09928706
247	0xbddd0279	-0.10791487
248	0xbde999a6	-0.11406259
249	0x3de4a567	0.111643605
250	0xbde74b7d	-0.11293695
251	0xbcd09a71	-0.025464268
252	0xbd694098	-0.056946367
253	0xbc988e69	-0.018622594
254	0xbdb372ae	-0.08762108
255	0x3cc8c388	0.024507299

conv_block.5.0.bias f4 [4]
0	0x3d94c6d0	0.07264483
1	0x3d8bf3cf	0.06833612
2	0xbd180045	-0.037109632
3	0x3dd5c5fa	0.10438152
