model.pt (torch, 909327 bytes, 8 tensors)

conv_layer.0.weight f4 [64, 1, 3, 3]
-0.1868783 -0.19227311 -0.17004712 0.1876891 0.19216198 -0.23336568 -0.191998 -0.1936004
-0.2838582 -0.2822322 0.1578645 0.10020313 -0.15153079 -0.13084659 -0.28412536 0.18801756
-0.059227355 -0.0016369335 0.02876407 -0.18258877 -0.10864669 -0.13104364 0.10095259 0.27309933
-0.1324215 0.02140193 -0.028072309 0.20313273 0.24642423 0.15449412 0.21836352 0.22665074
0.12460501 -0.29662257 0.2526599 0.05161856 -0.2934442 -0.2681421 -0.15494639 -0.17680028
0.25490656 -0.2694163 0.14604056 0.2628437 0.2212867 0.036027014 -0.077738136 0.18651678
0.108499065 -0.013439699 0.09602343 0.18420328 -0.15812956 -0.06558035 -0.068143904 -0.1324694
-0.078056954 -0.29613385 -0.02449695 0.10038861 -0.23343036 0.15703572 0.13466077 0.12264455
-0.25491416 -0.3092965 -0.050553303 0.3151397 -0.17940202 0.04011544 0.15275382 0.03513376
-0.0014211693 0.13082075 0.12352992 -0.25798523 0.25205234 0.330612 -0.08833527 -0.109326206
-0.14856724 0.2130221 0.2077431 -0.19239892 0.15190217 -0.17675063 -0.010614919 -0.09202415
-0.14215566 -0.25249705 -0.065734066 0.2638246 0.20485497 -0.10627286 0.035480198 -0.017109772
0.18425745 0.25448182 -0.3160465 -0.27924484 0.27344304 -0.15138797 0.1925693 0.32513368
0.31558892 -0.13432848 -0.20906068 0.23433976 -0.35118732 -0.06044922 0.07356601 -0.053235054
-0.19951482 0.21372181 0.14165378 0.31693137 0.003795106 -0.18691345 0.28932348 0.12708333
-0.0028287696 -0.3170872 -0.039495703 -0.27651227 0.26118335 0.053969663 0.13578658 -0.30115023
-0.33321357 0.2079784 -0.047514718 0.23446752 0.054310337 -0.082068086 0.18321563 0.18171136
0.12317408 -0.34193203 0.29370984 0.24518888 -0.3056789 0.24626084 -0.1074084 0.24747096
0.14382596 -0.017529685 0.10443976 -0.21657443 0.22612956 -0.15661134 0.08051074 0.26756066
-0.0017548695 -0.18760611 0.16673182 0.2508314 0.015790556 -0.27276707 -0.08862558 0.037618566
0.33386537 -0.18856831 0.25672713 -0.06701389 -0.13854478 -0.033808723 0.27918836 0.20668456
-0.31554967 -0.29163656 -0.0779196 0.0500074 -0.042563096 0.11332258 0.07434505 -0.22325352
-0.15582721 -0.14796431 0.2595354 -0.10792997 -0.27032405 0.25903192 -0.24501367 -0.12636608
-0.037883874 -0.1489362 0.33666924 0.24949174 -0.3113443 -0.23643799 -0.18596601 0.19131981
0.061087042 0.067762956 -0.11958964 -0.24763541 0.28512168 0.2272991 -0.27089402 -0.3149047
-0.035996333 0.041437175 -0.13027239 0.07685136 0.07742231 -0.017867258 0.31931844 0.2125648
-0.13331778 -0.11251224 0.034979552 -0.011086322 0.25852814 0.057325087 -0.29986954 0.15545338
0.25700033 -0.12031487 0.011657546 -0.3330255 0.19483043 0.17642015 0.14720002 0.043683957
0.223403 -0.31655404 0.2425107 0.13738412 -0.23775195 0.10311531 0.0737042 -0.2704681
0.1778632 -0.044949763 -0.2902972 -0.02577854 -0.15202944 -0.09850801 0.2232014 -0.2179846
-0.039163727 0.26122743 0.30455115 0.21362033 -0.18570451 0.1005306 0.29151946 -0.18142664
-0.25834256 -0.2011934 0.15975516 -0.04128347 0.08368898 0.11403608 -0.12633231 0.2931341
00000000: 065d 3fbe 3ee3 44be d520 2ebe 9231 403e
00000010: 1cc6 443e 6af7 6ebe 209b 44be 2f3f 46be
00000020: dd55 91be bd80 90be 3ba7 213e 4c37 cd3d
00000030: e32a 1bbe a6fc 05be e178 91be ad87 403e
00000040: 6298 72bd 608e d6ba a0a2 eb3c 8df8 3abe
00000050: 2882 debd 4e30 06be 3bc0 ce3d add3 8b3e
00000060: 8099 07be 1a53 af3c e6f7 e5bc 0702 503e
00000070: a256 7c3e b533 1e3e b09a 5f3e 2217 683e
00000080: e930 ff3d eade 97be a35c 813e fc6d 533d
00000090: 513e 96be ec49 89be 44aa 1ebe 220b 35be
000000a0: 1d83 823e eff0 89be a88b 153e 7393 863e
000000b0: fb98 623e 1091 133d 2c35 9fbd 41fe 3e3e
000000c0: c234 de3d 2f32 5cbc efa7 c43d c99f 3c3e
000000d0: b7ec 21be fe4e 86bd 088f 8bbd 0fa6 07be
000000e0: 53dc 9fbd db9e 97be d4ad c8bc 8b98 cd3d
000000f0: 5e08 6fbe f9cd 203e 83e4 093e 112d fb3d
00000100: 1c84 82be 1c5c 9ebe fb10 4fbd fe59 a13e
00000110: 2ab5 37be 1650 243d 7f6b 1c3e 6be8 0f3d
00000120: 8746 baba e0f5 053e 41fd fc3d a416 84be
00000130: 010d 813e fa45 a93e 1fe9 b4bd 6be6 dfbd
00000140: 0322 18be 7722 5a3e 9bba 543e 3904 45be
00000150: 3e8c 1b3e 1efe 34be 32ea 2dbc 2877 bcbd
00000160: 4191 11be 4b47 81be 959f 86bd 0514 873e
00000170: 80c5 513e 96a5 d9bd af53 113d cb29 8cbc
00000180: fcad 3c3e 714b 823e d9d0 a1be 2ef9 8ebe
00000190: ba00 8c3e 7305 1bbe e330 453e ec77 a63e
000001a0: df94 a13e 688d 09be 0114 56be c3f6 6f3e
000001b0: d3ce b3be 9a99 77bd c7a9 963d 000d 5abd
000001c0: 9d4d 4cbe e4d9 5a3e b00d 113e d444 a23e
000001d0: 50b7 783b 3d66 3fbe 3522 943e 2222 023e
000001e0: e162 39bb 4159 a2be 3fc6 21bd 0493 8dbe
000001f0: d3b9 853e 4b0f 5d3d a30b 0b3e 5d30 9abe
00000200: f89a aabe 4af8 543e cb9e 42bd 4118 703e
00000210: 8474 5e3d 5013 a8bd e19c 3b3e 8b12 3a3e
00000220: b142 fc3d b711 afbe 2361 963e cb12 7b3e
00000230: f281 9cbe cd2b 7c3e eff8 dbbd 0769 7d3e
00000240: 1d47 133e 6a9a 8fbc 83e4 d53d b0c5 5dbe
00000250: 828e 673e b95e 20be d1e2 a43d b6fd 883e
00000260: a603 e6ba d11b 40be bfbb 2a3e f96c 803e
00000270: 325b 813c 20a8 8bbe 5481 b5bd ed15 1a3d
00000280: 67f0 aa3e 0d18 41be bd71 833e 943e 89bd
00000290: afde 0dbe 047b 0abd c7f1 8e3e 1ea5 533e
000002a0: ba8f a1be 6351 95be 5094 9fbd 8fd4 4c3d
000002b0: a456 2ebd ab15 e83d 3842 983d 929c 64be
000002c0: 2b91 1fbe f583 17be d3e1 843e 630a ddbd
000002d0: ea67 8abe d59f 843e dde4 7abe 1c66 01be
000002e0: 1f2c 1bbd bb82 18be e95f ac3e c37a 7f3e
000002f0: 8568 9fbe cd1c 72be e06d 3ebe 57e9 433e
00000300: 6836 7a3d 4ec7 8a3d 6aeb f4bd 2394 7dbe
00000310: 78fb 913e 18c1 683e 9fb2 8abe 303b a1be
00000320: e470 13bd 07ba 293d 2066 05be 3f64 9d3d
00000330: 978f 9e3d 5b5e 92bc b57d a33e 96aa 593e
00000340: 7584 08be d16c e6bd b846 0f3d 68a3 35bc
00000350: cd5d 843e b6cd 6a3d 8088 99be 2c2f 1f3e
00000360: 8c95 833e a467 f6bd 4bff 3e3c 5182 aabe
00000370: a181 473e 7ca7 343e 9abb 163e f3ed 323d
00000380: c2c3 643e 5f13 a2be ba54 783e 6cae 0c3e
00000390: 3f75 73be 1f2e d33d 3af2 963d cb7a 8abe
000003a0: c521 363e 3e1d 38bd d6a1 94be 842d d3bc
000003b0: 9bad 1bbe 91be c9bd e88e 643e 5b37 5fbe
000003c0: 256a 20bd 9abf 853e 21ee 9b3e 4abf 5a3e
000003d0: 5329 3ebe fde2 cd3d 0a42 953e e8c7 39be
000003e0: 7a45 84be a505 4ebe db96 233e db18 29bd
000003f0: 2165 ab3d c08b e93d 425d 01be ac15 963e

conv_layer.0.bias f4 [64]
0.04920161 0.12320322 0.10933213 0.109111205 0.05651451 0.11341381 -0.051435452 0.07820984
-0.18765745 -0.124918185 -0.3017321 -0.21468696 0.031003363 -0.16989383 0.23938413 0.06529139
-0.16123965 -0.11239059 0.1267979 -0.2487905 0.049331684 -0.31415862 0.11601031 -0.11575048
0.11144403 0.19723673 0.03654254 0.014480431 -0.22278386 -0.2528477 0.182441 -0.112087846
0.123156115 -0.051506978 -0.13959393 0.21613395 -0.24869084 0.21230009 0.08437679 -0.2916064
-0.142066 0.24108745 0.15644291 0.098131426 0.1681241 0.0152334925 0.05281241 0.063827135
-0.104164705 -0.0060906936 0.17415641 -0.26979277 -0.023746332 0.17122638 -0.23600179 -0.23376058
0.25024477 0.20506465 0.19857068 0.09822848 0.023487955 0.11649633 0.027194686 -0.032262895
00000000: a187 493d f851 fc3d 86e9 df3d b275 df3d
00000010: c27b 673d 8045 e83d fbad 52bd 7b2c a03d
00000020: 4629 40be 1bd5 ffbd a17c 9abe e6d6 5bbe
00000030: c4fa fd3c a6f8 2dbe 1d21 753e 7eb7 853d
00000040: 021c 25be 0a2d e6bd 4fd7 013e f0c2 7ebe
00000050: 0510 4a3d 66d9 a0be d096 ed3d 960e edbd
00000060: c53c e43d 6df8 493e a1ad 153d 543f 6d3c
00000070: 7421 64be 4175 81be d0d1 3a3e 508e e5bd
00000080: 4639 fc3d fbf8 52bd b6f1 0ebe 3852 5d3e
00000090: d0a8 7ebe 3265 593e bdcd ac3d 6f4d 95be
000000a0: c079 11be a1df 763e 9232 203e 21f9 c83d
000000b0: b928 2c3e e695 793c d351 583d cdb7 823d
000000c0: 4e54 d5bd 7194 c7bb 0f56 323e 4722 8abe
000000d0: ab87 c2bc f855 2f3e 74aa 71be ef5e 6fbe
000000e0: 1520 803e 78fc 513e 1d56 4b3e 032c c93d
000000f0: d069 c03c a195 ee3d 64c7 de3c 1926 04bd

conv_layer.2.weight f4 [128, 64, 3, 3]
0.029472403 -0.030998493 -0.035886824 -0.026495758 -0.037229534 0.017743828 -0.00079538446 0.037920844
0.01737175 -0.037767578 0.0025395365 0.029118134 0.03129429 0.01680968 0.006113596 -0.008739144
0.015222599 -0.024932925 -0.016979111 -0.010972988 0.008290695 -0.036956586 0.006094403 -0.039869133
-0.030745795 -0.019203046 0.032954495 -0.024553508 -0.033783954 -0.03252368 -0.03486078 -0.024692543
0.02049042 -0.0010047483 -0.028916584 -0.018930811 0.012669932 0.040583603 0.030049447 -0.038623143
0.01372716 -0.0010280523 -0.024687277 0.010048345 -0.008754439 0.010079963 0.009258444 -0.016360302
0.040636472 0.037526507 -0.024725687 0.040085923 0.016483013 0.0028172396 0.016052369 0.016839655
-0.037351362 -0.03642689 -0.0027290913 0.019892085 -0.009315179 0.024992408 -0.011804543 0.033875916
-0.004008557 -0.024044337 -0.004047782 0.010017365 -0.00094732555 -0.019236526 -0.02469667 0.042687766
-0.028773768 -0.0069082403 -0.037740957 -0.01565933 0.020184536 0.027291913 -0.0031037387 0.025373796
0.008120717 -0.004309073 -0.03163589 -0.027647946 0.019661618 -0.013970265 -0.0046728794 -0.03189429
0.00063218205 0.026723871 -0.024217047 0.009494517 -0.0018681011 -0.022092434 0.014257725 0.0039653764
0.0029404052 0.04149113 0.027948383 0.0133643765 0.011754547 -0.038843114 0.021229789 -0.03178425
-0.016406737 -0.0027097894 0.029172812 -0.01700808 0.028058179 0.008928394 -0.008271519 -0.02953961
0.027645458 0.038016725 0.042503163 -0.01846932 -0.04040237 -0.039701376 -0.017484846 0.020614762
0.026040189 -0.03396387 0.026335303 0.024161918 -0.012854356 0.011748027 -0.03404493 -0.02225426
-0.0046428884 -0.040915247 -0.0065191006 -0.0022809764 0.010503927 0.015249485 0.028749526 -0.015719648
0.0044113267 0.03691844 0.023234626 0.0248813 0.037049424 -0.03078168 0.03775978 0.010454511
0.031033255 -0.008891605 -0.026025852 -0.028111005 0.014226481 0.045852177 0.013739 -0.021056792
-0.030011818 -0.028066708 0.01812814 -0.026818244 0.037547737 -0.024297994 0.03915957 0.039688706
0.008282031 -0.036224574 -0.01463818 0.020196179 -0.019159382 -0.021488188 0.010853501 -0.00070329895
-0.02343914 -0.028393153 -0.02980454 -0.010480813 0.0329596 0.025660388 0.012313662 -0.007023267
-0.0017901722 -0.010395988 -0.037438076 0.032237902 -0.020248365 0.0037923541 0.015192844 0.025541762
-0.016020184 0.042871702 -0.029701231 -0.021151653 -0.033468064 -0.016824106 -0.017151782 -0.021900143
0.018821448 -0.025364833 -0.029241871 -0.01283182 0.033057645 0.0068317843 -0.026335333 0.049632773
-0.0047407933 0.013837862 -0.056067627 -0.027481848 0.034659036 -0.020991288 -0.024502287 0.04299914
-0.013635364 0.018628111 0.016525088 0.031372383 0.03264179 0.004892684 0.025762763 0.026872592
0.035882022 -0.0015961222 0.0055188052 -0.032773905 -0.02582863 -0.018395497 0.018063951 -0.014476418
-0.03513879 -0.020023493 0.00981845 -0.0015187621 0.031745072 0.025617847 0.03614033 0.039087057
0.021994933 -0.01645832 -0.01748468 -0.0046242005 -0.024665024 -0.005533073 -0.0067111207 0.023089146
-0.043004524 0.0005629761 -0.0059643984 -0.035007987 -0.032419097 0.020265743 -0.0127345845 0.016886167
-0.0152517725 0.03459069 0.0068736123 0.022463055 0.016699022 0.0054074093 0.012441244 0.0034932157
00000000: 1c70 f13c 8df0 fdbc 10fe 12bd a20d d9bc
00000010: ff7d 18bd 815b 913c 5981 50ba e352 1b3d
00000020: 334f 8e3c 2db2 1abd 5a6e 263b 2789 ee3c
00000030: 712e 003d 74b4 893c 8f54 c83b a02e 0fbc
00000040: 3568 793c 2240 ccbc c717 8bbc 0cc8 33bc
00000050: b2d5 073c ca5f 17bd 8fb3 c73b d14d 23bd
00000060: 9bde fbbc b54f 9dbc 4bfb 063d 7024 c9bc
00000070: 0b61 0abd 8d37 05bd 2dca 0ebd 0448 cabc
00000080: 86db a73c c2b1 83ba 79e2 ecbc ca14 9bbc
00000090: 8c95 4f3c fe3a 263d 422a f63c 4d33 1ebd
000000a0: e2e7 603c b6bf 86ba f93c cabc d0a1 243c
000000b0: c76e 0fbc 6e26 253c bbb0 173c 0a06 86bc
000000c0: 6e72 263d 65b5 193d 868d cabc 2331 243d
000000d0: 6207 873c 70a1 383b 4280 833c 51f3 893c
000000e0: befd 18bd 5d34 15bd 8eda 32bb baf4 a23c
000000f0: b19e 18bc e1bc cc3c d867 41bc 79c1 0a3d
00000100: 375a 83bb a1f8 c4bc 42a3 84bb e01f 243c
00000110: f155 78ba eb95 9dbc ac50 cabc 5ed9 2e3d
00000120: f7b6 ebbc 855e e2bb 4396 1abd ff47 80bc
00000130: 0a5a a53c 4a93 df3c 1868 4bbb b5dc cf3c
00000140: c10c 053c 2033 8dbb a394 01bd f27d e2bc
00000150: 6711 a13c 8ae3 64bc f41e 99bb 96a3 02bd
00000160: 05b9 253a 05ec da3c d462 c6bc e48e 1b3c
00000170: 12db f4ba 31fb b4bc 3c99 693c fdef 813b
00000180: d0b3 403b 9af2 293d 02f4 e43c 42f6 5a3c
00000190: 2596 403c f519 1fbd 18ea ad3c 3430 02bd
000001a0: 6c67 86bc b996 31bb d2fb ee3c 8754 8bbc
000001b0: 44da e53c 6648 123c 4485 07bc 0dfd f1bc
000001c0: ba78 e23c 6db7 1b3d cc17 2e3d f94c 97bc
000001d0: f57c 25bd e99d 22bd 613c 8fbc 4ae0 a83c
000001e0: 3c52 d53c b31d 0bbd 22bd d73c 37ef c53c
000001f0: 149b 52bc cc7a 403c b272 0bbd 914e b6bc
00000200: 5f23 98bb bf96 27bd 2e9e d5bb 6f7c 15bb
00000210: aa18 2c3c fad8 793c 2084 eb3c 7ec6 80bc
00000220: e48c 903b ca37 173d 8b56 be3c ded3 cb3c
00000230: 23c1 173d dd29 fcbc 00aa 1a3d 6649 2b3c
00000240: 7439 fe3c 18ae 11bc 2b34 d5bc 0d49 e6bc
00000250: 3016 693c 7ecf 3b3d 8b19 613c 4b7f acbc
00000260: 58db f5bc 27ec e5bc 7781 943c efb1 dbbc
00000270: a8cb 193d 960c c7bc c965 203d a090 223d
00000280: 5bb1 073c 3860 14bd fad4 6fbc 7572 a53c
00000290: 23f4 9cbc ff07 b0bc e2d2 313c 985d 38ba
000002a0: 7003 c0bc c298 e8bc a728 f4bc b7b7 2bbc
000002b0: a500 073d bc35 d23c 3ebf 493c 6f23 e6bb
000002c0: 36a4 eaba ef53 2abc ab58 19bd e40b 043d
000002d0: e6df a5bc 2589 783b 68eb 783c f53c d13c
000002e0: c33c 83bc 3d9a 2f3d ff4f f3bc 3b46 adbc
000002f0: cf15 09bd b5d2 89bc e581 8cbc ee67 b3bc
00000300: 702f 9a3c e9c9 cfbc a68c efbc 8e3c 52bc
00000310: 7467 073d 29dd df3b 32bd d7bc bc4b 4b3d
00000320: a858 9bbb 33b8 623c 2ba7 65bd 9d21 e1bc
00000330: a2f6 0d3d ecf5 abbc 05b9 c8bc de1f 303d
00000340: dd66 5fbc fb99 983c 9f5f 873c 5480 003d
00000350: 66b3 053d cf52 a03b 6e0c d33c e923 dc3c
00000360: 07f9 123d f934 d1ba 18d7 b43b ee3d 06bd
00000370: 9096 d3bc 27b2 96bc dafa 933c 7f2e 6dbc
00000380: b1ed 0fbd 4f08 a4bc 90dd 203c 3311 c7ba
00000390: 1f07 023d 85dc d13c e207 143d c019 203d
000003a0: b82e b43c 99d3 86bc 083c 8fbc 9b86 97bb
000003b0: 4e0e cabc c84e b5bb f6e8 dbbb 7325 bd3c
000003c0: 8325 30bd b094 133a 0071 c3bb 8964 0fbd
000003d0: e3c9 04bd 5804 a63c b8a4 50bc dc54 8a3c
000003e0: 92e2 79bc f8ae 0d3d 0a3c e13b 7104 b83c
000003f0: 63cc 883c a330 b13b 5cd6 4b3c 6fee 643b

conv_layer.2.bias f4 [128]
0.03520559 -0.017926682 0.02494682 0.01581875 -0.0150907375 0.014451768 0.017697822 -0.0014640482
0.033845685 0.030741293 0.009176193 0.017462837 -0.041711938 -0.022566516 -0.0115415575 -0.034002367
-0.01963037 0.021429256 -0.022992909 -0.025366137 0.019124825 -0.012694225 -0.016107664 -0.0062368186
0.035738423 0.024381364 -0.008983685 0.028138427 -0.030515624 -0.012000054 -0.031519923 -0.032751475
0.014229037 -0.036289316 0.013393537 0.006832959 -0.03041135 0.020338649 -0.012883894 -0.012855878
0.040421456 -0.01825622 0.0017741866 0.041721866 0.018082624 -0.0010832514 0.005855941 -0.004002214
0.040177293 -0.009685459 -0.038122352 -0.03616491 0.029053597 -0.02889168 -0.037680008 -0.014231895
-0.005355823 -0.017628882 0.0056639872 0.007773079 -0.03334908 0.0019388653 0.0031420013 -0.018699776
0.011593672 -0.032171886 0.00682321 -0.029897776 -0.017164446 -0.030878365 0.005453117 -0.04010148
0.027865283 0.018520419 0.022361765 0.019830538 0.03667494 0.0055541266 0.022843096 -0.022211263
-0.0031330779 0.01654551 0.00336726 0.039039943 -0.0017235058 0.0037545406 -0.016459797 0.030400235
0.036252316 0.0027285519 0.031200426 0.013898726 -0.00921345 -0.03381563 0.010982341 0.028003875
0.021210095 0.002416264 0.024763146 -0.014108253 0.026292415 0.021818388 0.044727683 -0.035575468
-0.008893767 -0.019476974 -0.026411502 0.016760632 -0.017549716 0.0036006486 -0.039705195 -0.03954935
-0.0064649987 -0.0051393835 -0.016918866 0.032723 0.024200039 0.033340342 -0.0057678386 -0.023321513
-0.04088948 -0.0018322502 -0.00026578133 -0.026663406 0.03482127 -0.021913057 -0.0066496427 0.0029251375
00000000: bd33 103d fada 92bc 465d cc3c 5396 813c
00000010: 243f 77bc 1cc7 6c3c 06fb 903c 4ee5 bfba
00000020: c6a1 0a3d 2ad5 fb3c be57 163c 390e 8f3c
00000030: 23da 2abd 6add b8bc cd18 3dbc 1146 0bbd
00000040: dfcf a0bc 688c af3c a05b bcbc a5cc cfbc
00000050: aaab 9c3c 70fb 4fbc 38f4 83bc 3a5e ccbb
00000060: 7462 123d 6dbb c73c 4e30 13bc 8f82 e63c
00000070: e7fb f9bc e09b 44bc 091b 01bd 6926 06bd
00000080: e820 693c 1ba4 14bd 9170 5b3c 04e7 df3b
00000090: 3921 f9bc 3d9d a63c f816 53bc 76a1 52bc
000000a0: f890 253d 118e 95bc d38b e83a 8ce4 2a3d
000000b0: 0322 943c e3fb 8dba 32e3 bf3b 0125 83bb
000000c0: f290 243d c2af 1ebc 2f26 1cbd a821 14bd
000000d0: cf01 ee3c 3fae ecbc 5a56 1abd e52c 69bc
000000e0: e67f afbb 726a 90bc f898 b93b 50b5 fe3b
000000f0: 0b99 08bd 8621 fe3a 09ea 4d3b 4630 99bc
00000100: 63f3 3d3c abc6 03bd 3c95 df3b 2eec f4bc
00000110: 749c 8cbc a0f4 fcbc 10b0 b23b 7341 24bd
00000120: bc45 e43c 22b8 973c 0530 b73c a773 a23c
00000130: 7638 163d 64ff b53b 7221 bb3c 65f4 b5bc
00000140: 5354 4dbb 738a 873c 40ad 5c3b 59e8 1f3d
00000150: 42e7 e1ba bd0e 763b b2d6 86bc ea09 f93c
00000160: 4f7d 143d 81d1 323b 0998 ff3c 7bb7 633c
00000170: 03f4 16bc 4282 0abd 47ef 333c 6268 e53c
00000180: cbc0 ad3c 2f5a 1e3b 15dc ca3c 4d26 67bc
00000190: 3163 d73c 7abc b23c 6034 373d 95b7 11bd
000001a0: 2ab7 11bc 2d8e 9fbc ef5c d8bc 984d 893c
000001b0: 6cc4 8fbc dcf8 6b3b eaa1 22bd 80fe 21bd
000001c0: 57d8 d3bb 4668 a8bb 6f99 8abc 8d08 063d
000001d0: 293f c63c e28f 083d 2300 bdbb c20c bfbc
000001e0: ba7b 27bd 1d28 f0ba 9158 8bb9 376d dabc
000001f0: bfa0 0e3d 0383 b3bc 3fe5 d9bb aab3 3f3b

conv_layer.4.weight f4 [128, 128, 3, 3]
0.0018210849 0.026188143 0.028338624 0.026467633 0.012084537 0.015270367 -0.012958359 -0.024958659
0.02853447 0.0134341465 -0.006365557 0.019860111 -0.007246563 0.0037224584 0.017460963 -0.02776682
0.013242756 0.015328287 -0.02031692 -0.006149181 0.026321275 0.0023678339 -0.01368899 0.025080934
0.023275468 -0.0069592884 0.01061049 -0.028726038 0.0020012474 0.013101429 -0.009821544 0.020974072
0.0006269361 0.014500887 0.029595466 0.0025410815 0.019827861 0.0018163299 -0.003533838 0.005020807
-0.020288918 0.019613957 -0.011472291 0.030663485 -0.032626193 0.010343894 0.002037455 0.00073513814
0.023524886 0.020482901 0.007009683 0.019443644 -0.021165757 0.026848909 0.012706001 0.021464903
0.013195362 0.021642102 0.025748579 -0.013595874 0.02233737 0.03071658 0.023760596 0.011151612
0.010033622 0.027317077 -0.009034193 -0.018295884 0.00083582854 -0.0147114545 -0.008181535 0.0039624553
0.029565379 -0.0019596552 0.01941586 0.005538295 -0.020001397 0.029422455 -0.012215393 -0.0029882786
-0.0051817345 0.03191622 0.021709956 0.00064220093 -0.0018621908 -0.017452182 -0.02200895 0.030215347
0.021378297 -0.0066661458 0.019203598 0.012269086 -0.006898892 0.0018410438 -0.019450173 0.024775755
0.026855228 -0.017076923 0.0055109654 -0.0227824 0.023310067 -0.0026250838 0.0036941895 0.010520861
-0.027859844 -0.0072179693 0.02000287 -0.0020500787 -0.029472908 0.008925303 0.005184914 0.01824748
0.003965486 0.014618525 -0.012790254 -0.021199072 -0.0010467134 0.0065262965 -0.030269293 0.01261343
-0.0046691475 -0.025082452 0.0008487993 -0.008399371 0.014715636 -0.01284794 -0.0013363119 -0.012761864
-0.0055856584 0.015326829 0.006408961 -0.010852734 -0.0019765482 0.019299198 -0.01636607 -0.0032503789
-0.011099792 -0.014340993 0.019450547 -0.008979975 -0.0035823113 0.02069502 -0.021217823 -0.017684503
0.016007286 -0.012373207 0.0092710825 -0.029019443 -0.011526362 0.01437048 0.00087455136 -0.022053594
-0.023517929 -0.0063560964 -0.022936417 -0.0065197246 0.0016659228 0.0047159875 0.004110263 0.010443692
-0.029595917 0.0018590776 0.01807103 0.012497677 -0.013310748 0.023351828 0.01861483 -0.006090097
-0.003505634 -0.025849568 -0.018937109 -0.020047542 -0.004797974 -0.002348774 0.016106583 0.010923313
-0.022772623 -0.011542585 0.02771354 0.019116476 0.00010410767 0.02269194 -0.0027690153 -0.0159642
0.0024698428 -0.017058162 -0.01427579 -0.0035452128 -0.0031469357 0.0015411364 0.0018547548 0.026490618
0.020372208 0.009010392 0.017982706 -0.026067324 -0.012530918 0.0144103095 -0.022022743 0.020101752
0.025237598 -0.010378529 0.016574722 0.002372954 -0.0021742794 0.011776676 0.0059295096 0.028173933
-0.005618121 -0.02724734 0.0060217893 0.0014182336 -0.019111363 -0.014061512 -0.006365671 -0.0024686516
-0.030167082 -0.014202358 -0.019793127 -0.023720147 -0.0023612436 -0.024880452 0.017677955 -0.010203272
0.00529121 0.012280646 0.014730471 -0.028632129 0.03028707 -0.002936219 -0.019261252 0.009000112
-0.012529702 0.013961471 0.006651277 -0.0029946722 0.011751786 0.00952981 0.026710272 0.023280533
-0.0009810919 -0.0067901122 -0.016662091 0.020955762 -0.015193412 0.012628993 -0.0029724175 0.0060719945
0.02755329 0.004327836 0.012081923 -0.0036877566 0.019237999 0.005817633 0.006105318 -0.0010328185
00000000: 78b1 ee3a 8488 d63c 6726 e83c a6d2 d83c
00000010: 39fe 453c 9030 7a3c 4c4f 54bc 1a76 ccbc
00000020: 1fc1 e93c e51a 5c3c 2a96 d0bb acb1 a23c
00000030: 9474 edbb 7df4 733b 4b0a 8f3c 3e77 e3bc
00000040: 25f8 583c 7f23 7b3c ab6f a6bc 127f c9bb
00000050: b79f d73c a92d 1b3b c947 60bc 8876 cd3c
00000060: 32ac be3c be0a e4bb 9fd7 2d3c de52 ebbc
00000070: 5c27 033b 60a7 563c 8bea 20bc d1d1 ab3c
00000080: f858 243a 2195 6d3c 3172 f23c 4688 263b
00000090: 0a6e a23c eb11 ee3a f797 67bb 9585 a43b
000000a0: f234 a6bc 73ad a03c 47f6 3bbc fd31 fb3c
000000b0: 0ba3 05bd 7079 293c d386 053b 49b6 403a
000000c0: 43b7 c03c c2cb a73c 7cb1 e53b 4748 9f3c
000000d0: cf63 adbc 3ef2 db3c d52c 503c 2ad7 af3c
000000e0: 5c31 583c c74a b13c afee d23c 3bc1 5ebc
000000f0: dcfc b63c 56a1 fb3c 95a5 c23c 40b5 363c
00000100: 1064 243c 10c8 df3c 2704 14bc 40e1 95bc
00000110: 811b 5b3a 5008 71bc d80b 06bc 7cd7 813b
00000120: 1833 f23c 8f6d 00bb 020e 9f3c 967a b53b
00000130: f8d9 a3bc 5c07 f13c 1223 48bc ffd6 43bb
00000140: 8acb a9bb 95ba 023d 14d9 b13c 6059 283a
00000150: c114 f4ba e1f7 8ebc 1d4c b4bc 2d86 f73c
00000160: 8a21 af3c af6f dabb dd50 9d3c 4704 493c
00000170: 1a10 e2bb 2e4f f13a f855 9fbc 86f6 ca3c
00000180: 7fff db3c e7e4 8bbc 5495 b43b 28a2 babc
00000190: c1f4 be3c 9909 2cbb 371a 723b b05f 2c3c
000001a0: 543a e4bc b784 ecbb 0fdd a33c 9d5a 06bb
000001b0: 2b71 f1bc 6f3b 123c 36e6 a93b bd7b 953c
000001c0: e8f0 813b 8a82 6f3c 378e 51bc ada9 adbc
000001d0: e031 89ba 8bda d53b 4ff7 f7bc 8fa8 4e3c
000001e0: a6ff 98bb b779 cdbc f581 5e3a 849d 09bc
000001f0: da19 713c 2b80 52bc 3027 afba 2317 51bc
00000200: e607 b7bb 611d 7b3c 4302 d23b aacf 31bc
00000210: fa88 01bb 5a19 9e3c 2312 86bc 4f04 55bb
00000220: e7db 35bc 7cf6 6abc c156 9f3c bf20 13bc
00000230: 36c5 6abb 9a88 a93c 00d1 adbc 17df 90bc
00000240: b621 833c feb8 4abc bde5 173c 2fba edbc
00000250: 11d9 3cbc 2972 6b3c 2642 653a bda9 b4bc
00000260: aca8 c0bc cd46 d0bb 27e5 bbbc 6aa3 d5bb
00000270: 185b da3a 9288 9a3b 63af 863b 051c 2b3c
00000280: 2373 f2bc 4bac f33a b209 943c 0ec3 4c3c
00000290: 5315 5abc 554c bf3c 217e 983c 708f c7bb
000002a0: c7be 65bb 79c2 d3bc ff21 9bbc be3a a4bc
000002b0: 5338 9dbb e4ed 19bb f4f1 833c b2f7 323c
000002c0: a78d babc 1c1d 3dbc 8107 e33c 289a 9c3c
000002d0: 6154 da38 73e4 b93c 5e78 35bb 5bc7 82bc
000002e0: 16dd 213b 8fbd 8bbc 01e5 69bc cd56 68bb
000002f0: d23c 4ebb f5ff c93a 3e1b f33a da02 d93c
00000300: 9ee3 a63c 53a0 133c 7850 933c 248b d5bc
00000310: 7b4e 4dbc 3819 6c3c 0a69 b4bc 6eac a43c
00000320: 14bf ce3c b50a 2abc b6c7 873c 9083 1b3b
00000330: 5b7e 0ebb f6f2 403c 554c c23b 05cd e63c
00000340: 3718 b8bb d035 dfbc 6e52 c53b 06e4 b93a
00000350: 6f8f 9cbc 4262 66bc 1e97 d0bb 1ac9 21bb
00000360: f520 f7bc 02b1 68bc 3225 a2bc c150 c2bc
00000370: 18bf 1abb 17d2 cbbc 5cd1 903c a02b 27bc
00000380: e361 ad3b c334 493c 1358 713c ed8d eabc
00000390: 971c f83c 956d 40bb c6c9 9dbc 3575 133c
000003a0: 6149 4dbc a7be 643c f5f2 d93b 4342 44bb
000003b0: 908a 403c ec22 1c3c 80cf da3c d1b6 be3c
000003c0: fb97 80ba 977f debb f07e 88bc 6bab ab3c
000003d0: caed 78bc d6e9 4e3c e4cc 42bb 95f7 c63b
000003e0: 70b7 e13c 85d0 8d3b 42f3 453c 4aae 71bb
000003f0: 0299 9d3c d8a1 be3b 1f0f c83b a35f 87ba

conv_layer.4.bias f4 [128]
-0.01905828 -0.020638445 0.017255805 -0.024657851 0.012909267 -0.019405494 -0.0061772894 -0.014572699
-0.009969371 0.0024875824 -0.019756379 0.015165395 0.021258248 0.019212548 0.014595933 -0.018708577
0.009763951 -0.036364775 0.015780462 -0.0014330848 0.011128786 0.015009226 -0.035727512 -0.0117723625
-0.017484738 -0.03646461 -0.0049456675 -0.029118203 0.024008518 -0.018270394 0.028205484 0.0053342474
0.02397289 -0.015902065 -0.020870378 -0.020292575 -0.024535568 -0.015565502 -0.022575453 -0.0007747162
-0.019884536 0.0101577 -0.01593283 0.017171573 0.028434819 -0.02999324 -0.023271993 -0.016866613
0.0063045146 -0.01726488 -0.030623207 0.026350705 -0.032004923 0.036857463 0.02803852 0.019951127
-0.011723322 0.0011270654 0.022586137 -0.0023286687 -0.014235977 0.0028251782 -0.0025386468 -0.009004323
-0.0076919384 -0.010949504 0.013615546 0.03084499 0.011677158 0.026729757 0.0021237722 -0.0050386502
-0.01955123 -0.0018121061 -0.02335801 0.0026004969 0.031837974 -0.0026883401 0.025201723 -0.02035251
0.018505134 0.007006071 -0.032628812 -0.0018516945 -0.006661351 -0.02319333 -0.011512451 -0.013415092
0.035355303 -0.018802196 -0.016711792 0.012951409 0.002320034 -0.017567122 -0.02334573 -0.036446504
0.01138329 -0.0055869576 0.024211597 0.024889737 5.653883e-05 0.014215662 -0.008385924 -0.028728189
0.007550592 -0.01014915 0.023232251 0.027393177 0.02390939 -0.0036381066 -0.015075398 -0.018112855
-0.019044911 0.0068428162 0.0033065362 -0.026615009 -0.007886671 -0.028949788 0.001051614 0.01871043
-0.008961232 0.0040201223 0.017075347 -0.01882694 -0.012209438 -0.010658416 0.0024111124 -0.009969162
00000000: 1c20 9cbc f511 a9bc 0c5c 8d3c 43ff c9bc
00000010: 6481 533c 45f8 9ebc dc6a cabb 54c2 6ebc
00000020: 9356 23bc b506 233b 21d8 a1bc 4778 783c
00000030: c725 ae3c a263 9d3c c823 6f3c bb42 99bc
00000040: fbf8 1f3c 3bf3 14bd 0746 813c 59d6 bbba
00000050: 8355 363c 42e9 753c 0357 12bd dee0 40bc
00000060: 273c 8fbc ea5b 15bd 440f a2bb 4c89 eebc
00000070: 83ad c43c cbab 95bc 300f e73c e9ca ae3b
00000080: cb62 c43c 0c45 82bc 5bf8 aabc 9d3c a6bc
00000090: d1fe c8bc 7306 7fbc 28f0 b8bc 5316 4bba
000000a0: e5e4 a2bc 7b6c 263c 9185 82bc 66ab 8c3c
000000b0: 23f0 e83c 62b4 f5bc e8a4 bebc da2b 8abc
000000c0: 1a96 ce3b 146f 8dbc 85dd fabc 6fdd d73c
000000d0: 9817 03bd daf7 163d 0ab1 e53c 8c70 a33c
000000e0: 2d13 40bc 0aba 933a 9006 b93c 949c 18bb
000000f0: 043e 69bc a026 393b 6d5f 26bb de86 13bc
00000100: a80c fcbb 8c65 33bc bd13 5f3c a2ae fc3c
00000110: 8d51 3f3c 5df8 da3c fc2e 0b3b 431b a5bb
00000120: e729 a0bc 3184 edba 4c59 bfbc 196d 2a3b
00000130: 8968 023d dd2e 30bb d873 ce3c 4fba a6bc
00000140: 1498 973c 2f93 e53b caa5 05bd 8fb4 f2ba
00000150: 7647 dabb f0ff bdbc b89e 3cbc f9ca 5bbc
00000160: b9d0 103d 1007 9abc 2be7 88bc 2632 543c
00000170: b60b 183b ede8 8fbc 8b3f bfbc ee48 15bd
00000180: fb80 3a3c cc12 b7bb 6657 c63c 90e5 cb3c
00000190: 1b24 6d38 cfe8 683c 1d65 09bc 6157 ebbc
000001a0: f56a f73b 9f48 26bc 9051 be3c a867 e03c
000001b0: a0dd c33c 4d6d 6ebb cdfe 76bc 6961 94bc
000001c0: 1304 9cbc b439 e03b 79b2 583b b807 dabc
000001d0: 1937 01bc 1b28 edbc 4fd6 893a 9e46 993c
000001e0: 22d2 12bc 3bbb 833b 99e1 8b3c f43a 9abc
000001f0: 180a 48bc a3a0 2ebc c103 1e3b b255 23bc

conv_layer.6.weight f4 [4, 128, 3, 3]
0.011829939 -0.014236791 -0.02290689 -0.007412876 0.008881396 -0.023605548 0.032893967 0.012155496
0.008841865 -0.010256772 0.021693012 0.008267936 -0.0036693215 -0.017982697 0.022902967 0.0008806479
0.014666325 0.00052299007 -0.00074469286 0.019331062 0.011084933 0.010139539 0.0054874336 -0.024394557
-0.0038919304 0.010374994 -0.029843813 0.0035776864 -0.024035776 0.02278365 0.005988724 -0.020773008
-0.021201054 -0.018471159 0.0051035513 -0.013469125 0.025867734 -0.024948003 0.008996239 -0.008088858
-0.024654424 0.0006533738 -0.02588106 -0.022893088 -0.015290286 0.011236399 -0.013088071 -0.012902053
-0.032642692 -0.008363254 -0.006164421 -0.004383209 0.004271086 -0.0005420523 -0.0011179058 0.0225986
-0.030919382 -0.025852324 -0.0020042546 -0.01702213 -0.011808757 -0.0073361555 0.010748288 0.009643098
0.016474715 -0.0011569838 0.009686513 -0.02048612 -0.028276544 0.023700805 0.012999418 -0.010900564
-0.020980164 -0.014556312 -0.024838926 0.029396676 -0.01988315 -0.018117847 -0.005730493 0.0032754731
-0.020942518 0.010999002 0.014743282 -0.0031817146 -0.022010656 0.0064213225 0.012329095 0.01145561
0.023622522 0.008953369 -0.028207114 0.027878575 -0.015200892 -0.024875447 -0.029068718 -0.017100783
-0.026352929 0.0059071966 -0.0054626833 0.004826899 -0.008658168 -0.013454023 0.0069043837 -0.004695445
0.032356825 0.0384165 -0.0061676824 0.0074930894 -0.016465416 0.02101239 -0.020451203 0.013342886
0.009850281 0.033714935 -0.008002512 0.034153182 -0.02289747 0.008820521 0.0013593754 -0.014257668
-0.01729423 0.02825138 -0.020999067 0.006946202 0.004568991 -0.021827374 -0.010054255 -0.01988713
0.014880867 0.008141848 0.014117767 4.6908144e-06 -0.017176347 0.028062744 0.009147606 0.014134083
-0.011253472 0.010206519 0.01662891 0.002582684 -0.01963684 0.0243108 -0.00070040766 0.012617969
0.0054137246 0.024837552 -0.017625755 -0.009231134 0.0056882626 0.0394443 0.009650067 -0.019160422
0.015742835 -0.025333975 -0.006668005 -0.027108427 -0.0303805 -0.03289833 -0.0003951678 -0.031753294
0.005605987 0.017513085 -0.019740116 -0.0020266396 0.022211505 0.0038251572 0.0054403585 -0.021047143
-0.031534713 -0.012245151 0.018458087 -0.01604064 0.012775146 0.01877996 0.004003277 -0.004527177
-0.0012442212 -0.029657202 0.0061040153 -0.017285155 0.018580938 0.00288219 0.009483138 0.0246313
-0.0030707563 -0.007541239 -0.005627392 -0.025972249 -0.02034063 0.011385363 -0.01574101 0.008078366
0.00015676343 -0.02182756 0.016437555 0.02149264 0.016235271 -0.015204849 -0.0020382318 -0.031210344
-0.020395355 -0.012901593 -0.0032467507 0.01634758 -0.010119899 0.0051365425 0.013295724 0.0129111875
-0.010711189 0.021183508 -0.01821291 -0.007326087 0.0027712323 -0.0060832393 0.02722164 -0.016815582
-0.02798047 -0.029286616 0.013198524 0.021396568 -0.01298816 0.003274067 0.018407404 0.018670456
-0.0370964 -0.021980584 0.012165453 -0.024140205 0.011497498 -0.022674648 0.025618356 0.0039971257
-0.019594396 -0.018821396 -0.0020931375 0.015885632 -0.00794057 0.022674328 -0.019795464 0.011893396
0.017803328 0.021068664 -0.024441706 -0.013123866 0.015431982 -0.025432924 -0.005254524 -0.008091795
-0.015563007 0.019744521 -0.025109056 -0.012500677 0.01567001 -0.0026931518 -0.025840018 0.0034970809
00000000: 5cd2 413c 6e41 69bc 3ba7 bbbc b6e7 f2bb
00000010: 4683 113c 6c60 c1bc d3bb 063d d827 473c
00000020: 78dd 103c 050c 28bc 8bb5 b13c 3d76 073c
00000030: 0079 70bb 7350 93bc 019f bb3c 48db 663a
00000040: 074b 703c 4519 093a 7e37 43ba 2d5c 9e3c
00000050: 949d 353c 4f20 263c eecf b33b 18d7 c7bc
00000060: c20f 7fbb e1fb 293c 037b f4bc 9e77 6a3b
00000070: ade6 c4bc c7a4 ba3c 0f3d c43b 282c aabc
00000080: d5ad adbc d450 97bc b13b a73b 9bad 5cbc
00000090: 92e8 d33c c15f ccbc f664 133c 2187 04bc
000000a0: 13f8 c9bc 2c47 2b3a 8404 d4bc 498a bbbc
000000b0: 1c84 7abc e018 383c 596f 56bc 2263 53bc
000000c0: 58b4 05bd 0806 09bc e9fe c9bb 06a1 8fbb
000000d0: 77f4 8b3b 8418 0eba b286 92ba b320 b93c
000000e0: a54a fdbc 41c8 d3bc d059 03bb fe71 8bbc
000000f0: 8479 41bc 2264 f0bb 9619 303c 16fe 1d3c
00000100: fbf5 863c efa5 97ba 2eb4 1e3c 82d2 a7bc
00000110: 36a4 e7bc 3128 c23c 83fb 543c 4798 32bc
00000120: 98de abbc 997d 6ebc 017b cbbc 4cd1 f03c
00000130: fde1 a2bc e16b 94bc dcc6 bbbb 52a9 563b
00000140: a58f abbc 2835 343c cf8d 713c 5084 50bb
00000150: b14f b4bc f569 d23b f9ff 493c 50b0 3b3c
00000160: 0584 c13c 27b1 123c 9b12 e7bc 9c61 e43c
00000170: 2a0d 79bc 98c7 cbbc 8521 eebc f116 8cbc
00000180: 19e2 d7bc 2891 c13b 4f00 b3bb f72a 9e3b
00000190: fdda 0dbc 436e 5cbc 2b3e e23b 3fdc 99bb
000001a0: 9788 043d 9f5a 1d3d 451a cabb 9788 f53b
000001b0: 7be2 86bc 2d22 ac3c 4889 a7bc 1f9c 5a3c
000001c0: 1363 213c ac18 0a3d f81c 03bc 35e4 0b3d
000001d0: 7a93 bbbc f283 103c 122d b23a fe98 69bc
000001e0: a1ac 8dbc 706f e73c 3c06 acbc f79c e33b
000001f0: 79b7 953b 52cf b2bc 9aba 24bc 56ea a2bc
00000200: e1ce 733c 6365 053c 354e 673c ca65 9d36
00000210: 69b5 8cbc d7e3 e53c d7df 153c a492 673c
00000220: 7c60 38bc 3e39 273c 5a39 883c 3f42 293b
00000230: 70dd a0bc 7127 c73c 909b 37ba 99bb 4e3c
00000240: 9d65 b13b 1f78 cb3c e363 90bc 2f3e 17bc
00000250: 9b64 ba3b 5990 213d 511b 1e3c 51f6 9cbc
00000260: 1ef7 803c 3289 cfbc 487f dabb 7e12 debc
00000270: 87e0 f8bc 66c0 06bd 862e cfb9 be0f 02bd
00000280: 6db2 b73b 9a77 8f3c 06b6 a1bc 5fd1 04bb
00000290: e7f4 b53c 7daf 7a3b 0945 b23b 0f6b acbc
000002a0: 8b2a 01bd e39f 48bc 6a35 973c a967 83bc
000002b0: d94e 513c 6ed8 993c ec2d 833b b758 94bb
000002c0: 2315 a3ba a9f3 f2bc 3104 c83b 9999 8dbc
000002d0: 0d37 983c 20e3 3c3b 2a5f 1b3c 94c7 c93c
000002e0: be3e 49bb 7f1c f7bb fc65 b8bb c1c3 d4bc
000002f0: 65a1 a6bc ac89 3a3c 4af3 80bc 1f5b 043c
00000300: dd60 2439 b6cf b2bc 0da8 863c 5511 b03c
00000310: d5ff 843c c21d 79bc db93 05bb d6ac ffbc
00000320: 2914 a7bc 3461 53bc 70c7 54bb 5ceb 853c
00000330: efcd 25bc 7150 a83b 4fd6 593c 7289 533c
00000340: fc7d 2fbc 0989 ad3c 3e33 95bc ac0f f0bb
00000350: 909d 353b e955 c7bb ebff de3c d5c0 89bc
00000360: 4c37 e5bc 7cea efbc 9f3e 583c db47 af3c
00000370: 4bcc 54bc bb91 563b 20cb 963c c9f2 983c
00000380: 65f2 17bd a010 b4bc 9c51 473c aec1 c5bc
00000390: 0060 3c3c 2fc0 b9bc 96dd d13c 52fa 823b
000003a0: 6d84 a0bc 542f 9abc 052d 09bb 9622 823c
000003b0: 2a19 02bc 83bf b93c 192a a2bc 85dc 423c
000003c0: 49d8 913c 3198 ac3c f939 c8bc 7c05 57bc
000003d0: 6dd6 7c3c b558 d0bc 242e acbb 7393 04bc
000003e0: fcfb 7ebc 43bf a13c 82b1 cdbc a4cf 4cbc
000003f0: 655e 803c 977f 30bb 72ae d3bc 482f 653b

conv_layer.6.bias f4 [4]
0.01220801 0.035371944 0.0022458434 -0.017965155
00000000: 1b04 483c 2ce2 103d 002f 133b a92b 93bc
