model_latest_sum loss.pt (torch, 22447 bytes, 18 tensors)

conv_layer.weight f4 [8, 1, 3, 3]
0	0x3df3d61f	0.11906075
1	0xbeaea6e6	-0.34111708
2	0x3e15e098	0.14636457
3	0x3e9e8703	0.3096238
4	0xbc53e7e6	-0.012933707
5	0xbd2e05c9	-0.042485986
6	0xbea5dea0	-0.32396412
7	0x3cf57f49	0.02996792
8	0x3d36fc10	0.04467398
9	0x3b74a10d	0.003732744
10	0x3e3fa651	0.18715788
11	0x3e75e029	0.24011292
12	0xbc353bd1	-0.011061625
13	0xbeb1159e	-0.34586805
14	0x3e7a17b2	0.24423102
15	0x3ded57a5	0.115889825
16	0xbc9e5c70	-0.019331187
17	0x3ddc4b3c	0.10756537
18	0xbe0e5362	-0.13898996
19	0xba9a7ee8	-0.0011787089
20	0xbeafd806	-0.343445
21	0x3def5842	0.11686756
22	0x3e34c007	0.17651378
23	0x3e6a2bb9	0.22868241
24	0x3e4f1f54	0.20226794
25	0xbe2fd510	-0.1717112
26	0x3e16fb53	0.1474431
27	0xbdcf081e	-0.1010897
28	0x3e5d2821	0.21597339
29	0xbe310721	-0.17287876
30	0xbea39daa	-0.31956226
31	0xbec88fa8	-0.391721
32	0x3e7bf40f	0.2460482
33	0xbb9061ef	-0.004406206
34	0x3eba50c2	0.36389738
35	0xbc971cb9	-0.018446313
36	0xbe075b38	-0.13218391
37	0xbe428230	-0.18994975
38	0x3dd3e3c5	0.10346178
39	0x3e53cc2a	0.20683351
40	0xbe5d2fdd	-0.2160029
41	0xbe4a2633	-0.19741134
42	0x3c1045fa	0.008805746
43	0xbe343311	-0.17597605
44	0xbe3ec950	-0.18631482
45	0xbe5f604c	-0.21814078
46	0x3d58a0a5	0.052887578
47	0x3e731e85	0.23742111
48	0xbcd8f7a4	-0.026485272
49	0xbe02435f	-0.12721013
50	0xbe472c92	-0.19450596
51	0x3da5da6c	0.08098301
52	0x3e47c129	0.19507279
53	0xbe47d54b	-0.19514959
54	0xbde8f05e	-0.113739714
55	0xbe8a227c	-0.26979434
56	0xbe9ff340	-0.31240273
57	0x3e57d66c	0.21077889
58	0xbddea688	-0.10871607
59	0xbdd9e534	-0.1063942
60	0x3e92f999	0.28706053
61	0xbe9dc435	-0.30813757
62	0x3e72ab3f	0.23698138
63	0xbd33b9cf	-0.043878373
64	0xbe99593b	-0.2995089
65	0xbe224550	-0.15846753
66	0xbdc4b350	-0.09604514
67	0x3e1b4c41	0.15165807
68	0xbdef9dab	-0.11699995
69	0xbe67e939	-0.22647561
70	0x3e8f36e2	0.2797156
71	0xbe1bbb66	-0.15208206

conv_layer.bias f4 [8]
0	0x3e1e46dc	0.15456718
1	0x3eaf8f67	0.34289095
2	0xbde49e7a	-0.111630395
3	0x3d6a83ca	0.05725459
4	0xbe336902	-0.17520526
5	0xbd97c809	-0.074112006
6	0xbd7fa523	-0.062413346
7	0xbd495ec3	-0.049162637

conv_block.0.0.weight f4 [4, 8, 3, 3]
0	0xbd238085	-0.039917488
1	0xbd991da3	-0.07476356
2	0xbdd782cb	-0.10522994
3	0x3d3b297e	0.045693867
4	0xbcba0cec	-0.02271124
5	0x3dd3bc0f	0.10338604
6	0x3d08b54f	0.033376034
7	0xbde44fdf	-0.11148047
8	0x3d1b21d4	0.037874058
9	0xbd957ee8	-0.07299596
10	0x3cafee59	0.021475958
11	0xbdfeb84e	-0.12437497
12	0xbb183e81	-0.0023230615
13	0x3c4b8876	0.012422672
14	0xbcc7bdd6	-0.024382513
15	0xbc30d7ea	-0.010793665
16	0x3db9b73e	0.09068154
17	0x3d6cfe02	0.05785943
18	0x3dab1b1a	0.083547786
19	0x3d9edca1	0.077569254
20	0x3d332f4b	0.043746274
21	0x3c65109f	0.013981014
22	0xbd028f07	-0.031874683
23	0xbd9076e4	-0.070539266
24	0xbca7b7ca	-0.02047338
25	0x3df7effe	0.12106322
26	0xbd81c015	-0.06335465
27	0x3de46382	0.11151792
28	0x3d7518ed	0.059838224
29	0xbe2d573e	-0.16927812
30	0x3cb90571	0.022585602
31	0xbe0b115c	-0.13580841
32	0x3e34ba03	0.17649083
33	0xbd05ea8c	-0.032694384
34	0x3ddbc0e4	0.1073015
35	0xbe08fe3a	-0.1337823
36	0x3c9bdaa1	0.019025149
37	0xbdbb132c	-0.09134516
38	0x3de7fb8d	0.113272764
39	0x3dfc786a	0.12327655
40	0x3d93a7e8	0.0720976
41	0x3db1d74e	0.08683644
42	0xbdc0b92a	-0.09410317
43	0xbdb7d4d3	-0.0897614
44	0x3db9b717	0.09068125
45	0xbcc0d146	-0.02353729
46	0x3cfc60c5	0.030807862
47	0xbce28d4d	-0.027655268
48	0xbdd0ff9a	-0.10205002
49	0xbd4489a6	-0.047982834
50	0xbd2152a5	-0.039385457
51	0x3ddd34dd	0.108010985
52	0xbd344bed	-0.04401772
53	0x3d076c2b	0.03306214
54	0x3d41ad6e	0.047284536
55	0xbdc7508c	-0.0973216
56	0xbd527d63	-0.05138911
57	0xbd88ae6a	-0.06673892
58	0x3cdd9bf8	0.02705191
59	0x3ca5bb90	0.020231038
60	0x3d9081b8	0.07055992
61	0xbdd3d1be	-0.103427395
62	0x3bb2ebfc	0.0054602604
63	0x3db5453b	0.08851095
64	0x3df9da66	0.12199859
65	0xbd2bb658	-0.041921943
66	0xbdbcf605	-0.09226612
67	0x3bfc3cbe	0.0076976707
68	0x3ca6a737	0.020343406
69	0xbbb2fd01	-0.0054622893
70	0xbbad7199	-0.005293083
71	0x3b1e1af6	0.0024124957
72	0xbd731749	-0.05934838
73	0xbc91b66e	-0.017787185
74	0x3e07325e	0.13202807
75	0x3e17978e	0.14803907
76	0xbd4502d0	-0.048098385
77	0xbc212e05	-0.009837632
78	0xbcfb0ca9	-0.030645685
79	0x3e05bcac	0.13060254
80	0xbdafc097	-0.085816555
81	0x3ddf7761	0.109114416
82	0xbadd0b16	-0.0016864266
83	0xbb8515e7	-0.004061449
84	0xbdb282fe	-0.08716391
85	0xbd8dd34f	-0.069250695
86	0x3dd60b82	0.10451414
87	0xbca41af7	-0.02003239
88	0xbd162459	-0.036655758
89	0x3c3fd87a	0.011709327
90	0xbda33c3c	-0.07970473
91	0x3e3a0071	0.18164231
92	0x3b8352e4	0.004007684
93	0xbddbbd24	-0.10729435
94	0x3c2fef0d	0.0107381465
95	0xbd0b2c39	-0.03397772
96	0x3def263a	0.11677213
97	0x3c70817a	0.014679307
98	0x3e55b578	0.20870006
99	0x3dd4fa75	0.103993334
100	0xbe2190db	-0.15777914
101	0xbc038e71	-0.008029566
102	0xbe2fcec2	-0.17168716
103	0x3e5f3891	0.21798922
104	0x3dda4e8e	0.10659514
105	0x3e028593	0.12746267
106	0xbdc9d34e	-0.09854756
107	0xbd32d69c	-0.0436617
108	0x3d343de8	0.04400435
109	0xbd462187	-0.048371818
110	0x3b40a853	0.0029397204
111	0x3ddebb73	0.10875597
112	0xbdb0e5b6	-0.08637564
113	0xbdfc2182	-0.123110786
114	0x3d0689e2	0.03284634
115	0xbdef614a	-0.11688478
116	0x3d73feee	0.05956929
117	0xbc56f7a3	-0.013120565
118	0x3d073191	0.033006255
119	0xbdd65b1f	-0.10466599
120	0x3c9fa96f	0.019489972
121	0x3e12dcb0	0.14341998
122	0x3dbfa3c6	0.09357409
123	0x3cd47b65	0.025937745
124	0x3d44ca4a	0.04804448
125	0xbd68095c	-0.05664955
126	0x3c55efe5	0.013057684
127	0x3e134120	0.14380312
128	0xbd2389a7	-0.039926197
129	0x3dcb5670	0.09928596
130	0x3dc77908	0.09739882
131	0x3d88b793	0.06675639
132	0x3d5ad958	0.05342993
133	0x3dd4d53d	0.103922345
134	0xbdd7ec0d	-0.1054307
135	0xbd0d91f9	-0.03456304
136	0xbcbbdaf1	-0.022931548
137	0xbcd28737	-0.025699241
138	0x3e0ac4cc	0.13551635
139	0xbe0af1b3	-0.13568763
140	0x3d820b90	0.063498616
141	0xbbafcbd7	-0.005364876
142	0x3d739de3	0.059476744
143	0xbc5dffeb	-0.013549785
144	0xbce6985b	-0.02814882
145	0x3d25a8d9	0.04044423
146	0xbdd8e445	-0.10590414
147	0xbcb9cbc1	-0.022680165
148	0xbcdaf755	-0.026729265
149	0xbd2100ad	-0.039307285
150	0x3e055a6f	0.13022779
151	0xbd9dedd1	-0.077113755
152	0xbe03db73	-0.12876682
153	0xbbb92a77	-0.005650814
154	0x3e09790b	0.1342508
155	0x3dcfe229	0.101505585
156	0xbcd186b7	-0.025576932
157	0x3dce019a	0.10058899
158	0xbd3d2686	-0.046179317
159	0x3d87d1ce	0.06631814
160	0xbc2472c5	-0.010037129
161	0x3d6bab62	0.05753649
162	0xbe1190de	-0.14215419
163	0x3d66f684	0.05638744
164	0xbd63f100	-0.055649757
165	0xbe345f5e	-0.17614505
166	0x3e223895	0.15841897
167	0xbc7f689e	-0.0155889075
168	0xbda43e02	-0.080196396
169	0xbdd74997	-0.10512083
170	0x3d3b027d	0.04565667
171	0xbce0bed0	-0.027434736
172	0x3dba90a0	0.09109616
173	0x3d26d887	0.04073384
174	0xbd59ab79	-0.053142045
175	0xbc425dcd	-0.011863184
176	0x3bc6efb6	0.0060710562
177	0xbd33bfd0	-0.0438841
178	0x3dfa7cdc	0.12230846
179	0x3e149212	0.14508846
180	0xbdec4d57	-0.11538189
181	0xbd912d41	-0.070887096
182	0x3dcb1b41	0.09917308
183	0xbc637bbd	-0.013884482
184	0x3dc49834	0.09599343
185	0x3d93e9c2	0.0722232
186	0x3d6665fb	0.0562496
187	0x3d3a1308	0.045428306
188	0x3d3afa31	0.045648757
189	0x3ae924bf	0.001778744
190	0xbb20a08d	-0.0024509758
191	0xbadf1866	-0.0017020821
192	0x3dcd30f5	0.100191034
193	0xbcaa1b98	-0.02076511
194	0x3da69e8c	0.08135709
195	0x3db46859	0.08808965
196	0x3dbea918	0.09309596
197	0xbd35e716	-0.044409834
198	0x3dbac26b	0.091191135
199	0x3d82d0e0	0.06387496
200	0x3c2a225e	0.01038417
201	0xbdc95c7f	-0.09832095
202	0xbb11059e	-0.0022128592
203	0xbdecc0c0	-0.11560202
204	0x3d44d7fc	0.04805754
205	0xbde40fcb	-0.11135825
206	0xbe0635a9	-0.13106407
207	0x3c3ecf82	0.011646153
208	0xbdd01c81	-0.10161687
209	0x3db21c5d	0.08696816
210	0xbbe83dd6	-0.0070874495
211	0xbd5ba91c	-0.053628072
212	0x3db34035	0.08752481
213	0xbde17129	-0.11007912
214	0xbd804378	-0.06262869
215	0x3db56e27	0.088589005
216	0xbc697679	-0.0142494375
217	0xbe074952	-0.13211563
218	0xbd387d7b	-0.045041543
219	0xbda982e2	-0.08276917
220	0x3dfbb2f1	0.1228999
221	0xbd5adf49	-0.053435598
222	0x3e0ebf4f	0.13940166
223	0xbe3bf239	-0.1835412
224	0xbc14c24c	-0.009079527
225	0x3d36fd09	0.044674907
226	0x3dbbb6ec	0.09165749
227	0x3d418f19	0.04725561
228	0x3bff29b7	0.007786955
229	0xbd0f44d9	-0.034977768
230	0x3d84fdc6	0.06493716
231	0x3dab4ea2	0.083646074
232	0x3d6790b5	0.056534488
233	0x3daf0d3b	0.085474454
234	0x3b8273ab	0.003981074
235	0xbd9b2707	-0.07575803
236	0xbdc2ddce	-0.09514962
237	0x3e1885a7	0.14894734
238	0xbdb1eeb2	-0.08688106
239	0x3e32f45b	0.17476027
240	0xbe779d8a	-0.2418119
241	0x3d6d4473	0.057926606
242	0xbda74dad	-0.08169112
243	0xbdaab8d1	-0.08336032
244	0x3c19417a	0.00935399
245	0x3e032e57	0.12810646
246	0xbc73eb25	-0.014887606
247	0xbd3049c3	-0.043039095
248	0xbe6cfccd	-0.23143311
249	0x3dfc6df0	0.123256564
250	0x3db95387	0.09049135
251	0x3ca17b81	0.019712212
252	0xbd74ee4e	-0.059797578
253	0xbb5a2eca	-0.0033292049
254	0xbd3d0793	-0.0461498
255	0xbdc54980	-0.0963316

conv_block.0.0.bias f4 [4]
0	0x3d9e6976	0.07734959
1	0x3df11ac0	0.1177268
2	0xbcbadcf5	-0.022810439
3	0xbd73a13a	-0.05947993

conv_block.1.0.weight f4 [4, 8, 3, 3]
0	0xbd6b1b84	-0.057399288
1	0x3da44485	0.080208816
2	0x3da27736	0.07932894
3	0x3d0c6572	0.034276433
4	0xbddc7006	-0.10763554
5	0x3d95af1e	0.073087916
6	0xbd1e917d	-0.038712967
7	0x3c6f8fa0	0.014621645
8	0xbc08a68d	-0.00834049
9	0xbd24f688	-0.040274173
10	0xbd688448	-0.05676678
11	0x3daafb8f	0.08348762
12	0x3d92e709	0.07172973
13	0xbcf3bc4d	-0.029752875
14	0xbe07602d	-0.13220282
15	0x3d9663b7	0.07343238
16	0x3d2f922c	0.04286401
17	0xbe02432a	-0.12720934
18	0xbc333067	-0.010936833
19	0x3ca0357c	0.019556753
20	0xbdad045b	-0.08448096
21	0x3d301beb	0.042995375
22	0x3e014383	0.1262341
23	0xbc9d8182	-0.019226793
24	0xbd939ab9	-0.072072454
25	0xbb2bf5f4	-0.0026239129
26	0xbe0783db	-0.13233893
27	0xbdcd47fa	-0.10023494
28	0xbce8fbbe	-0.028440353
29	0x3dac9314	0.084264904
30	0xbcebb620	-0.028773367
31	0x3cdc4c14	0.026891746
32	0x3db55e1b	0.0885584
33	0x3d451aaa	0.048121132
34	0xbe0d8183	-0.13818936
35	0xbd89813e	-0.06714104
36	0x3e77d061	0.24200584
37	0xbd903958	-0.070421875
38	0x3e63d460	0.22248983
39	0xba2d8ce5	-0.0006620421
40	0xbc2d18bf	-0.010564982
41	0xbe0faf56	-0.14031729
42	0x3cc3088b	0.023807785
43	0x3c9f0a27	0.01941402
44	0xbd42742f	-0.047474083
45	0xbdb4779f	-0.088118784
46	0xbdc56652	-0.09638657
47	0xbda22e53	-0.07918992
48	0xbe015982	-0.12631801
49	0xbd961888	-0.07328898
50	0xbd1033ad	-0.035205532
51	0xbdb16a8f	-0.086629026
52	0x3bd6a134	0.0065499786
53	0x3dc454b5	0.09586469
54	0xbd893ace	-0.06700669
55	0x3dae5d60	0.085139036
56	0xbc748978	-0.014925353
57	0x3da02ffa	0.07821651
58	0x3bf965d9	0.007611018
59	0xbc9f268d	-0.019427562
60	0x3d5d27aa	0.053992905
61	0xbde66e8c	-0.11251554
62	0x3dd23ee7	0.10265904
63	0x3dda84df	0.106698744
64	0xbdc62a9b	-0.09676095
65	0x3d98dd0f	0.074640386
66	0x3c725ec4	0.014793102
67	0xbd39ca5d	-0.045359004
68	0xbdbf0e5b	-0.0932891
69	0xbd279304	-0.04091169
70	0xbd2bda2f	-0.041956123
71	0xbd4370a0	-0.04771483
72	0xbd413609	-0.047170673
73	0x3dbdc9cc	0.09267005
74	0x3da411f1	0.080112346
75	0xbd84d484	-0.06485847
76	0x3d89bfa9	0.067260094
77	0xbc9f9739	-0.019481288
78	0xbdf1435d	-0.11780427
79	0xbde1e3a4	-0.11029747
80	0xbd8ba671	-0.068188556
81	0x3d0b1b29	0.03396145
82	0x3c71187a	0.014715308
83	0x3d832af2	0.064046755
84	0x3cb69302	0.022286896
85	0x3d7f679b	0.062354665
86	0xbd3e23d5	-0.04642089
87	0x3d78a1d8	0.06070122
88	0x3d45506a	0.048172392
89	0xbd3a9905	-0.045556087
90	0x3d028baf	0.031871494
91	0x3dc35cb0	0.09539163
92	0xbdd79bc9	-0.105277605
93	0x3ddfd380	0.10929012
94	0xbd9c9a52	-0.07646622
95	0xb8c06df3	-9.175753e-05
96	0xbc4cd606	-0.012502199
97	0x3d9cbd34	0.07653275
98	0xbcd0b91c	-0.025478892
99	0xbdae1e44	-0.085018665
100	0x3e579a4e	0.21054956
101	0xbd3248c7	-0.043526437
102	0xbe0adee5	-0.1356159
103	0x3d330525	0.043706078
104	0xbb5e72d4	-0.0033942955
105	0x3decf4ba	0.115701154
106	0x3d4a402d	0.04937761
107	0xbcb34e48	-0.021887913
108	0x3e59bf2c	0.21264333
109	0x3e26d175	0.16290839
110	0xbdb39e05	-0.08770374
111	0xbd9f5205	-0.07779316
112	0xbb9699c8	-0.004595969
113	0x3d5df8d2	0.05419237
114	0xbc04df25	-0.008109842
115	0xbd5601ac	-0.05224769
116	0xbd8b9c80	-0.068169594
117	0xbdd33bc1	-0.103141315
118	0x3dcb3531	0.09922255
119	0x3ce9cf65	0.028541276
120	0xbdc6cff3	-0.09707632
121	0xbdf64530	-0.12024915
122	0xbbccb505	-0.006247165
123	0x3ddabe4e	0.10680829
124	0x3bf853c6	0.007578346
125	0x3dedf845	0.11619619
126	0xbdb0f51b	-0.086405
127	0xbc2a5a4c	-0.010397505
128	0x3be11323	0.0068687364
129	0x3c703323	0.014660629
130	0x3dafa499	0.085763164
131	0xbcbc258f	-0.022967128
132	0xbc52e073	-0.012870896
133	0xbdbf555b	-0.09342452
134	0x3acf437a	0.0015812956
135	0x3b9c165f	0.004763409
136	0xbd9fd95e	-0.078051314
137	0xbcbaad86	-0.02278782
138	0x3da3b6d5	0.07993857
139	0x3b6699b9	0.003518684
140	0xbd9f80f6	-0.07788269
141	0x3dc9dfa6	0.09857111
142	0xbd245e80	-0.040129185
143	0x3dcf7278	0.10129255
144	0x3c88db0f	0.016706018
145	0xbd70bcfb	-0.058773976
146	0xbd169bf6	-0.03676983
147	0x3dd9555b	0.106119834
148	0xbe11caac	-0.1423747
149	0x3cfd71c2	0.030938033
150	0xbd9d362f	-0.0767635
151	0xbc21b563	-0.009869906
152	0x3e097f53	0.13427477
153	0x3d9c241a	0.07624073
154	0x3d437cc4	0.047726408
155	0xbbc61995	-0.00604553
156	0x3e0243bf	0.12721156
157	0x3d875847	0.066086344
158	0xbe3c9a65	-0.18418272
159	0xbcb597e9	-0.022167163
160	0xbdfeb5eb	-0.12437042
161	0x3dc71a70	0.097218394
162	0x3c1ab2b2	0.009442018
163	0xbd66cb40	-0.056346178
164	0xbe119ecd	-0.14220734
165	0x3ce42bbb	0.027852884
166	0xbd9aa270	-0.07550514
167	0x3dbf4ce5	0.09340838
168	0x3defad0e	0.117029294
169	0x3cf5e4fd	0.030016417
170	0x3e139911	0.14413859
171	0xbe238a9d	-0.15970846
172	0x3d39f77f	0.045402046
173	0x3b57d711	0.0032934586
174	0x3d6e3fbc	0.05816625
175	0x3e319119	0.17340507
176	0xbe017215	-0.12641175
177	0x3d874704	0.06605342
178	0x3e35582c	0.17709416
179	0xbe00008d	-0.1250021
180	0x3c3a845e	0.011384098
181	0xbd291391	-0.041278426
182	0x3dabb25d	0.083836295
183	0xbc717a5c	-0.014738645
184	0x3e678c55	0.22612126
185	0xb9c0c570	-0.00036768196
186	0x3e981b49	0.29708317
187	0xbe9af269	-0.3026307
188	0x3d5da16a	0.054109015
189	0xbd9b0388	-0.07569033
190	0xbdb6e935	-0.089311995
191	0xbcc1e4d8	-0.023668692
192	0xbdbad0b1	-0.09121836
193	0xbd948021	-0.07251001
194	0x3e10137e	0.14069936
195	0xbcc6cff9	-0.024269091
196	0x3d0aa8c0	0.03385234
197	0xbe150377	-0.14552103
198	0x3c84c692	0.016207967
199	0x3da5d363	0.080969594
200	0x3df3bf2d	0.11901698
201	0xbd946e96	-0.07247655
202	0x3d2cb26a	0.042162336
203	0xbc3e1b8c	-0.011603247
204	0x3d0340fc	0.032044396
205	0xbd56f2b3	-0.05247755
206	0x3d32d43c	0.043659434
207	0x3dfc0972	0.12306489
208	0xbdbcccde	-0.09218763
209	0x3db9ecc4	0.090783626
210	0xbd45dd2e	-0.048306637
211	0x3d957e01	0.07299424
212	0x3e018a40	0.12650394
213	0xbdcbac83	-0.099450134
214	0xbd480d35	-0.04884072
215	0xbdca9a52	-0.098927155
216	0x3d53fcb0	0.051754653
217	0x3da4097c	0.080096215
218	0xbd98c6e8	-0.07459813
219	0xbdad5113	-0.08462729
220	0xbd5477ab	-0.051871937
221	0x3ca27eb6	0.019835811
222	0x3e086fb2	0.13323858
223	0x3db2995c	0.08720657
224	0x3cdd3d33	0.027006721
225	0xbda32056	-0.07965152
226	0x3d86539a	0.065589145
227	0xbc271183	-0.010197046
228	0x3b885e78	0.004161652
229	0xbd593bc8	-0.053035527
230	0xbcc75254	-0.02433125
231	0xbda08890	-0.07838547
232	0x3d6d94aa	0.058003105
233	0x3cc41ebd	0.023940438
234	0xbdc77774	-0.09739581
235	0xbdbcf37c	-0.092261285
236	0x3dd8bd39	0.10582966
237	0x3c3a822c	0.011383574
238	0x3dc1ff60	0.09472537
239	0xbe0217ce	-0.12704393
240	0xbe1a3da0	-0.1506257
241	0x3d6d3c39	0.05791876
242	0x3d073c3c	0.03301643
243	0xbdb7b927	-0.08970862
244	0xbe45210e	-0.1925089
245	0xbde2a15b	-0.11065932
246	0x3e15b3ec	0.14619416
247	0xbd53076d	-0.051520754
248	0xbc53c66d	-0.012925726
249	0x3d89a8a9	0.067216225
250	0x3d813477	0.06308835
251	0xbd885cd9	-0.06658334
252	0xbd7d4b0e	-0.061839156
253	0x3dc8780e	0.097885236
254	0x3d6a59cb	0.05721454
255	0x3dddc10a	0.10827835

conv_block.1.0.bias f4 [4]
0	0x3c98a61e	0.018633898
1	0xbc2e573b	-0.010640915
2	0xba05499b	-0.00050845154
3	0xbb4a1abe	-0.0030838693

conv_block.2.0.weight f4 [4, 8, 3, 3]
0	0x3d8a7aad	0.0676168
1	0xbdbc17bf	-0.09184217
2	0x3bdb2458	0.006687682
3	0xbc840a93	-0.016118323
4	0x3d60cec7	0.0548847
5	0x3d4a4519	0.049382303
6	0xbdf0b950	-0.117540956
7	0xbc00cc19	-0.007861161
8	0x3d1fbf10	0.03900057
9	0x3d436a7c	0.047708973
10	0x3d4f8e03	0.050672542
11	0x3bbe4413	0.005806455
12	0xbd4e9718	-0.050437063
13	0xbdde86de	-0.108655676
14	0xbc3a106b	-0.011356453
15	0x3de0b7de	0.1097257
16	0x3e258cbc	0.16166967
17	0xbd846337	-0.06464236
18	0x3e2bad0e	0.16765234
19	0x3e2a874d	0.16653176
20	0xbd8bb5bd	-0.06821773
21	0x3e1e8633	0.1548088
22	0xbe0bc4c0	-0.13649273
23	0xbcf3d324	-0.029763766
24	0xbc9684c9	-0.018373864
25	0xbda3aabd	-0.0799155
26	0x3e593e07	0.21215068
27	0x3dc15299	0.094395824
28	0x3dd23676	0.10264294
29	0x3df493e2	0.11942269
30	0xbd6f51cd	-0.05842762
31	0xbc36b7a5	-0.011152183
32	0xbd5a9694	-0.05336626
33	0xbd2698c7	-0.040673044
34	0xbd8400ca	-0.06445463
35	0x3d9d4337	0.07678836
36	0xbbfd931b	-0.0077384836
37	0x3ca81f6e	0.0205228
38	0x3de04cb5	0.10952131
39	0xbd960968	-0.07326013
40	0x3c9d4949	0.019199984
41	0xbd2d3a72	-0.042292066
42	0x3e2349c1	0.15946104
43	0x3e1013ea	0.14070097
44	0x3c5809f8	0.0131859705
45	0xbdbe6743	-0.09297039
46	0x3c89072b	0.01672705
47	0x3cdaf8d0	0.026729971
48	0xbc9bb076	-0.019005042
49	0x3d25297a	0.04032276
50	0xbc627cc1	-0.013823689
51	0xbde717a8	-0.11283809
52	0xbd7cf86e	-0.06176036
53	0x3d64cd30	0.055859745
54	0xbdc08c20	-0.09401727
55	0xbcec0672	-0.028811667
56	0x3d64fa78	0.055902928
57	0xbd0aa684	-0.033850208
58	0x3e3fe60c	0.187401
59	0xbda46d37	-0.080286436
60	0x3e1ff786	0.15621766
61	0x3dcf378c	0.101180166
62	0x3c7a6e49	0.015285083
63	0x3e1a794d	0.15085335
64	0x3e55d680	0.20882607
65	0xbdc73ab9	-0.09727997
66	0x3dcf4157	0.101198845
67	0xbd6cbc3b	-0.057796698
68	0x3c395445	0.011311595
69	0xbb1601f0	-0.0022889338
70	0xbbd6db9a	-0.0065569403
71	0x3d173f16	0.036925398
72	0xbcb0c9e8	-0.021580651
73	0x3e292668	0.16518557
74	0xbd9a0fad	-0.07522521
75	0x3d51a0de	0.051178806
76	0x3e0c9f91	0.13732745
77	0xbc9a02e9	-0.018800216
78	0xbddaccfe	-0.106836304
79	0xbddfabce	-0.10921441
80	0xbe1fea86	-0.15616807
81	0xbe0a1659	-0.13485087
82	0xbd5847eb	-0.05280296
83	0x3d8070f6	0.062715456
84	0xbc083c09	-0.008315095
85	0xba9eeaf4	-0.0012124465
86	0x3db4cd7b	0.08828255
87	0xbca4def9	-0.020125853
88	0x3d881754	0.066450745
89	0xbdcffa3b	-0.101551495
90	0x3e80b57a	0.25138456
91	0x3d8845d2	0.06653942
92	0x3dac5835	0.08415262
93	0x3d00bfb3	0.03143282
94	0xbe28209e	-0.16418692
95	0xbc2c4714	-0.010514993
96	0xbdd42232	-0.10358085
97	0x3c17d167	0.009266234
98	0xbe0fb159	-0.14032497
99	0xbd8b552d	-0.06803355
100	0xbd239d9e	-0.039945237
101	0xbdea82a1	-0.11450697
102	0x3d37d358	0.044879287
103	0x3d057497	0.032581892
104	0xbdb87a24	-0.090076715
105	0x3ab47e85	0.0013770616
106	0x3c877d83	0.01653934
107	0xbc104dbc	-0.008807596
108	0x3d1b66dd	0.037939895
109	0xbe095d64	-0.13414532
110	0xbddbac87	-0.10726266
111	0xbda4b1d8	-0.080417335
112	0x3c265a94	0.010153431
113	0xbd97d551	-0.07413734
114	0x3c31a6b8	0.0108429715
115	0x3d95800f	0.07299816
116	0x3ba85a37	0.0051377076
117	0x3da03d07	0.0782414
118	0x3d939969	0.07206995
119	0xbb3fd48a	-0.002927097
120	0x3d27086f	0.040779527
121	0xbd67d4c4	-0.056599393
122	0xbdcc6925	-0.09980992
123	0x3d15ba21	0.03655446
124	0xbcf32ffe	-0.02968597
125	0xbdd499c0	-0.10380888
126	0xbd9569d1	-0.072955735
127	0xbc8331ea	-0.016015012
128	0x3d8fbc00	0.0701828
129	0x3dac1c68	0.084038556
130	0x3de9242c	0.11383852
131	0x3d923c6f	0.07140433
132	0xbda903ed	-0.08252702
133	0xbdcd9e46	-0.10039954
134	0x3de8801c	0.1135256
135	0xbd97f44a	-0.07419641
136	0xbc2186b6	-0.009858778
137	0x3c42c996	0.011888882
138	0x3cf155c7	0.029459847
139	0x3dbd6730	0.09248197
140	0x3cd3a548	0.025835648
141	0xbde3ecb4	-0.11129132
142	0x3d604847	0.05475643
143	0x3d1a4365	0.03766193
144	0xbb65f465	-0.0035088297
145	0xbd519838	-0.051170558
146	0xbc2b58cf	-0.010458185
147	0xbd0a513a	-0.03376887
148	0x3db3b3f5	0.087745585
149	0x3d5b3993	0.053521704
150	0xbd013d85	-0.03155281
151	0xbdbcbb9e	-0.09215473
152	0xbddf9ac1	-0.10918189
153	0xbe0c4d5a	-0.13701382
154	0xbcbcecd0	-0.02306214
155	0xbd2326d3	-0.039831948
156	0xbda4475c	-0.08021423
157	0xbd0cbff3	-0.034362745
158	0xbe25b403	-0.1618195
159	0xbd4e0225	-0.050295014
160	0x3dddd43a	0.10831495
161	0x3d2ee5aa	0.042699493
162	0xbd64f3d1	-0.055896584
163	0xbd840ca1	-0.06447721
164	0x3e1a9082	0.15094188
165	0xbdbc0ffc	-0.09182736
166	0x3e58e89e	0.21182486
167	0x3e010f1c	0.1260342
168	0xbd582a53	-0.05277474
169	0x3dff829a	0.12476082
170	0x3d756262	0.05990828
171	0xbd8ca0af	-0.068665855
172	0xbc4fbd07	-0.012679345
173	0x3da082ba	0.07837434
174	0xbdc01d6f	-0.09380614
175	0x3d8f9694	0.070111424
176	0x3d43548f	0.047688063
177	0x3d42398a	0.047418155
178	0xbc1a0739	-0.009401136
179	0x3dd3cdb8	0.10341972
180	0x3d0667d4	0.032813862
181	0xbdcbabb7	-0.099448614
182	0xbc7db479	-0.015484923
183	0x3c975467	0.018472863
184	0x3c537e74	0.012908567
185	0xbca1e556	-0.019762676
186	0xbe23e454	-0.16005069
187	0xbe23ca0d	-0.15995045
188	0xbd4eb24f	-0.050463017
189	0x3d882c20	0.06649041
190	0xbd83f941	-0.06444026
191	0xbd48d8db	-0.049034934
192	0x3cee8fe5	0.029121349
193	0x3ccbea70	0.024892062
194	0x3d9bad59	0.07601423
195	0xbd24050a	-0.040043868
196	0x3dac4154	0.08410898
197	0x3ce3162c	0.027720533
198	0xbda11028	-0.0786441
199	0x3ddc1187	0.107455306
200	0xbd2dd08b	-0.04243521
201	0x3e0104d2	0.12599495
202	0xbdae3472	-0.08506097
203	0xbd087238	-0.033312052
204	0x3dca5573	0.098795794
205	0xbdd7e5b5	-0.1054186
206	0x3de5e906	0.11226086
207	0xbddd4d39	-0.10805745
208	0xbca8c657	-0.020602388
209	0x3e27d977	0.1639155
210	0xbcd2f9f3	-0.02575395
211	0x3dc4d79d	0.096114375
212	0xbd819d27	-0.063288026
213	0xbcd8a858	-0.02644746
214	0x3d1c4d7d	0.038159836
215	0xbba46fb3	-0.0050181984
216	0xbe45a859	-0.19302501
217	0xbc709f1c	-0.014686372
218	0xbd711595	-0.058858473
219	0xbe17ea38	-0.14835441
220	0x3dd13c1a	0.102165416
221	0xbd5bd543	-0.05367018
222	0x3d792b0c	0.06083207
223	0xbc8ffb2a	-0.017575819
224	0x3bbae1bd	0.0057031796
225	0x3d0ab315	0.033862192
226	0x3ceeb8f9	0.029140936
227	0x3c7a44ee	0.015275223
228	0xbd8d477c	-0.068984
229	0x3d6195b6	0.055074416
230	0x3d85b66f	0.06528937
231	0x3cf4b676	0.02987216
232	0x3d5e89b6	0.05433055
233	0x3db860d9	0.09002847
234	0x3e4710e0	0.19440031
235	0xbe2f1df0	-0.17101264
236	0x3e023b20	0.12717867
237	0x3dc80195	0.09765927
238	0x3d690877	0.05689284
239	0x3deef5fb	0.11668011
240	0xbcbc3d02	-0.02297831
241	0xbdd0b3b6	-0.10190527
242	0x3d0f4335	0.034976203
243	0xbd9de8af	-0.077103965
244	0x3d375ca3	0.04476608
245	0xbd92d90d	-0.071703054
246	0xbda1a721	-0.078932054
247	0x3cb02473	0.021501755
248	0xbe090c11	-0.13383509
249	0x3e0ae275	0.13562949
250	0xbd76892d	-0.060189415
251	0xbdd668f2	-0.104692355
252	0x3df2e1d7	0.11859482
253	0xbc73fe9c	-0.014892247
254	0x3dc96941	0.09834529
255	0x3e26ab55	0.16276295

conv_block.2.0.bias f4 [4]
0	0xbdb65366	-0.08902626
1	0x3c7141df	0.014725178
2	0xbb84553d	-0.0040384815
3	0xbc9e1ec4	-0.01930178

conv_block.3.0.weight f4 [4, 8, 3, 3]
0	0xbe0ffef8	-0.14062107
1	0xb8e6f31b	-0.000110125366
2	0x3cb189b6	0.021672111
3	0x3dd044fc	0.10169408
4	0x3dae8061	0.0852058
5	0x3d7c6ead	0.061628986
6	0xbe17237e	-0.14759633
7	0xbd33bf3f	-0.04388356
8	0xbe223ca1	-0.1584344
9	0xbcf1d551	-0.029520663
10	0x3c976746	0.018481862
11	0xbd43a579	-0.04776523
12	0xbddb47b6	-0.10707037
13	0xbd84bda6	-0.06481485
14	0xbccd0a29	-0.025029259
15	0x3d601638	0.05470869
16	0xbd73aa13	-0.059488367
17	0x3cac2475	0.021013478
18	0x3de775a4	0.11301735
19	0x3d3fc4cb	0.046818536
20	0xbda3c1b3	-0.079959296
21	0x3e129999	0.14316405
22	0x3e1f9726	0.15585002
23	0x3d144f06	0.036208175
24	0x3d3bf73f	0.04589009
25	0x3e178a10	0.1479876
26	0x3d19da65	0.037561793
27	0x3e3047a8	0.17214835
28	0xbe2a66c3	-0.16640763
29	0xbc93449b	-0.01797705
30	0xbd70aa7d	-0.05875634
31	0xbdf6eb5f	-0.12056612
32	0xba672d03	-0.0008818658
33	0xbd7916bd	-0.0608127
34	0x3d8ad1c7	0.06778293
35	0xbe107e7f	-0.14110754
36	0x3de59863	0.11210706
37	0x3c87d9f3	0.016583418
38	0x3d6f05a9	0.058355007
39	0xbced1bc7	-0.02894391
40	0x3d135102	0.035965927
41	0xbd60608b	-0.05477957
42	0x3c5d8a44	0.013521735
43	0x3db62f2d	0.08895717
44	0xbd1b9960	-0.037988067
45	0xbd65e1cb	-0.056123536
46	0xbc0f3d37	-0.008742622
47	0x3d0a8324	0.03381647
48	0x3d7250c1	0.059159044
49	0xbe32d49f	-0.17463921
50	0xbe8b3a3d	-0.2719287
51	0xbd672b68	-0.05643788
52	0xbdfc5a1c	-0.123218745
53	0xb9cf5a93	-0.000395496
54	0xbdd0f6ae	-0.102033004
55	0x3d9d3beb	0.07677444
56	0x3d0415b4	0.03224726
57	0xbd54d629	-0.05196205
58	0xbddd7ee1	-0.10815216
59	0x3df589e8	0.11989194
60	0xbd3aabc5	-0.04557397
61	0x3d53e901	0.05173588
62	0xbbbfb771	-0.0058507253
63	0xbc49038c	-0.012268912
64	0x3d392f08	0.045210868
65	0xbd8330d9	-0.06405801
66	0x3ccd0139	0.025024997
67	0xbd424911	-0.047432963
68	0x3d760350	0.060061753
69	0x3d687243	0.056749593
70	0xbdbf4409	-0.093391486
71	0x3c0d8a66	0.008638954
72	0x3d87738b	0.06613835
73	0x3e2e42d3	0.17017679
74	0xbc6c4f11	-0.014423148
75	0xbe75fd48	-0.240224
76	0xbd0525e6	-0.032506846
77	0xbc96b957	-0.018398924
78	0xbe0f4f4e	-0.13995096
79	0x3e98dc18	0.29855418
80	0xbe5c4b8a	-0.21513191
81	0xbdd48eba	-0.103787854
82	0x3e0cb228	0.13739836
83	0x3c79e447	0.0152521795
84	0x3c852d55	0.016256968
85	0xbd0b967e	-0.034079067
86	0xbd0b0334	-0.0339386
87	0x3cc8b942	0.0245024
88	0xbdcc83ec	-0.099860996
89	0xbd4bcbfa	-0.049755074
90	0xbdda39c8	-0.10655552
91	0xbab685ae	-0.0013925338
92	0xbd28fd7e	-0.041257374
93	0xbc3b30d7	-0.011425219
94	0xbc9341a0	-0.017975628
95	0xbe7e357e	-0.24825093
96	0x3df18855	0.117935814
97	0xbe851628	-0.25993466
98	0xbdad8331	-0.084722884
99	0x3daa9811	0.083297856
100	0x3d61334a	0.054980554
101	0xbce7e442	-0.028307084
102	0x3d5d2042	0.05398584
103	0xbe0a7233	-0.13520126
104	0xbe014575	-0.12624152
105	0x3d83c1c6	0.06433444
106	0x3c1a5fe5	0.009422277
107	0x3d8b4bb1	0.06801546
108	0xbe065048	-0.13116562
109	0xbd9dc75c	-0.077040404
110	0x3d0e9856	0.034813248
111	0xbba560ea	-0.0050469534
112	0x3d5d67dd	0.05405413
113	0xbe00462c	-0.12526768
114	0x3dd62cd2	0.104577675
115	0x3c1822de	0.009285657
116	0xbdd35fdc	-0.10321018
117	0xbcb48fdb	-0.022041252
118	0xbe46b664	-0.19405514
119	0xbd98a636	-0.07453577
120	0xbdc49f6d	-0.096007206
121	0x3d4dda22	0.050256856
122	0x3e056695	0.13027413
123	0x3a477826	0.0007609151
124	0xbd4fa1f9	-0.05069158
125	0x3dc9e647	0.09858375
126	0x3b66c331	0.0035211558
127	0xbd124f96	-0.03572043
128	0x3cf35a24	0.029706068
129	0xbcfe54f1	-0.031046363
130	0xbd89186a	-0.0669411
131	0xbd8bd6b2	-0.06828059
132	0x3c58e36a	0.0132378135
133	0x3d9084a1	0.07056547
134	0xbd38c7a6	-0.045112275
135	0x3d26cfbc	0.040725455
136	0xbdaba028	-0.08380157
137	0x3df3b052	0.11898865
138	0xbcebd77c	-0.028789274
139	0x3e1ceec0	0.15325451
140	0x3e4eda05	0.20200355
141	0xbd89133a	-0.0669312
142	0xbbdb777d	-0.0066975937
143	0xbd665667	-0.056234743
144	0x3e47c884	0.19510084
145	0xbc52c5fe	-0.012864588
146	0x3dcf7d90	0.10131371
147	0x3e12afee	0.14324924
148	0x3b9f3b25	0.0048593455
149	0x3e228feb	0.15875213
150	0xbb97b783	-0.0046300306
151	0x3c2d3ecf	0.010574057
152	0xbde90903	-0.11378672
153	0xbd278c94	-0.04090555
154	0x3dbdf91c	0.092760295
155	0xbd98ebbc	-0.07466838
156	0x3c872132	0.016495321
157	0x3d7a7483	0.06114627
158	0xbd7378db	-0.05944143
159	0xbdab4a94	-0.08363834
160	0x3d559842	0.052147157
161	0xbd267a04	-0.040643707
162	0xbdc40a61	-0.09572292
163	0x3e36fb22	0.17869237
164	0xbe132449	-0.1436931
165	0x3c89dff3	0.01683042
166	0x3d876b18	0.066122234
167	0xbd46afd5	-0.04850753
168	0x3def341d	0.11679862
169	0x3cb53f99	0.022125052
170	0xbe4395d8	-0.1910013
171	0x3c67ac02	0.014140131
172	0x3e4de18d	0.20105572
173	0xbe1a5f82	-0.15075496
174	0x3d81afdc	0.06332371
175	0xbd70e054	-0.058807686
176	0x3c5268be	0.012842355
177	0x3df257f1	0.1183318
178	0xbe27fde7	-0.1640545
179	0xbcbde9dc	-0.023182802
180	0xbd76d873	-0.060265016
181	0xbcfff91c	-0.031246714
182	0x3c168021	0.009185822
183	0xbc1721f8	-0.009224407
184	0xbc291911	-0.010320918
185	0x3d7b30d7	0.061325874
186	0x3daaab20	0.08333421
187	0xbe0a5020	-0.13507128
188	0x3d477ab1	0.048700992
189	0x3d861b4b	0.065481745
190	0xbdf3cf0b	-0.11904725
191	0x3dcf23c1	0.101142414
192	0xbdca4b77	-0.09877675
193	0x3d7465e6	0.05966749
194	0xbdb16e04	-0.08663562
195	0x3d382c2d	0.044964004
196	0xbdd4a9f5	-0.10383979
197	0x3d3749dc	0.044748172
198	0x3da80ce3	0.08205583
199	0xbe32a41c	-0.17445415
200	0xbe0430e3	-0.12909274
201	0xbd677c68	-0.056515127
202	0xbe2f2358	-0.17103326
203	0x3bba413d	0.0056840465
204	0xbdfd2365	-0.123602666
205	0xbe1b7ea2	-0.15185025
206	0x3df67881	0.12034703
207	0x3d35f18b	0.044419806
208	0xbd2f6226	-0.04281821
209	0x3e16b80d	0.14718647
210	0xbdcebb58	-0.10094327
211	0xbca62a76	-0.020283919
212	0x3e2d416c	0.16919488
213	0xbe4a120f	-0.19733451
214	0x3d6bf923	0.057610642
215	0xbdef74cd	-0.116922
216	0xbdd913ca	-0.105994776
217	0x3ca84daa	0.020544846
218	0x3e3c7723	0.18404822
219	0x3e27fb8c	0.16404551
220	0x3cce89e9	0.025212245
221	0xbcc23a3d	-0.02370941
222	0x3d26faf1	0.04076666
223	0xbe76a45b	-0.24086134
224	0x3b0d716e	0.0021582502
225	0x3dd5e850	0.10444701
226	0xbdaaa557	-0.08332317
227	0xbdcd5791	-0.100264676
228	0xbcda2ba4	-0.026632138
229	0xbbbbbcbb	-0.0057292855
230	0x3e1ff0f0	0.15619254
231	0x3c070187	0.00824011
232	0xbd438167	-0.04773083
233	0x3de0ef74	0.10983172
234	0x3e0dbb42	0.13840964
235	0x3dac87c6	0.08424334
236	0x3db6cf33	0.08926239
237	0x3d7d29bc	0.06180738
238	0x3d7c6104	0.06161596
239	0x3b884455	0.0041585364
240	0x3e1a9173	0.15094547
241	0x3df68087	0.120362334
242	0x3db670a8	0.08908206
243	0x3d45f86c	0.048332617
244	0x3cbf75f6	0.023371678
245	0x3d5a818a	0.053346194
246	0xbbc33f19	-0.0059584496
247	0xbe24c194	-0.16089469
248	0x3cf8b269	0.03035851
249	0x3a74dea3	0.0009341037
250	0x3df67f41	0.120359905
251	0x3d44387c	0.04790543
252	0xbdd3f094	-0.10348621
253	0xbdc4bf43	-0.09606793
254	0xbdb35d33	-0.08758011
255	0x3d0fc33a	0.035098292

conv_block.3.0.bias f4 [4]
0	0x3b6cac9d	0.0036113628
1	0x3cc73351	0.024316462
2	0x3d31f84e	0.043449692
3	0xbc3077ad	-0.01077072

conv_block.4.0.weight f4 [4, 8, 3, 3]
0	0x3dc16fa8	0.09445125
1	0xbd07fef5	-0.03320213
2	0xbdcdd58d	-0.10050497
3	0x3da4e7b3	0.080520056
4	0x3d0c2fd9	0.03422532
5	0xbda39def	-0.07989108
6	0xbcbe1256	-0.023202103
7	0x3d9c1265	0.07620696
8	0xbe1e9bf5	-0.1548918
9	0xbe028a3d	-0.12748046
10	0xbd835d34	-0.064142615
11	0xbd70af3b	-0.058760863
12	0x3d90969f	0.07059979
13	0xbc974328	-0.01846464
14	0xbd96950f	-0.073526494
15	0x3d9d29f9	0.07674021
16	0xbe390e58	-0.18071878
17	0x3deb7370	0.11496627
18	0x3c6822aa	0.014168421
19	0x3d0fe56e	0.03513091
20	0xbdb2fbdc	-0.087394446
21	0xbdb18dbd	-0.086696126
22	0xbd2d553e	-0.04231762
23	0xbddbc155	-0.107302345
24	0xbddf7e20	-0.10912728
25	0xbd8b2f9b	-0.067961894
26	0x3d0a37ea	0.03374473
27	0x3d7ccf41	0.06172109
28	0xbcb3bb0d	-0.021939779
29	0xbd699124	-0.057023183
30	0xbe068db7	-0.13139997
31	0xbcaaade1	-0.020834865
32	0xbe06bf89	-0.13159002
33	0xbe539d5c	-0.20665497
34	0x3d76a655	0.06021722
35	0xbe1dd1b8	-0.15412033
36	0x3db6ee3f	0.089321606
37	0x3c08057e	0.008302091
38	0x3e4f522a	0.20246187
39	0x3e20ffca	0.15722576
40	0x3de71efd	0.112852074
41	0x3e0419ae	0.12900421
42	0x3ca84a32	0.020543192
43	0xbd08cebe	-0.03340029
44	0x3d6deac1	0.058085207
45	0x3d8a6a7c	0.067585915
46	0xbe9ed589	-0.3102229
47	0xbe0a2af7	-0.13492952
48	0xbe09d819	-0.13461341
49	0xbe2cdec8	-0.1688186
50	0xbd94fb03	-0.07274439
51	0xbe938f60	-0.28820324
52	0xbdabf3ce	-0.083961114
53	0xbe2d4dc8	-0.16924202
54	0x3d91a08c	0.071107
55	0xbe51eb35	-0.2049988
56	0xbdc03e5e	-0.093868956
57	0x3e9cf2d4	0.30654013
58	0xbe2c1c54	-0.16807681
59	0x3cfa8eac	0.03058561
60	0xbe8693a5	-0.2628452
61	0x3d11228c	0.035433337
62	0xbc2c60e2	-0.010521146
63	0x3dbb741b	0.09153005
64	0x3ab38fa4	0.0013699424
65	0xbd346cae	-0.044048958
66	0x3de59db5	0.11211721
67	0xbda89eb3	-0.082333945
68	0x3d69c6c7	0.057074334
69	0xbd4ca847	-0.04996517
70	0xbd822b43	-0.06355908
71	0x3df664aa	0.12030919
72	0xbd8dc98c	-0.06923208
73	0xbd8360fe	-0.06414984
74	0x3e3f2c4d	0.18669243
75	0x3d6e6e33	0.058210563
76	0x3e0e1a2e	0.13877174
77	0xbc21503c	-0.0098457895
78	0xbdb11229	-0.08646042
79	0x3cfc2b38	0.030782327
80	0x3dec2b6a	0.11531718
81	0xbd258eb1	-0.040419284
82	0xbc8e1ea8	-0.017348602
83	0x3caaf296	0.020867627
84	0x3d562b32	0.052287288
85	0xbdce0496	-0.100594684
86	0xbd09ba50	-0.033624947
87	0x3da70bbe	0.081565365
88	0xbd9746af	-0.07386529
89	0x3dae8555	0.08521525
90	0x3d44f8a5	0.04808869
91	0x3e101c18	0.14073217
92	0xbda32a86	-0.07967095
93	0xbd62835e	-0.055301063
94	0x3cfbe842	0.030750398
95	0xbc1f6234	-0.009728003
96	0x3dcee0c7	0.101014666
97	0x3d2dd190	0.042436182
98	0xbd6cc48e	-0.057804637
99	0x3de64f31	0.11245573
100	0x3c1bd7a7	0.009511865
101	0x3e3cb46e	0.18428203
102	0x3d7a4352	0.061099358
103	0xbda12664	-0.078686506
104	0xbdebb042	-0.11508228
105	0x3e06bd25	0.1315809
106	0xbdfd61ec	-0.12372193
107	0x3c5c818d	0.013458622
108	0xbe127c4d	-0.1430523
109	0xbd341206	-0.0439625
110	0xbde052ae	-0.1095327
111	0xbdc3f7ec	-0.09568772
112	0xbcc0c68e	-0.023532178
113	0xbda2d391	-0.07950509
114	0xbc22640b	-0.009911547
115	0xbe0ae922	-0.13565496
116	0xbe12efef	-0.1434934
117	0x3d6b7439	0.057483885
118	0x3e457eff	0.19286726
119	0x3dd588bd	0.104264714
120	0x3e2193a5	0.15778978
121	0xbcf57e41	-0.02996743
122	0x3dcda95d	0.10042069
123	0xbc5b9744	-0.013402764
124	0x3dc1ed0e	0.09469043
125	0x3e421381	0.18952753
126	0x3df1bb8c	0.1180335
127	0xbdce4a41	-0.100727566
128	0x3cac8284	0.021058328
129	0x3ea918be	0.3302669
130	0x3e34dc9e	0.17662284
131	0x3e3b8364	0.1831184
132	0x3ad60a36	0.0016329947
133	0xbe410829	-0.18850769
134	0xbe8f665e	-0.28007787
135	0xbd1c496c	-0.038155958
136	0xbd970e6b	-0.07375797
137	0x3d2238fb	0.039605122
138	0x3e0fa5d5	0.14028104
139	0xbcaca51b	-0.021074822
140	0x3c83ce7e	0.016089674
141	0xbcfc5b07	-0.030805124
142	0xbd7901b8	-0.060792655
143	0xbdd1f5bf	-0.102519505
144	0x38d828ca	0.0001030728
145	0xbe062514	-0.13100082
146	0x3bb524d7	0.0055280733
147	0x3c44dea7	0.012015975
148	0x3d5ff6f7	0.054678883
149	0x3b4d7dfd	0.0031355612
150	0x3d8e9ef2	0.0696391
151	0x3d2c6a46	0.042093538
152	0x3de9f6e3	0.11424043
153	0xbe0776fd	-0.13228984
154	0xbda5a7b8	-0.080886304
155	0xbd7f42a6	-0.06231942
156	0x3daec20d	0.08533106
157	0xbd9af804	-0.075668365
158	0x3d40d10b	0.04707436
159	0x3d8b7f34	0.068113714
160	0x3c3be9f1	0.01146935
161	0xbdf3ad8b	-0.11898335
162	0xbdd51bef	-0.104057185
163	0x3dcc1fe6	0.09967022
164	0x3c100ac2	0.008791627
165	0xbdb378b6	-0.08763258
166	0x3bd44f1b	0.0064791567
167	0x3da2c693	0.07948031
168	0x3d4fd331	0.050738517
169	0xbdc860a4	-0.09784058
170	0xbdcda402	-0.10041048
171	0x3d9ca1d1	0.076480515
172	0xbcb4b717	-0.02205996
173	0x3c2ac9fc	0.010424133
174	0xbd737c4d	-0.059444714
175	0x3d2d0034	0.04223652
176	0xbc5026c0	-0.012704551
177	0x3dab4968	0.083636105
178	0xbc3667d2	-0.011133151
179	0xbd502b88	-0.050822765
180	0xbe61977d	-0.22030444
181	0x3df0d333	0.11759033
182	0xbe168777	-0.14700113
183	0xbbeb9208	-0.007189039
184	0xbd0e2288	-0.0347009
185	0xbd9e3914	-0.077257305
186	0xbd37bfbd	-0.04486059
187	0xbdd617fd	-0.10453794
188	0x3d27301f	0.040817376
189	0x3d4f613a	0.05062983
190	0xbd92c137	-0.07165759
191	0x3cff47ea	0.031162221
192	0xbd666494	-0.056248263
193	0x3d0a082c	0.0336992
194	0xbd0c94e2	-0.034321673
195	0x3dd77bd2	0.10521664
196	0xbd2f9940	-0.04287076
197	0x3d16a57b	0.03677891
198	0x3d3a9a1a	0.04555712
199	0x3e5ca068	0.21545565
200	0xbdc157df	-0.09440588
201	0x3ddf76f4	0.109113604
202	0x3e9a90e6	0.30188674
203	0x3d34b132	0.0441143
204	0x3e57c0b6	0.21069607
205	0xbe1a48a5	-0.15066774
206	0xbe11542c	-0.14192265
207	0xbd3706d7	-0.044684257
208	0x3d987497	0.07444113
209	0x3c280c42	0.010256829
210	0xbd7d48e2	-0.061837085
211	0xbd9ce200	-0.076602936
212	0xbde6398e	-0.112414464
213	0x3dba0c6b	0.090844
214	0xbd39c558	-0.045354217
215	0x3d702cb2	0.058636375
216	0x3dc2d6c4	0.095136195
217	0xbdfbbeaa	-0.12292226
218	0xbe0b879f	-0.13625954
219	0xbe11117e	-0.14166829
220	0xbd5a6f3c	-0.053328738
221	0xbe175edf	-0.14782284
222	0xbdf7955f	-0.12089037
223	0xbdf25d40	-0.11834192
224	0xbe12aa3f	-0.14322756
225	0xbd53a712	-0.051673003
226	0xbda002e2	-0.0781305
227	0x3d1fc4f1	0.039006177
228	0x3d3cfad0	0.04613763
229	0x3d0221fc	0.03177069
230	0x3d6e512c	0.05818288
231	0xbd3cb9de	-0.046075694
232	0xbd9cd5ae	-0.07657944
233	0xbd7fbd4d	-0.06243639
234	0xbdd57310	-0.10422337
235	0x3d575019	0.05256662
236	0xbd415831	-0.047203247
237	0x3d8f2a27	0.06990462
238	0xbe063584	-0.13106352
239	0xbdc72cd7	-0.097253494
240	0x3d66d391	0.05635411
241	0xbde6d652	-0.11271347
242	0xbd5edfec	-0.054412767
243	0xbe3e39dd	-0.1857676
244	0xbe275d25	-0.16344126
245	0xbec3d02c	-0.3824476
246	0xbe8868ae	-0.26642364
247	0x3e324c81	0.17411996
248	0xbdba2981	-0.090899475
249	0xbe3a1c61	-0.18174888
250	0x3e1ae70e	0.15127203
251	0xbd8b05b7	-0.067881994
252	0x3d7400de	0.05957114
253	0x3d7f251b	0.062291246
254	0x3e0f138f	0.13972305
255	0x3e66bfbf	0.22534083

conv_block.4.0.bias f4 [4]
0	0x3d1e2714	0.038611487
1	0xbc55652c	-0.01302461
2	0x3b4aa51b	0.0030921164
3	0x3d2aad53	0.0416692

conv_block.5.0.weight f4 [4, 8, 3, 3]
0	0xbc33c034	-0.010971118
1	0x3d152f23	0.036421906
2	0xbd29c85a	-0.041450836
3	0xbdca22b2	-0.09869899
4	0xbd704869	-0.058662806
5	0xbdbbed1a	-0.09176083
6	0x3ccec3b3	0.025239801
7	0xbd5c70a9	-0.05381838
8	0xbdf98238	-0.121830404
9	0xbd429b95	-0.047511656
10	0x3d0ca4fb	0.034337025
11	0xbe3ac16d	-0.18237849
12	0xbdbd41b4	-0.092410475
13	0xbe1e542c	-0.15461797
14	0xb9e5dfcd	-0.00043845028
15	0xbe14b056	-0.14520392
16	0xbc71a2de	-0.014748303
17	0xbd130455	-0.035892803
18	0xbdb2980e	-0.087204084
19	0x3d87c8a7	0.06630068
20	0x3cc11381	0.02356887
21	0xbdc07290	-0.09396851
22	0x3d12184d	0.035667706
23	0x3d95356a	0.072855785
24	0x3d7f83d5	0.062381584
25	0x3dc51b2d	0.09624324
26	0x3c0178b0	0.007902309
27	0xbda5ddc6	-0.080989406
28	0xbd9a1788	-0.075240195
29	0x3dabb1a6	0.08383493
30	0xbca99d98	-0.02070503
31	0x3d8f27e8	0.069900334
32	0x3bb43baf	0.005500279
33	0xbd0e900f	-0.034805354
34	0x3dd87ad7	0.10570305
35	0x3db95c3e	0.09050797
36	0x3df36b84	0.11885741
37	0xbe01b9b8	-0.12668502
38	0x3dd3d8f8	0.10344118
39	0x3d4e8366	0.05041828
40	0xbe3ff4b2	-0.18745688
41	0x3dd27c94	0.10277668
42	0xbe810238	-0.25197005
43	0x3edd1e70	0.43187284
44	0xbdec5c14	-0.11541
45	0xbd815490	-0.06314957
46	0xbcaa102f	-0.02075967
47	0xbdecd891	-0.11564744
48	0xbcc42500	-0.023943424
49	0x3dbcdfcb	0.092223726
50	0xbd94c877	-0.07264798
51	0xbda9afb9	-0.082854696
52	0xbc8d99eb	-0.017285308
53	0xbd61c43f	-0.055118795
54	0xbdb4edc8	-0.08834416
55	0x3d9483e9	0.07251722
56	0x3c3effb8	0.011657648
57	0x3dba124c	0.09085521
58	0xbc93cca0	-0.018041909
59	0x3dc1977f	0.09452724
60	0x3dea74b5	0.11448041
61	0xbdbc9369	-0.09207804
62	0xbd119116	-0.035538755
63	0xbdd4498e	-0.10365592
64	0xbbd9f319	-0.006651294
65	0x3da03d68	0.07824212
66	0xbcbd8efa	-0.023139466
67	0xbe1c9617	-0.1529163
68	0x3e3c4be4	0.18388325
69	0x3cdea993	0.027180469
70	0xbde0611d	-0.10956023
71	0x3e4f8749	0.20266451
72	0x3ca12c46	0.019674432
73	0xbc14ca2c	-0.009081405
74	0x3dfa8035	0.12231485
75	0xbc9b113b	-0.018929115
76	0xbdcf4c52	-0.10121979
77	0xbde0ac0e	-0.10970317
78	0x3dd211fa	0.10257335
79	0x3d863d14	0.065546185
80	0x3c664e10	0.0140566975
81	0xbd1f3525	-0.038869042
82	0x3e026f73	0.12737827
83	0xbd1e6b31	-0.038676444
84	0x3e12750a	0.1430246
85	0x3e03ac1b	0.12858622
86	0xbcb96e89	-0.022635715
87	0x3da66bdd	0.08126042
88	0x3de88a2c	0.11354479
89	0x3e5647c7	0.20925818
90	0xbcce8b49	-0.0252129
91	0x3d6f253c	0.05838512
92	0xbd27b2b0	-0.040941894
93	0x3d18cc7b	0.037304383
94	0x3d470b93	0.048595022
95	0xbd77a126	-0.060456418
96	0xbd86a12b	-0.06573709
97	0x3dd7e33f	0.10541391
98	0xbd588d53	-0.052869152
99	0x3df35925	0.11882237
100	0x3d130fba	0.03590367
101	0x3c8501a3	0.016236132
102	0xbdb589b7	-0.08864158
103	0x3dc3b2e5	0.09555606
104	0xbdd21eff	-0.10259818
105	0x3c9a6456	0.018846672
106	0x3d146e7f	0.03623819
107	0xbd6118bb	-0.054955225
108	0x3eb11422	0.34585673
109	0x3da227fd	0.079177834
110	0x3e5644bd	0.20924659
111	0x3ee98be0	0.4561453
112	0xbc1a5b01	-0.009421111
113	0x3e0a67da	0.13516179
114	0x3d0f6563	0.0350088
115	0x3ebd31db	0.369521
116	0xbd150b84	-0.036387935
117	0xbd8939c4	-0.06700471
118	0x3d7f26e5	0.062292952
119	0x3db7b0ec	0.08969292
120	0x3d7c567e	0.061605923
121	0xbd569610	-0.052389205
122	0xbd9b20b2	-0.075745955
123	0xbd141d7a	-0.036160924
124	0x3d2e75ac	0.04259269
125	0x3ddf091e	0.10890411
126	0x3d9b06fc	0.075696915
127	0xbcfeef97	-0.031120105
128	0x3da71408	0.081581175
129	0x3c80a70f	0.01570466
130	0xbd8aa4cf	-0.06769716
131	0xbd652a43	-0.055948507
132	0x3e097647	0.13424025
133	0x3d54c662	0.051947005
134	0x3de109cc	0.10988197
135	0x3cdec317	0.027192635
136	0x3e6c6ea4	0.23089081
137	0x3cdd44ff	0.027010439
138	0x3eb3dede	0.35130972
139	0xbe081af4	-0.13291532
140	0x3e8a2a20	0.26985264
141	0x3dffa549	0.124826975
142	0x3dc2f998	0.095202625
143	0x3e6532cf	0.22382663
144	0xbdd045c5	-0.101695575
145	0xbdb5ade3	-0.08871057
146	0xbdc4eaff	-0.096151344
147	0xbdf2ebfa	-0.11861415
148	0x3dc26e36	0.09493677
149	0xbdb4bfa4	-0.08825615
150	0xbd1ddf37	-0.038542952
151	0x3c174563	0.009232852
152	0xbd336d68	-0.04380551
153	0x3cd5dd03	0.026106363
154	0xbe1aedcc	-0.15129775
155	0xbcc70a8c	-0.024297021
156	0x3d8c4b2f	0.06850278
157	0xbd1910f8	-0.0373697
158	0x3e0e6095	0.1390403
159	0xbd2b6bf1	-0.041850988
160	0xbe0b0bd7	-0.13578735
161	0x3e084066	0.13305816
162	0xbc766942	-0.015039744
163	0xbd803b97	-0.06261366
164	0xbd4fc5f3	-0.05072589
165	0x3bf29400	0.007402897
166	0xbd990e8f	-0.0747348
167	0x3d62f952	0.05541355
168	0xbd764885	-0.060127754
169	0xbd9d53e1	-0.07682014
170	0xbda01bfa	-0.07817836
171	0x3db04f62	0.08608891
172	0xbdee2c55	-0.116295494
173	0xbd22cb99	-0.039744947
174	0xbd695a68	-0.056970984
175	0x3d324eed	0.0435323
176	0x3d536579	0.051610444
177	0xbdbf520c	-0.09341821
178	0xbdda6556	-0.106638595
179	0xbcadb0c3	-0.02120245
180	0xbd900fba	-0.070342496
181	0x3e57767d	0.21041293
182	0x3d8cbdf8	0.06872171
183	0x3d9da98b	0.076983534
184	0x3e1b3083	0.15155225
185	0x3d13a6c6	0.03604772
186	0xbdad8025	-0.08471707
187	0x3ded68f4	0.11592284
188	0x3cc8eb32	0.024526212
189	0x3d875c6e	0.066094264
190	0xbdff5e5e	-0.12469171
191	0x3d2023f6	0.039096795
192	0x3d276c2a	0.040874638
193	0xbd02c735	-0.03192826
194	0xbd00df57	-0.031462993
195	0x3dbc2500	0.09186745
196	0x3d93dec8	0.072202265
197	0x3dbf96f5	0.09354965
198	0x3d839600	0.064250946
199	0x3d99693b	0.07490774
200	0xbd4f8fba	-0.050674178
201	0x3c0a033f	0.0084236255
202	0x3dafe7a2	0.08589102
203	0x3d848495	0.064706005
204	0x3df19974	0.11796847
205	0x3d72e284	0.059298053
206	0xbd17531e	-0.0369445
207	0xbc82a772	-0.015948985
208	0xbe03c5ba	-0.12868395
209	0x3de5b456	0.11216037
210	0xbdd7acd6	-0.10531013
211	0x3cd2b038	0.025718793
212	0x3d046fd6	0.032333218
213	0x3d1b1ba7	0.03786817
214	0xbd6fecc1	-0.058575395
215	0x3d921c15	0.071342625
216	0x3dfa8464	0.12232283
217	0x3dc18b53	0.09450402
218	0x3d1c0b7a	0.038096882
219	0x3abbad75	0.0014318662
220	0x3d12e4fa	0.0358629
221	0x3db921be	0.09039639
222	0x3db5a35b	0.08869048
223	0xbde79443	-0.113075756
224	0xbd141d6f	-0.036160883
225	0x3cc9c5e2	0.02463049
226	0x3da31667	0.07963257
227	0x3cde3e9b	0.027129462
228	0xbd9e5456	-0.077309296
229	0xbcd3e9fc	-0.025868408
230	0x3d98de79	0.07464308
231	0xbda39019	-0.07986469
232	0xbd7bd5cf	-0.0614832
233	0xbda92342	-0.08258678
234	0xbd4121e9	-0.04715148
235	0x3c8b1328	0.016976908
236	0x3d375883	0.044762146
237	0xbe024d3a	-0.12724772
238	0xbc6b565b	-0.0143638505
239	0xbd6e43dd	-0.05817019
240	0x3e0a9bc9	0.1353599
241	0x3dd3d5e2	0.10343529
242	0xbbc5ddb7	-0.0060383934
243	0xbd275b6d	-0.040858675
244	0x3dfdc68b	0.12391385
245	0x3d307ee2	0.043089755
246	0x3c8a3528	0.01687105
247	0x3cc855b4	0.024454929
248	0xbd946340	-0.07245493
249	0xbdd055a6	-0.10172586
250	0x3dbc04b5	0.09180585
251	0x3d3683bf	0.044559237
252	0xbc99ab66	-0.018758487
253	0xbe21601c	-0.15759319
254	0x3ebcfb35	0.36910406
255	0xbc753975	-0.014967312

conv_block.5.0.bias f4 [4]
0	0x3c4b532e	0.012409968
1	0xbd7567c5	-0.059913415
2	0x3ba46723	0.0050171777
3	0xbc32b9e5	-0.0109085785
