model.pt (torch, 909327 bytes, 8 tensors)

conv_layer.0.weight f4 [64, 1, 3, 3]
000000 4c d0 47 3e 07 4a 39 bd be cd 90 3e c7 5f fa bd
       0.19513053 -0.045236614 0.2828197 -0.12225299
000010 b7 95 b5 bd e6 85 2b 3e da 21 4d be 9d 6a 4b be
       -0.088664465 0.16750297 -0.20032445 -0.19864888
000020 44 3a dc bd 00 f0 b2 3e e2 6c 1a 3e 68 67 20 be
       -0.10753301 0.3494873 0.15080598 -0.15664446
000030 93 a4 91 3d b6 ae 32 be f4 90 5e 3e 3c 2a 5a be
       0.07111468 -0.1744946 0.21734983 -0.21305174
000040 ce c9 50 3d a8 cf 93 be 2c 5a ba be b9 d0 70 3e
       0.050973706 -0.28869367 -0.3639692 0.23517121
000050 f8 f4 96 3d 67 1c 84 3e 80 9a ae be 2e d4 2c be
       0.07370943 0.2580292 -0.3410225 -0.16877815
000060 3f 1c 35 3e 76 26 98 be 66 cc 15 3e d8 4c 06 be
       0.17686556 -0.29716843 0.14628753 -0.13115251
000070 50 2e 89 3e 7c 12 34 3e 30 bf 4e 3e a5 3e 78 be
       0.26793146 0.17585176 0.2019012 -0.24242647
000080 da 83 c8 3d e4 a1 68 3e 3c e7 6f 3d 7a 41 9d be
       0.09790774 0.22718006 0.05857013 -0.30714017
000090 d1 de c7 3d 37 2e 40 be 0a 1b 14 be 22 8b f2 bd
       0.09759296 -0.1876763 -0.1446344 -0.11842944
0000a0 41 20 09 3e 2e 76 5c be 30 09 10 be 9a 35 b3 3e
       0.1339121 -0.21529457 -0.14066005 0.35001832
0000b0 a8 23 42 3e 1c 92 e5 3d 92 d0 c3 bd fb 54 38 3e
       0.18958914 0.11209509 -0.09561266 0.18001167
0000c0 2b 3e 4f bb c3 73 17 be a3 c5 c6 bd b2 31 81 bd
       -0.0031622748 -0.14790253 -0.09705665 -0.06308307
0000d0 f7 f8 86 3d 10 fb 37 be 42 94 36 be 92 76 93 3e
       0.06590455 -0.17966866 -0.17829993 0.288014
0000e0 95 84 6b 3e 23 5f 91 be a9 c4 ae 3a 4c bf 81 be
       0.22999795 -0.28392896 0.0013333756 -0.2534126
0000f0 f6 69 92 3e 73 5c 92 3e 2e 4c 0a 3e ec 9f 5d 3e
       0.28596467 0.28586158 0.13505623 0.21643037
000100 75 34 97 3b c7 96 7e 3e 60 92 28 bd 67 b2 0b 3e
       0.0046144077 0.24862204 -0.04115522 0.13642274
000110 28 ad 34 be 3f 9b 2b 3e 6d ba 89 3e 21 83 cb bc
       -0.17644179 0.1675844 0.26900044 -0.0248428
000120 19 e4 8a be 90 72 df bd 42 12 dd bd 49 3f 25 bc
       -0.2712715 -0.10910523 -0.10794498 -0.010085889
000130 79 bc 10 3e f0 2e 88 be a9 b9 21 3d 0c d4 15 3e
       0.14134397 -0.2659831 0.0394837 0.1463167
000140 65 e0 59 3d 1a 50 8e be 7c 34 91 3d 1c aa 9a be
       0.053192515 -0.27795488 0.07090089 -0.30207908
000150 7f fe 88 3d ef 61 6d be cf 19 77 3c ec 25 a2 3e
       0.06689166 -0.2318189 0.015081837 0.31669557
000160 b9 dd 8f 3e 28 95 17 bd 31 1a 8d 3e 97 bb 9a 3d
       0.28098848 -0.03700748 0.27559045 0.07555311
000170 2b 4f b2 3e 16 e7 f9 3d 7e 37 84 be e7 50 df 3c
       0.34826025 0.12202279 -0.25823587 0.027260257
000180 fc ac 82 bd 20 05 d3 3d 42 0f 82 be eb 35 69 3e
       -0.063806504 0.10303712 -0.25402266 0.22774474
000190 ba eb b8 3d 96 d7 4b 3e 1f 07 9b be 4d 3b 2c bd
       0.09029336 0.19906458 -0.3027887 -0.04204874
0001a0 d3 6b 9f 3e 81 92 77 be d7 e1 4d be 7e 07 82 3e
       0.3113695 -0.2417698 -0.20105682 0.2539634
0001b0 ce 05 13 be 1f 1e 55 3d f2 46 48 3d f1 ca 4e 3d
       -0.14357683 0.05203068 0.048895784 0.05048651
0001c0 99 5e 56 3e 37 f5 9b bd d6 44 97 3e 7e 89 89 3b
       0.20934524 -0.076151304 0.29544705 0.0041972985
0001d0 21 59 9a be 0a 17 43 bd 36 19 99 3e 90 69 e9 bc
       -0.30146125 -0.047629394 0.29902047 -0.028492719
0001e0 f1 67 01 be f1 12 78 bc a1 05 39 3c 17 6a 2b 3e
       -0.12637307 -0.015141235 0.011292846 0.16739689
0001f0 e9 07 4c 3d 36 e6 a2 3e 1c b9 c1 bc 38 68 58 3e
       0.04981223 0.31816262 -0.023647837 0.21133506
000200 fa 30 21 bd 2a 56 79 bd 8b dd 76 bd 43 a2 10 bd
       -0.03935335 -0.060873188 -0.060269874 -0.035310995
000210 4d e1 b9 bd 4e f3 32 3e 33 59 93 3e 6c a3 22 3e
       -0.09076176 0.17475626 0.2877899 0.15882653
000220 4e 8a 87 3e c9 74 82 3e 9a 54 dc 3d 98 af 9d bd
       0.26472706 0.25479725 0.10758324 -0.076995075
000230 91 49 a5 be 7e 5c 29 3e 69 f3 13 3d 13 3a b6 3c
       -0.3228269 0.16539189 0.036120806 0.022244489
000240 72 36 34 bd 0d e7 5a 3e 35 98 25 bd bf 32 be 3d
       -0.043997236 0.21377201 -0.04042836 0.09287023
000250 d8 0f 45 be 08 7c 9c 3e ad cc 08 3e d6 82 a3 3d
       -0.19244325 0.30563378 0.13359328 0.07983939
000260 47 d2 f8 bb f6 7f 32 3d 65 f0 86 3d ae ab a1 3a
       -0.0075934264 0.043579064 0.0658882 0.001233449
000270 6f 3c 55 be 4a 1e 06 be 3e a7 9c be d6 25 2a bd
       -0.20823835 -0.13097492 -0.30596346 -0.04153999
000280 e2 b4 00 3e 9c 9f 87 3d 97 42 52 be e7 16 65 3e
       0.12569001 0.0662224 -0.20533215 0.22372018
000290 9c b4 03 3e a5 3a c8 bd 14 12 a2 3d 41 59 96 bc
       0.12861866 -0.097768106 0.079136044 -0.018353106
0002a0 5c f8 4b 3e ff 01 3d 3e 2e 26 5d bd e0 f0 10 bd
       0.1991896 0.18457793 -0.05399149 -0.035385966
0002b0 e5 d0 08 3e 44 59 8e be 99 e6 0c 3e 82 ba 2a 3d
       0.13360937 -0.2780248 0.13759841 0.041681774
0002c0 4e 20 55 3e f3 72 43 be f8 5f 9e 3e 1e cf 90 bd
       0.20813105 -0.19086818 0.30932593 -0.070707545
0002d0 00 19 63 be 94 15 82 3e 0e 6f 40 bd 73 b3 ad 3c
       -0.22177505 0.25407088 -0.04698091 0.021203732
0002e0 23 a0 6c bd 1b b3 1d 3d 12 8c e6 bb 98 f5 a8 bd
       -0.057769906 0.038500886 -0.0070357407 -0.08249968
0002f0 d0 6b 8b be 51 5d bc bd fa 18 8a 3e 1b 3b 4d 3d
       -0.27230692 -0.09197486 0.2697218 0.050105195
000300 3a b0 1b 3e 74 26 b7 be 75 f2 b4 bd 8e 8c 1d be
       0.15203944 -0.35771525 -0.088353075 -0.15385649
000310 20 95 2b 3e c1 8c 8c 3e ab 2a 4c bd fe 05 1b bd
       0.16756105 0.27451137 -0.04984538 -0.03784751
000320 50 38 93 3e 56 9b 19 bc ed 01 3e be 34 0b 74 bd
       0.287539 -0.009375414 -0.18555422 -0.059580997
000330 76 72 0d 3e 27 9d b7 3d 5d 74 9d be be 0d c1 bb
       0.13813195 0.08965521 -0.3075284 -0.005891531
000340 9a e1 3e 3e 9d 11 06 3d 92 7a 8e 3c 68 47 5e 3e
       0.18640748 0.03273164 0.01739243 0.21706927
000350 08 68 15 be cc c1 81 be 50 0c 03 3c d5 72 4e bd
       -0.14590466 -0.25343168 0.007998541 -0.05040248
000360 9f 8f 0c be 83 8a 45 be 3a 40 1c 3e d2 53 64 be
       -0.13726662 -0.1929112 0.15258875 -0.222976
000370 69 98 1e be bd 95 e3 bd c9 4f a8 3c 41 df 51 3e
       -0.15487827 -0.11112545 0.020545857 0.20495321
000380 63 93 b2 bd 64 d1 55 be 62 1f 1a 3c c3 b5 5e bc
       -0.08719518 -0.20880657 0.009406896 -0.01359314
000390 31 26 39 be 73 00 0c 3e f9 4f 01 3e 65 8f d2 3c
       -0.18080975 0.13672046 0.12628163 0.025703141
0003a0 49 8a a3 3e c3 83 01 3e e6 c6 94 be 37 05 21 be
       0.3194144 0.1264792 -0.29057997 -0.15724646
0003b0 9e 93 01 3e e3 53 4a be 6e 0a 30 3e 5d de 5b be
       0.12653968 -0.19758563 0.17191479 -0.21471544
0003c0 76 f1 a5 3e 8f 71 6a be 59 b0 09 3e eb 35 85 bd
       0.32410783 -0.22894882 0.13446178 -0.06504425
0003d0 6d 74 4a bd 03 7a 46 3e b2 c3 a7 3d b7 1f 25 3e
       -0.04942744 0.19382481 0.08191623 0.1612538
0003e0 da 73 87 be 69 60 a5 be 82 ca 46 be be 74 c6 bc
       -0.26455575 -0.32300118 -0.19413188 -0.024225589
0003f0 9e a4 95 3e 68 08 42 3d dc ab 8c 3e 8f 30 8b bd
       0.29227155 0.047371298 0.27474868 -0.06796371

conv_layer.0.bias f4 [64]
000000 71 17 f3 bd 0d af 00 bc cc aa 24 3e 35 6f 0e be
       -0.118697055 -0.007854235 0.16080779 -0.1390961
000010 13 b5 ad bd 89 f6 bd 3d 25 82 07 3e 2b 81 70 be
       -0.08481803 0.092755385 0.1323324 -0.23486774
000020 51 86 23 3e ae 41 91 3e 51 12 61 be 04 f9 32 3c
       0.15969206 0.28370422 -0.21979643 0.010923628
000030 03 d2 76 bd bb 60 9c be 27 bd 77 bc 3f 0e 95 3e
       -0.060258877 -0.3054255 -0.015120781 0.2911243
000040 48 33 63 be e9 d3 b7 3a 3c 92 5b be cf e8 11 be
       -0.22187531 0.0014024946 -0.21442503 -0.14248966
000050 c9 ee 71 be d5 35 24 3e 0e 04 67 be 69 ca 12 3e
       -0.23626246 0.1603616 -0.2256014 0.14335026
000060 37 42 61 3e 5d f3 1d be fd 9d 5d be 44 18 52 3e
       0.21997915 -0.15424867 -0.21642299 0.20517069
000070 30 b1 a5 be ad 3a 6d be 86 ab 47 be ac 33 86 3e
       -0.32361746 -0.23166914 -0.19499025 0.26211298
000080 f6 f0 0a bd 29 21 81 be ce be af 3d 87 76 83 3d
       -0.033921205 -0.25220612 0.08581315 0.06419092
000090 f7 b1 9e 3e c0 c7 74 3e 76 de 80 bc 1a 46 10 be
       0.3099515 0.23904324 -0.015731078 -0.14089242
0000a0 be 6e 82 bd 82 6c 4e 3e 96 25 21 3e 9e 73 99 39
       -0.06368779 0.2015858 0.15736994 0.00029268576
0000b0 19 43 84 3e 23 2b 6e bd ae a5 60 bd c3 cc 47 be
       0.2583244 -0.058146607 -0.054845504 -0.19511704
0000c0 cb bc 38 be 70 be 74 3e 4a 93 6d 3e 01 1f 1d 3d
       -0.18040769 0.23900771 0.23200718 0.038359646
0000d0 57 d1 3b be 73 dc 1e be 40 ca f5 bd 35 76 60 be
       -0.18341576 -0.15513782 -0.12001467 -0.21920092
0000e0 b9 b2 80 3d 10 d0 71 be 42 36 f4 bd a6 9a 86 be
       0.06284089 -0.23614526 -0.11924411 -0.26289862
0000f0 79 54 51 3e 67 e7 93 bc 9f 38 1c 3e c3 f0 91 be
       0.2044238 -0.018054677 0.15255974 -0.28504

conv_layer.2.weight f4 [128, 64, 3, 3]
000000 d6 89 0f 3d 1f 05 11 3d e7 3f f4 bc 8c 9d ed 3c
       0.03504356 0.035405274 -0.029815627 0.029005788
000010 93 d9 89 bc 04 37 91 bc ea f0 e0 bc 24 b0 d2 bc
       -0.01682738 -0.017726429 -0.027458627 -0.025718756
000020 b3 b1 10 bd b6 fb 93 bc 87 fb 17 3d 3c fc d7 3c
       -0.035325717 -0.018064361 0.03710511 0.026365392
000030 ac 4a 06 3d e0 45 0d 3d d8 fb 33 3c 17 22 ee 3c
       0.032786056 0.034490466 0.010985337 0.02906899
000040 3b e9 4a bd 08 44 79 bb 0b d3 d3 bb c8 9c 11 3d
       -0.049538832 -0.0038034935 -0.0064643673 0.03554991
000050 f7 56 ac bc e1 fe 1b bb b0 5c 95 bc a4 48 99 ba
       -0.021037562 -0.0023803043 -0.018232673 -0.0011694622
000060 13 cf 18 3c 30 0d 22 3d bc 03 73 3c a7 42 f1 3c
       0.009326714 0.039563358 0.014832433 0.029450728
000070 8e a5 88 bc 61 6d 03 bd b4 b7 3a 3d 52 d7 1b bd
       -0.016680505 -0.032086734 0.04558535 -0.038047142
000080 92 24 9c ba 03 b2 d7 bb 89 07 62 bc c5 4f 44 3b
       -0.0011912754 -0.0065825 -0.013795742 0.0029954773
000090 4e 28 c4 3b 9a 36 1d 3c 71 33 ad 3c 33 4b d2 3c
       0.00598625 0.009595538 0.021142693 0.025670623
0000a0 57 bc b7 bc 18 6b 04 3d 45 7f 73 3b a2 5f 08 3d
       -0.022428675 0.032328695 0.0037154716 0.033294328
0000b0 e4 19 77 3c b5 35 16 3d 69 77 51 bc 3d b4 ec bb
       0.015081856 0.036672313 -0.012784817 -0.0072236345
0000c0 fa c1 b8 3c 2d 96 f3 bc 21 1a 1a bc dc 47 b7 3c
       0.022553433 -0.029734695 -0.009405644 0.022373132
0000d0 93 9a 0c 3d 72 cf d7 bc 1a 88 da 3c 72 46 fe 3c
       0.0343271 -0.026344035 0.026676226 0.03103945
0000e0 40 7b 21 3d 72 af c7 3c 2e 7d 9c bb 6a 3b a8 bb
       0.03942418 0.024375651 -0.004775665 -0.005134036
0000f0 aa 17 24 bc 03 4f cd ba b4 53 0f bd a9 d0 45 bc
       -0.010015408 -0.0015663806 -0.034991935 -0.012073674
000100 4d 21 2d 3d 73 db 9f 3c c7 eb aa 3c 4d 0a f7 3b
       0.042268086 0.019513821 0.02086438 0.0075390697
000110 04 d8 b0 b9 85 dc 8a 3c f6 56 22 bd 7c 9b d5 3c
       -0.0003373028 0.016950855 -0.039633714 0.026075117
000120 6a 85 e8 3c c1 91 86 bb 61 91 de bc 00 fc cd bc
       0.02838393 -0.0041067307 -0.027168931 -0.025144577
000130 ee bb cf 3c 38 12 35 3c 5f de b2 3c 71 0b bc bc
       0.025358167 0.011051707 0.02183455 -0.022954674
000140 1f 7a 02 3d b9 ef e2 bc 71 12 83 3c 38 39 c1 3b
       0.031854745 -0.0277022 0.016000004 0.0058967136
000150 df 15 8b 3b 22 0b 0b 3c 5a 99 fe 3b 00 cc 05 bd
       0.0042445506 0.008486541 0.007769746 -0.032665253
000160 6d a9 fd bc a7 58 e9 3c f2 ca 00 3d 6e 80 ff 3c
       -0.030964578 0.028484656 0.031443544 0.03118917
000170 c0 66 2d bd e3 6c c5 3c a1 ff 99 3c b0 41 84 3c
       -0.04233432 0.024099773 0.018798651 0.016144603
000180 29 ef 8d 3c 86 dd 00 3d 7f 3b 9c 3c 33 b1 b2 b9
       0.017325955 0.03146126 0.019071339 -0.0003408283
000190 4e 85 0d 3d 30 d4 4b 3c 23 c2 d6 bc 81 d2 09 bd
       0.034550957 0.012440726 -0.026215618 -0.033648018
0001a0 1e d2 c6 3c 93 af a7 3c 01 df 2d bc 83 2b 46 3c
       0.024270114 0.020469462 -0.01061225 0.012095335
0001b0 f9 55 13 3d 1a 65 0a bd c7 f4 d4 3c a0 4d 7e 3c
       0.03597066 -0.033787824 0.025995625 0.015521437
0001c0 df c2 b1 ba ba a3 3a 3b a7 6e a4 bc a2 2c 19 3d
       -0.0013562104 0.0028478936 -0.020072294 0.03739608
0001d0 1e 93 a3 bc 60 7a ed 3c ad 36 92 bc 0c 51 23 bd
       -0.019967612 0.028989017 -0.017848337 -0.039872214
0001e0 91 b0 25 bd 11 d0 20 bd 5a 69 1a 3d 30 36 f4 3c
       -0.04045159 -0.039260928 0.037698127 0.029810995
0001f0 b5 6f f5 bb de a3 1a 3c 6e ad 99 3c f5 e4 a0 bc
       -0.007490123 0.009438483 0.018759456 -0.019640425
000200 e5 34 17 3c e8 2a 00 3d c1 1a 26 bd 5f 9a 4a bc
       0.00922892 0.03129092 -0.04055286 -0.0123659065
000210 45 42 55 bc ea d2 f3 bc 1c 74 ff 3c 55 b0 38 bc
       -0.013016288 -0.029763658 0.031183295 -0.01127251
000220 00 05 10 bd ba 1b 0d 3d de 11 88 3b dc 68 cb bc
       -0.03516102 0.03445027 0.0041525206 -0.024830274
000230 59 8e 8d 3c ad 8b f0 3b d3 b6 84 bc b3 73 91 3c
       0.01727979 0.0073408694 -0.016200459 0.017755365
000240 58 e5 41 3b 88 e1 5d 3c b8 83 0f 3d a1 03 2f bd
       0.0029586162 0.01354254 0.035037726 -0.04272807
000250 4f 63 fd 3c c4 f9 0a bc ab d8 18 bb 5c ca 1e 3d
       0.030931143 -0.0084824 -0.0023322504 0.038767204
000260 2d e2 da bc 4a f8 52 3c d9 40 f1 3c 54 2b cd bc
       -0.026719177 0.01287658 0.029449867 -0.025045075
000270 8a 8a 6d 3a 08 a2 9d 3c 1d a4 10 bd ca d2 23 3d
       0.00090614764 0.019242302 -0.03531276 0.039995946
000280 4d c9 ab bc 22 f9 0c 3d 39 da e8 3b 59 8f 5f bb
       -0.020970011 0.03441728 0.0071060923 -0.0034112541
000290 af 48 0e bd c1 cb 1b 3d f5 92 0d 3d 98 e2 e3 3c
       -0.034737285 0.03803611 0.034563977 0.02781801
0002a0 4e ba b3 3c ff 88 41 bc aa 92 db bc 98 97 c5 bc
       0.021939423 -0.011812448 -0.026803333 -0.024120137
0002b0 e6 5e 03 3b 75 c0 26 3c c3 1f ca bc 2f ec 31 bc
       0.0020045578 0.010177721 -0.024673348 -0.010859533
0002c0 54 2a 7a 3c 54 86 cf 3b bc fc 8d bc 55 b8 15 bd
       0.015268881 0.006333152 -0.017332427 -0.036552746
0002d0 62 75 bb bc df 77 f0 3c 1b b2 32 bd 90 7a a1 3c
       -0.02288312 0.029354034 -0.043626886 0.019711763
0002e0 ae c8 6e bc 44 7e 0c 3d d0 86 1f bd 09 6f 57 bc
       -0.014574213 0.034300104 -0.038946927 -0.013149031
0002f0 25 09 6b bc cb a5 00 3c e1 4b c4 bb 1e 3b 14 bd
       -0.014345442 0.007852028 -0.005990491 -0.03618919
000300 03 9f 82 bc 6a e8 97 3c f5 45 19 3d 82 1b e7 3c
       -0.015944963 0.01854344 0.03742023 0.028211359
000310 fa 02 c4 bc 28 7f 8c 3c 17 6f 07 3d c3 25 8c bc
       -0.0239272 0.017150477 0.033064928 -0.01710785
000320 85 17 da 3b 80 29 02 3d 4b fa 9b 3b e9 c2 c6 bb
       0.006655636 0.03177786 0.004760062 -0.0060657156
000330 53 f9 d0 3c 32 df a7 3c c5 46 29 3c 13 9f 11 bc
       0.025509512 0.02049217 0.010331814 -0.008888024
000340 da 5c 1c bd 7e 59 45 3c ad 96 e5 3c a6 22 e4 3c
       -0.038174488 0.012045262 0.02802595 0.027848553
000350 40 9b f4 3c ee 5e 47 3c 5f a0 09 bd b6 fd e1 bc
       0.029859185 0.012168629 -0.033600207 -0.0275868
000360 83 e5 10 bd 9e eb d6 bc ac db cc 3b 8b ef f8 bb
       -0.03537513 -0.026235398 0.006251773 -0.007596915
000370 ba 67 30 3d 72 fa e5 bb 0b 32 04 3d b5 b2 1f 3d
       0.04306767 -0.007018381 0.032274287 0.038988788
000380 8f b7 20 3d aa fd 1a bd a8 af b7 3c b6 2e 37 3a
       0.039237555 -0.03783957 0.022422627 0.00069878565
000390 16 40 98 bc c1 49 d7 bc c0 8a 94 3c 19 54 37 bd
       -0.018585246 -0.026280286 0.018132567 -0.044757936
0003a0 06 e8 26 3c d8 7a 12 3d 5b 7b 95 3a a9 2f 19 bd
       0.010187155 0.035761684 0.0011404561 -0.037398968
0003b0 3f 19 07 bc f2 70 d3 3c 20 20 98 3c 06 3d fd ba
       -0.008245765 0.025810692 0.018570006 -0.0019320555
0003c0 0f c9 12 bc dd 21 b0 bc a8 c1 19 bd ef d0 1e bc
       -0.008959069 -0.021500522 -0.0375382 -0.009693368
0003d0 f4 86 19 3c 47 cc e8 bc aa eb 67 bc 82 bc e7 bc
       0.009370554 -0.02841772 -0.014155308 -0.02828813
0003e0 7c 8b 3b bc e3 60 7e bc 86 d5 a7 3c 5b 80 ad 3c
       -0.01144683 -0.015526029 0.020487558 0.021179369
0003f0 a2 0c bc 3b 60 89 32 bc 95 b9 86 bc 20 a1 98 3c
       0.0057388106 -0.010897011 -0.016445914 0.018631518

conv_layer.2.bias f4 [128]
000000 f0 a9 08 3a b5 11 28 bd c0 ef ce 3b ba c4 09 3d
       0.0005213311 -0.04103251 0.0063152015 0.03363488
000010 d6 1d e6 3c 9c 18 c3 b9 2f f1 4e 3c 22 6d 2f bb
       0.028090399 -0.00037211634 0.012630745 -0.002676793
000020 95 a7 e8 3b 3c 8a cd 3c c2 66 b2 3b 2b 74 a1 3b
       0.0071000555 0.02509033 0.0054443786 0.0049271784
000030 35 09 09 3d a5 bd da 3b cb 90 b5 bc 61 9f f4 3c
       0.033456046 0.0066754394 -0.02216377 0.029861154
000040 16 96 f4 bc 44 79 4e 3c eb b9 eb 3c 21 4e 69 bc
       -0.029856723 0.012602154 0.028775176 -0.014239819
000050 c6 8e bf bc bb 11 4e ba a4 90 0c 3d d5 2c d8 3c
       -0.02338351 -0.00078609184 0.034317628 0.026388565
000060 ca 0f 07 3d d4 83 10 3d c7 24 b6 3c b4 86 12 3d
       0.032974042 0.03528197 0.022234334 0.035772994
000070 4d f6 10 bd ac 83 14 bd 20 2d 50 ba 5a ef f0 bc
       -0.03539114 -0.036258385 -0.00079412945 -0.029411007
000080 42 8e a2 bc f4 64 5b ba af 2f 1c 3d b5 51 19 bd
       -0.019843224 -0.000836923 0.038131412 -0.037431438
000090 37 dd 6b bc ef d8 4c bb 51 38 09 bd d0 01 b4 bc
       -0.014396003 -0.0031257232 -0.033500973 -0.02197352
0000a0 3f b0 2c bc 04 5d 1e 3c 73 c0 55 3b b3 73 14 bd
       -0.010540067 0.009665731 0.003261593 -0.036243152
0000b0 38 08 ad 3c 06 1a bb 3c ac 59 fb 3c 0c 3f 15 bc
       0.021122083 0.022839557 0.030682407 -0.00910927
0000c0 07 46 db 3c ed 56 f6 3b c5 fa d2 3c 99 88 d0 bc
       0.02676679 0.0075176866 0.025754342 -0.02545576
0000d0 3e fd f5 bc 89 ae f9 3c 1b bb 13 3d 5b 80 5f ba
       -0.030027982 0.030478733 0.03606711 -0.00085259014
0000e0 22 7e 07 bd 8a 7f 9d 3c b1 0a ee bc 4d 3a 0c 3d
       -0.033079274 0.019225854 -0.029057832 0.034235287
0000f0 9f f6 17 bc 93 1e 8c 3b 90 af 2e bb bb a8 1d 3d
       -0.009275108 0.0042761057 -0.0026654936 0.038490992
000100 49 ed 9e 3c 85 b4 09 3d e7 6d 96 3c 14 25 bc 3c
       0.019400256 0.033619422 0.018362952 0.022966899
000110 48 2a 58 3c 7f b7 1f 3b 5f 8d a2 bc d2 8f 30 bc
       0.013193674 0.0024370847 -0.019842802 -0.010776477
000120 08 31 ed 3c b0 da 89 bb 51 13 15 bd 89 5c 19 3d
       0.028954044 -0.004206978 -0.036395375 0.037441764
000130 d1 83 b3 3c 25 ba 0f bd 10 cf 7b bc e0 84 d6 3c
       0.02191344 -0.03508963 -0.015369192 0.026186407
000140 2f cb 23 bd 04 43 ee 3c f5 93 63 bc 55 70 ca bc
       -0.039988693 0.02908469 -0.013890256 -0.024711767
000150 8c e1 b9 bb e7 2c 22 3d 1d d5 01 bd 42 55 36 3b
       -0.0056726392 0.039593603 -0.03169738 0.0027821814
000160 4b e5 a9 bc 9f d4 20 3d 37 f5 25 3d ed 28 1f bd
       -0.020739218 0.03926527 0.04051706 -0.03885739
000170 ef 01 a3 bc 5f c2 1f bd f7 d7 e2 3c 0b 41 10 3c
       -0.019898383 -0.039003726 0.02769087 0.00880457
000180 65 98 34 3d e0 56 e2 3c ab e3 b3 3b 0c bc a4 3c
       0.044090647 0.027629316 0.0054897866 0.020109199
000190 a0 fe 38 3c 3d 59 fe 3c 45 34 16 3c 27 36 a8 bb
       0.011291176 0.031048412 0.009167735 -0.0051334086
0001a0 ea 0b 69 bb 6b 8d a5 bc e9 81 af 3b f5 1a 06 bd
       -0.003556008 -0.020209035 0.0053560627 -0.032740552
0001b0 29 c1 a4 39 a3 a3 17 3d 60 1d 57 3c d6 6b 85 3c
       0.00031424433 0.03702129 0.013129562 0.016286772
0001c0 50 62 bd bc ed 1b 25 3d 20 8b 58 bc 2e 01 5c 3b
       -0.023118168 0.040309835 -0.013216764 0.003357004
0001d0 a5 d7 3a bd 5f d2 a0 bc a9 be 10 bd 6f f1 d2 bb
       -0.04561581 -0.019631563 -0.035338078 -0.0064374725
0001e0 20 e6 15 bd d9 f7 c0 3c fb 2b 40 bb 1a 17 81 3c
       -0.036596417 0.023555683 -0.002932309 0.015758086
0001f0 45 42 a4 bc 6a 46 1a 3d 1a 2c 0c 3c 09 03 d8 bc
       -0.020051131 0.03766481 0.0085554365 -0.026368635

conv_layer.4.weight f4 [128, 128, 3, 3]
000000 76 35 e6 bb 45 5f 34 3b 29 a1 87 bc 5f 13 f5 3b
       -0.007025416 0.0027522605 -0.01655634 0.007479116
000010 34 43 aa 3c b9 3b a6 bc c4 f3 e4 3c e1 19 d7 3c
       0.020783998 -0.02029215 0.027948268 0.026257457
000020 dc 69 c4 bc 88 83 d6 bb 08 75 fa 3a 56 3b f6 3b
       -0.023976259 -0.0065464415 0.0019108364 0.0075143976
000030 0a 47 c9 3b 4a a1 f6 bb f0 05 a2 3b f5 2e a7 bb
       0.0061425017 -0.0075265514 0.0049445555 -0.0051020333
000040 ec e8 8d 3c 18 2a ba 3c 3e f1 88 3c e0 3a e1 3c
       0.01732298 0.02272515 0.016716596 0.027493894
000050 7c a4 89 bc bf 84 94 3c 10 67 7e 3c 36 ae 24 ba
       -0.016802065 0.018129705 0.015527502 -0.0006282063
000060 b4 92 14 bc 08 c7 e8 bc 8d 44 40 3c a6 23 85 3b
       -0.00906818 -0.028415218 0.011735094 0.0040630875
000070 c8 92 8e 3c 0d f3 63 3b 1a d2 90 bc e5 f9 92 3c
       0.017403975 0.003478232 -0.01767831 0.017941425
000080 6b 66 c0 bc 7b dc aa 3c 1a c1 96 3c c7 88 d5 bc
       -0.023486337 0.020857086 0.018402625 -0.026066197
000090 0d a1 2a 3c 0a 9a 16 3c 88 98 bd 3a 7e 11 ba 3c
       0.010414374 0.009191999 0.0014465014 0.022713419
0000a0 c1 82 95 bc 0c 7b 85 3c ed 7c 26 3c f1 67 b9 bb
       -0.018250825 0.016294025 0.010161621 -0.0056581427
0000b0 95 fe 5f 3c 5d 99 bd bc 7f 73 c4 39 60 25 7d bc
       0.013671537 -0.023144418 0.00037470084 -0.015450805
0000c0 b0 25 a4 bc 3a 84 7d 3c 80 e6 36 bc 28 ac ff 3c
       -0.020037502 0.01547342 -0.011163354 0.03121002
0000d0 b7 6f a7 3c 4a 27 be bc 52 a0 6e bc 67 bd 9e bb
       0.020439012 -0.023212094 -0.0145645905 -0.004844356
0000e0 d4 68 b5 3b ea 9e 13 39 a2 ff bb 3c 4f 46 3b bc
       0.005536178 0.00014078213 0.022949044 -0.011430337
0000f0 c3 24 b6 3c e4 13 11 3b 1e be ae bc 8c df 9a bc
       0.022234326 0.00221371 -0.02133089 -0.018905424
000100 cd d8 81 bc 18 0b 00 3d 27 70 d1 bc 6f 68 d6 3c
       -0.015850449 0.03126058 -0.025566174 0.026172845
000110 ad a3 04 3b 45 cb d9 3b e8 81 a4 3c 4d a5 59 bb
       0.002023916 0.006646546 0.020081475 -0.00332101
000120 f5 23 bf bc ce d0 bb 3c 7a fa 38 3c 22 31 54 3c
       -0.023332575 0.022926714 0.011290187 0.012951167
000130 7b be 3b 3c c0 bb f0 3c ac 27 0d bc e5 b8 a9 3c
       0.011458988 0.029386401 -0.008615416 0.020718047
000140 80 62 0a 3d eb 4b 07 bc 90 3a 23 bc 32 7b ac 3b
       0.033785343 -0.008257846 -0.009962693 0.0052637095
000150 b7 ba b3 bc 39 77 0a 3c c9 b7 aa bb 86 76 60 3c
       -0.021939619 0.008451276 -0.005209897 0.013700133
000160 ae 11 40 bc 2d 33 99 3c 05 b7 21 3c 30 70 55 3c
       -0.011722965 0.01870116 0.009870295 0.013027236
000170 31 78 8a 3c 3e b8 0d 3c c4 b1 22 3c e4 6b 7f 3c
       0.016903015 0.008649884 0.009930078 0.015589688
000180 a4 29 7f 39 86 14 9e 3c 83 c2 71 bc 5c b8 e9 3c
       0.00024334207 0.019296896 -0.014755848 0.028530292
000190 87 22 8a bc 55 ad 6a bc 1a 20 d4 3c 5f 59 bf 3c
       -0.016862167 -0.014323552 0.025894213 0.023358045
0001a0 15 a8 99 3c 8b d6 a8 bc 63 80 99 3c d9 33 82 3c
       0.018756906 -0.020610115 0.018737977 0.015893864
0001b0 7b bb c9 3a 9c d5 6c bc 4e dc 79 3a d6 9e 1d bb
       0.0015390957 -0.014455225 0.0009531424 -0.0024050972
0001c0 8e 5b d0 3c 4c 0d 8e bc 16 5c 4c b9 be 9f 2d bc
       0.025434282 -0.017340325 -0.00019489261 -0.010597168
0001d0 76 f9 4a ba 31 f3 46 3b bf dc ee bb ed e5 98 bc
       -0.0007742861 0.0030357356 -0.0072894986 -0.018664325
0001e0 72 e9 d5 3c 90 d7 0b bc aa e5 35 3c 73 d9 a2 3b
       0.026112292 -0.008535281 0.011102119 0.0049697696
0001f0 4e 4e 27 3c 6c c5 85 3c a1 dc b5 bb 45 84 52 bc
       0.01021154 0.01632949 -0.0055499827 -0.012848918
000200 66 1c b0 bc b3 1b e5 bc f7 9f c7 bc 39 0b d6 3c
       -0.021497916 -0.02796731 -0.02436827 0.026128398
000210 03 f2 7e 3c be b4 a0 bc ce 46 6a bc b4 66 b6 bc
       0.01556063 -0.019617435 -0.014299108 -0.02226577
000220 66 a5 df bc 43 33 a5 3a f2 e5 f0 bc e3 60 a7 bc
       -0.027300548 0.0012603778 -0.029406521 -0.020431941
000230 80 f6 b8 bc 79 05 e3 ba 5a 77 1d 3c d5 38 1d 3c
       -0.022578478 -0.0017320357 0.009610975 0.009596069
000240 a0 64 d8 3c 4a ac 81 ba 7a ed 65 bc e0 b2 b2 bc
       0.02641517 -0.0009893265 -0.01403367 -0.02181381
000250 34 1a 4e bc 04 05 d1 3c bc 45 2e 3c cf fe 83 3b
       -0.0125794895 0.025515087 0.010636743 0.0040281783
000260 d2 e1 ae bc 89 b8 02 bc 79 fb c8 bc 48 58 b1 bc
       -0.021347914 -0.007978567 -0.024533974 -0.021648541
000270 73 c7 74 3c 71 13 a8 3c 3b 7b 93 bc a1 d4 e2 3c
       0.0149401305 0.020517083 -0.018003097 0.02768928
000280 28 44 cd bc ed 66 11 3c ef 5d ca bb ff 18 95 3c
       -0.025056913 0.008874637 -0.0061757485 0.018200396
000290 6b 01 a9 bb c1 93 a1 3c d2 9e 03 bc 59 87 92 bc
       -0.0051576397 0.019723775 -0.008033471 -0.017886804
0002a0 6f 6d 83 bc d6 84 18 bb 3f c3 ec 3c 6b 8f b0 3c
       -0.016043393 -0.0023272536 0.028901694 0.021552762
0002b0 fb 73 f0 bc cd 97 9c 3c 92 3b cb 39 89 d8 87 bc
       -0.029352179 0.019115353 0.0003876356 -0.016582744
0002c0 44 0a 8a bb 87 1a 25 3c aa ef b9 bc 82 28 4f 3c
       -0.0042126495 0.010077125 -0.022697289 0.012643935
0002d0 0c 99 32 bc 35 79 d7 bc 9a fc 2f bc 52 bc 9f bc
       -0.010900747 -0.026302913 -0.010741377 -0.019498978
0002e0 d1 11 1e 3c 0f ee 96 3c 3e e2 af 3c b0 cc dc 3c
       0.009647802 0.018424062 0.021470185 0.026953071
0002f0 c5 fd 56 bc 75 11 ca 3c d6 ce b8 3c 5b 2f 94 bc
       -0.013122027 0.024666527 0.022559565 -0.018088987
000300 cd c3 48 3c f1 01 f1 3c ba 79 64 bb a7 b2 f8 ba
       0.012253714 0.029419871 -0.0034862594 -0.0018974141
000310 e8 41 94 3c 0f 8e 2b bb 9e 85 2c bb d2 6d fc bc
       0.018097833 -0.0026177203 -0.002632476 -0.030814085
000320 f2 f1 4f 3c 90 7a c9 bc f3 15 69 3a d7 b9 27 bc
       0.012691962 -0.024594575 0.00088915153 -0.010237179
000330 4e 00 be ba 2d 05 04 3c 5d d5 e0 3c 5f 14 eb 3c
       -0.001449594 0.008057875 0.02744549 0.028696237
000340 e7 5e 91 bc 61 ae 2c 3c e7 5a ea 3c 60 12 d0 3c
       -0.017745448 0.010539622 0.028607799 0.025399387
000350 5f fa 90 3c b0 1e 3b 3c 18 9e 97 3c de 3e f2 bc
       0.017697511 0.011420891 0.018508002 -0.029570993
000360 33 da 7f 3a 83 73 a2 3a a9 39 91 bc 93 48 b4 3c
       0.0009759992 0.0012394044 -0.01772769 0.022007262
000370 fb 49 0c 3c b7 70 66 bb e7 2c 95 3c d6 2c 03 3d
       0.00856256 -0.0035162398 0.018209888 0.03202518
000380 d0 02 b5 bc 5f 89 b3 3c a8 0f cf 3c 4f b9 56 3c
       -0.022096068 0.02191609 0.02527602 0.013105704
000390 04 58 ad 3c 6c 2f 78 bc 71 0c 92 bc bc 31 d2 3c
       0.021160133 -0.015148025 -0.017828198 0.02565848
0003a0 c7 9a da bc 84 c2 84 3c 93 c0 30 3c 15 b5 24 3c
       -0.026685132 0.016206034 0.010788101 0.010052939
0003b0 f4 29 58 3c ec c9 b4 3c 60 36 e3 bc 67 b8 99 3c
       0.013193596 0.02206894 -0.027735889 0.018764688
0003c0 4d 9c 23 3c b0 d4 e8 3c 2e ae e8 3a 70 88 71 bc
       0.0099859955 0.02842173 0.0017752105 -0.014742002
0003d0 5f dd 52 bc 30 ea 39 3b 9f cd 19 3c 8f 07 02 bb
       -0.012870162 0.0028368346 0.009387403 -0.001984093
0003e0 f7 1b a1 bc 60 94 15 3d fb 5a 50 bc 77 1a a5 bc
       -0.019666655 0.036518455 -0.012717004 -0.020154221
0003f0 ae 7f 9b 3c 25 22 84 3c 1b 76 1a 3c d9 8a a0 3c
       0.01898178 0.016129563 0.009427573 0.019597458

conv_layer.4.bias f4 [128]
000000 00 95 9d 3c 08 7e 97 bc 2d 4d c5 bb a1 30 27 3c
       0.019236088 -0.018492714 -0.006021163 0.010204465
000010 9a 51 23 3d 8a 7d 09 3d 90 63 5e bb b9 f9 ff 3a
       0.039872743 0.03356699 -0.0033933856 0.0019529379
000020 c3 44 42 3b c7 91 e3 bc 81 12 08 bd 0f 34 45 3c
       0.0029643036 -0.027779473 -0.03322077 0.0120363375
000030 f1 3c e8 3c 10 13 09 3b 10 9f b3 bc 42 69 8f 3c
       0.028349372 0.0020915903 -0.021926433 0.017506246
000040 6e 3a 44 3c af ba f3 bb 3c 12 f5 b9 d8 44 39 bb
       0.011976821 -0.007438026 -0.00046743627 -0.0028269794
000050 88 e7 12 3d eb 1a a5 3c 5c aa 29 3b 0f da af 3c
       0.035865337 0.020154437 0.0025888896 0.021466283
000060 a1 74 b9 bb fc b0 5b bb b0 29 a0 3c f9 eb 24 bc
       -0.005659655 -0.003352224 0.019551128 -0.010066026
000070 0b eb 50 bd 1b 40 c7 bc 67 73 96 3c 1e 8b 00 bc
       -0.051005404 -0.02432256 0.018365575 -0.007845668
000080 03 b0 37 3c 8e 78 34 bc c0 53 a8 3c 48 fc 0d bd
       0.011211398 -0.011015071 0.020547748 -0.034664422
000090 eb f6 39 bc ab a7 c2 bc 6c c6 46 3c 58 cd 3a 3b
       -0.011350374 -0.023761591 0.012132268 0.0028503742
0000a0 b3 1a c6 bb 8a 34 0c bc 4e a5 19 3d 15 b1 7f 3b
       -0.0060456633 -0.008557448 0.037511162 0.0039015461
0000b0 78 ab ab bc ce b6 75 bc 54 dc 21 bc 43 c9 59 bc
       -0.020955786 -0.014997197 -0.0098791905 -0.013292613
0000c0 f8 ce aa 3c 2d ea 52 3c 92 a4 bf bc ea fc 0c bd
       0.020850644 0.012873215 -0.023393903 -0.034420885
0000d0 aa 40 d5 3c 1b 63 85 3c 1c 93 3c 3b a0 e4 b1 3b
       0.02603181 0.016282609 0.0028774207 0.0054288656
0000e0 c0 51 cb bc cf 98 84 bb da 8d a7 bc 63 a0 30 bc
       -0.024819255 -0.0040465365 -0.020453382 -0.010780427
0000f0 30 77 19 bc c3 97 0b 3d a2 5b 98 3c dc 75 31 bb
       -0.009366795 0.034080278 0.018598381 -0.0027078306
000100 bc 5c 97 3c f0 11 71 3c 59 8d 72 3c 32 0c 56 3c
       0.018476836 0.014713749 0.014804208 0.013064431
000110 ef c8 49 bc 2e 81 ff bb 91 6b 90 bc 6c 49 8b 3c
       -0.012315973 -0.007797382 -0.017629417 0.017002784
000120 9e 11 10 bc b9 34 a2 3b ee c1 4d bc 89 ad ea bb
       -0.008793263 0.0049501327 -0.0125584435 -0.0071618003
000130 40 62 ab bc 59 56 0e 3d 22 1e 96 bc b3 ea ad 3c
       -0.020920873 0.034750316 -0.018324915 0.021230077
000140 4f 69 b1 bc 91 88 5f 3c e5 55 48 bb f9 4c ee bb
       -0.02165666 0.0136434 -0.0030568775 -0.0072723594
000150 37 da 9e bc 60 29 5c 3b db fc c3 3c 62 9c 19 3b
       -0.019391162 0.0033593997 0.023924282 0.0023439159
000160 59 c3 cf bc eb 4f a1 3b a2 80 d5 3a bc c6 d8 3c
       -0.025361704 0.004922857 0.0016288946 0.026461951
000170 c6 b1 38 3d 93 32 e5 bc cd 84 55 3c af ab e4 3a
       0.045091413 -0.027978217 0.01303215 0.0017446185
000180 d1 1a 26 bc a0 ca eb 39 07 e8 89 3c 2a d0 c9 3c
       -0.0101382295 0.0004497366 0.016834272 0.024635393
000190 71 83 c3 bc ec 95 e0 bc 6b d3 94 3c 44 40 bf 3c
       -0.023866387 -0.027415238 0.018167218 0.023346074
0001a0 57 09 bd bc 16 d4 a8 bb c1 8a c5 3c 6b 9d 1a bd
       -0.023075743 -0.0051522357 0.024114015 -0.03774778
0001b0 bd 04 e1 3c 4a 73 e6 bc 53 f6 68 3b 4c 87 16 bd
       0.02746808 -0.028131146 0.0035547211 -0.036750123
0001c0 b2 c4 47 bd 18 3f b2 ba 7e fc 21 3d 7f 53 16 3a
       -0.048771568 -0.0013599126 0.039547436 0.0005734488
0001d0 08 6e 09 bd df 92 be bc 5d d9 b4 bc c0 5d be 3c
       -0.0335522 -0.023263393 -0.022076303 0.023238063
0001e0 ec 9e e5 3a 56 1a ab 3c 3a af 34 bd 1d 6a 8a bb
       0.0017518676 0.020886581 -0.04411242 -0.0042240755
0001f0 e4 6e 22 bc df 53 1c bd 30 ee 81 bc 12 26 93 bc
       -0.009914134 -0.038165923 -0.015860647 -0.01796249

conv_layer.6.weight f4 [4, 128, 3, 3]
000000 5a 7f 2d 3c 03 6f 91 39 74 bc e5 bc 84 84 83 3a
       0.010589445 0.00027739265 -0.028043963 0.0010034
000010 19 0b 4b bc 4c b1 64 bc 71 99 bc bc 6c 04 8e 3c
       -0.012392783 -0.0139582865 -0.023022385 0.017336093
000020 62 68 f5 ba a8 53 46 3c 9b a4 80 3c cc aa 34 bc
       -0.0018723125 0.012104906 0.01570349 -0.011027049
000030 16 f9 4d bb c6 5c e0 3b d2 b4 ab bc b5 37 e6 bb
       -0.0031428984 0.006846997 -0.020960245 -0.0070256838
000040 3c e1 76 bc f3 77 79 3c ee cc 34 3c 65 b0 c2 bc
       -0.0150683485 0.015226352 0.011035187 -0.023765752
000050 44 89 ac bc bb 9f 3d 3b 17 b0 0a 3d 41 88 03 3c
       -0.021061547 0.0028934318 0.03385934 0.008028091
000060 8f 73 7e bb 57 f6 93 3b be 62 b6 bb de 8a 42 3c
       -0.0038826203 0.00451545 -0.00556597 0.011873929
000070 5c 35 4b 3c 2b f6 cb 3b 9b 28 83 3b ea 6b 17 3c
       0.012402859 0.006224414 0.0040026433 0.009242037
000080 2f 1b 31 bc 9c f7 13 bc 75 1f 27 3c 7f 6b 66 bc
       -0.010809704 -0.009031203 0.010200371 -0.014063715
000090 ea 59 f0 3c 42 21 d4 3b a3 45 35 bc 42 01 89 3a
       0.02933975 0.006473691 -0.011063966 0.0010452645
0000a0 2f cf 92 bc 60 8e 6d bb 11 8e 8e 3c c6 58 85 bc
       -0.017921058 -0.0036248192 0.017401727 -0.016277682
0000b0 e9 96 84 3a d0 b6 75 bc dd 95 fd bb 27 cd 27 bc
       0.0010115776 -0.014997199 -0.0077388124 -0.010241783
0000c0 c4 aa 89 3b 86 fa d1 3c d2 0c f7 3b 9c c3 6c bc
       0.004201265 0.025632154 0.00753937 -0.014450934
0000d0 32 50 01 3d d3 81 41 bc a1 97 c1 bb c5 cc f4 bb
       0.03157062 -0.011810738 -0.005907968 -0.0074706995
0000e0 a0 0d 45 3b 63 80 8c bc c5 eb de 3c e0 7e 5a 3c
       0.0030067936 -0.017151063 0.027212033 0.013335913
0000f0 ef f4 1c 3b 5f 2a ca bc bd c5 41 3c b9 c9 24 3c
       0.0023949703 -0.024678407 0.01182693 0.01005786
000100 ed c3 7e bb 45 b5 66 3c ba 6a 02 bd 35 2d 3f 3c
       -0.0038874105 0.014081304 -0.031840064 0.011668493
000110 b8 27 ac bc ac 71 9f 3c 9f b0 07 3d a5 b1 b2 3c
       -0.021015033 0.019463383 0.033127423 0.021813223
000120 f1 9d c9 3c 19 1d f0 bb 6e aa 5e 3c c9 ea 8b 3b
       0.024611445 -0.0073276875 0.013590438 0.004269932
000130 b9 d9 83 bc 09 0c fd 3b aa 61 87 bc 8c dc 99 bc
       -0.01609503 0.007722382 -0.016526062 -0.018781923
000140 70 04 0f bc de 9e f3 3b 54 a4 47 3a 20 4a ad bc
       -0.008729085 0.00743471 0.00076157344 -0.02115351
000150 0c 3c 9f bb 85 d0 c5 3c 3d d2 db bc 6b 5e 49 ba
       -0.004859453 0.024147281 -0.026833648 -0.0007681611
000160 99 48 04 bd 20 4a 49 bb 7b ee 6d bc 11 b3 b0 3b
       -0.032295797 -0.0030714348 -0.01452219 0.00539244
000170 bf 3b 4f 3c 07 5f 93 bc d7 db a2 3c a4 cc 93 b9
       0.012648522 -0.017989649 0.019880218 -0.00028190494
000180 62 65 89 bb 54 f3 85 3c e4 df 14 bd 13 43 82 bc
       -0.004192994 0.01635138 -0.03634633 -0.015901124
000190 82 0f db bc fc f1 78 bb 00 aa 95 3c 40 f6 0b bd
       -0.026740793 -0.003798603 0.018269539 -0.03417039
0001a0 02 c4 ab 3c 58 91 b6 3c 94 00 03 3c 19 46 68 3c
       0.020967487 0.022286102 0.007995743 0.014176869
0001b0 19 51 69 3b 0f a9 1a bc 3d 35 66 bc 8e 26 88 bb
       0.0035601316 -0.009439721 -0.014050779 -0.0041549867
0001c0 39 bb 26 bc ac f7 eb 3a 85 1d bf bb 9e 1b e9 3c
       -0.010176473 0.0018002889 -0.0058323764 0.028455552
0001d0 c2 f8 c2 ba 27 4e 49 b7 df df 34 bc 04 b0 d7 bc
       -0.0014875161 -1.199873e-05 -0.011039703 -0.026329048
0001e0 bf d9 5b 3c 13 e9 5a 3c 6f 7c 82 3c 7c a2 bb 3c
       0.013418614 0.013361233 0.015928475 0.022904627
0001f0 3b 44 9a bc b4 60 b4 3c e3 60 63 3c 74 c2 48 3a
       -0.018831363 0.022018768 0.01387808 0.00076583703
000200 76 c4 d5 bc cb bc ee bb 72 10 80 3c 91 0b d0 3b
       -0.026094656 -0.0072856895 0.015632842 0.006349035
000210 ff 3e a6 3c 8a 89 1b bb c0 3a f0 bc 8d a5 59 3b
       0.02029371 -0.0023733103 -0.02932489 0.0033210248
000220 fd 86 c7 3c f3 50 9f 3a 85 d3 7b ba 96 05 1f 3c
       0.02435636 0.0012154862 -0.0009606409 0.009705922
000230 b9 e2 be bc 66 3f a5 bc 8a a4 f8 3c c5 27 ab 3c
       -0.02330147 -0.020171832 0.030351896 0.020892987
000240 cb e6 9a 3c b2 0d 9e 3a 7b 8e 61 3c 4e bc 2d 3c
       0.018908879 0.0012058525 0.01376688 0.010603977
000250 ed a4 81 3c d9 ed d5 3b 4c 41 bd bb e5 a4 e1 39
       0.015825713 0.006528598 -0.0057756063 0.000430382
000260 f5 35 9f bb 32 32 1e bc 33 0f 39 bc a8 84 74 3c
       -0.004858727 -0.009655522 -0.011295128 0.014924206
000270 4e a5 01 bc 5f 73 c0 3c 48 22 e5 bc d7 1b a5 bc
       -0.007912947 0.023492513 -0.027970448 -0.020154877
000280 06 b1 6c 3c 73 7c 65 bc 9b f8 6c 3c 49 24 00 3d
       0.014446503 -0.014006722 0.014463569 0.031284604
000290 aa 00 de 3c c9 20 10 bb b7 9b ca 3c 8d c6 fc 3c
       0.027099926 -0.0021992198 0.024732454 0.030856395
0002a0 c4 f4 5c 39 9c 5c 9f 3c 67 cc 9c 3a 4c 18 44 ba
       0.00021072017 0.01945334 0.0011962772 -0.0007480427
0002b0 75 9f 19 3c 63 b7 8e bb 3c ae a5 3c 52 23 bb 3c
       0.009376396 -0.0043553575 0.020224683 0.02284399
0002c0 2f 40 3a bb a2 d0 24 bc 90 2f 50 bc 8f 92 f0 bc
       -0.0028419604 -0.010059508 -0.012706652 -0.02936676
0002d0 df 23 42 3c 51 c1 05 bc 02 41 2d 3c e6 43 aa 3c
       0.011849373 -0.008163766 0.010574581 0.02078433
0002e0 00 e7 6a bc ba 98 48 3c 12 58 55 bb 7a 24 e0 bc
       -0.014337301 0.012243444 -0.0032553715 -0.027361143
0002f0 96 cb 9a 3c e1 61 c3 bb f1 58 6f 3c 20 2f d4 bc
       0.018895905 -0.005962596 0.014608608 -0.025901377
000300 c2 58 70 3c b2 e3 af 3c 93 0b dd bc fd 41 53 3b
       0.014669599 0.021470878 -0.026983058 0.0032235377
000310 9e b5 45 3c 44 f3 1d bc bf 4c 05 3c c4 70 80 bc
       0.012067227 -0.009640519 0.0081359735 -0.01567877
000320 ca ed 75 bc 49 2f 2b 3c 84 88 b2 bb cd 9b b3 bb
       -0.015010307 0.010448285 -0.005448403 -0.0054812194
000330 be 39 86 bc d8 a6 73 3b a7 c2 ad 3c d0 45 b8 3c
       -0.016384955 0.0037178304 0.021210982 0.022494227
000340 c8 3f 96 bb ec 7e 8a 3c b5 c4 a9 bc a5 fe 8e bb
       -0.00458524 0.016906224 -0.02072368 -0.004363852
000350 29 d9 b4 bc 16 8e 64 3c ff d9 29 3c 5c 61 97 bc
       -0.022076206 0.013949892 0.010366916 -0.018479042
000360 84 31 8c 38 b7 c5 04 3d 1e 25 6a bc 6e 39 3f bc
       6.684943e-05 0.032415118 -0.014291076 -0.011671407
000370 5f 48 83 bc 19 10 55 3c 4b cf 88 bc f1 71 93 3c
       -0.01602572 0.013004326 -0.016700407 0.017998667
000380 7b b6 cf 3b ed 58 ba bc 15 09 09 bb 82 10 9e bc
       0.006338892 -0.022747481 -0.0020909954 -0.01929498
000390 3b e0 7f bc 93 fe d0 bc 16 b1 5b bb 7b ee e4 3c
       -0.015617426 -0.025512015 -0.00335223 0.027945748
0003a0 4f c1 dc 3c be c8 c0 bc 3b f9 9f bc 2e 7c b4 3c
       0.026947645 -0.023533221 -0.019528022 0.02203187
0003b0 ee 32 df 3b 92 07 8d 3c 9a 13 01 3b 18 d6 b0 3c
       0.006811491 0.017215524 0.0019695521 0.021586463
0003c0 64 b6 22 bc 4f 65 7d bc 56 e1 59 bc 0f 72 05 bc
       -0.009931181 -0.015466048 -0.013298353 -0.0081448695
0003d0 00 07 8d bc 17 47 1f b9 f0 7a fa bb 72 24 85 bc
       -0.017215252 -0.00015189905 -0.00764405 -0.01625273
0003e0 a5 0b e7 bc ce f7 7b ba ce 9d a5 bc 73 50 bb bb
       -0.028203795 -0.0009611816 -0.020216849 -0.0057163774
0003f0 dd 22 11 bb 55 68 0e bd 07 1a 67 3b 26 58 66 bc
       -0.0022146024 -0.034767468 0.0035263316 -0.014059102

conv_layer.6.bias f4 [4]
000000 b6 41 04 3d a1 ab ea 3c bc d9 a1 3c be 92 54 3c
       0.03228923 0.028646292 0.019757144 0.012974439
