Final Final/New Loss/model.pt (torch, 16367 bytes, 17 tensors)

conv_layer.weight f4 [8, 1, 3, 3]
0.11467603 -0.22657369 0.05519732 -0.20390499 -0.08972746 -0.37225172 -0.22497214 0.351057
0.29263777 -0.3450846 0.00019426468 0.23883015 0.28337944 -0.35024816 -0.2803839 0.23689489
-0.052870214 -0.22694242 0.1796544 0.053503055 0.1508576 -0.24770631 -0.1190471 0.18145642
-0.15360853 -0.083673775 0.2691013 -0.11700501 -0.13249633 0.20885415 -0.06809451 -0.23078243
-0.03635052 -0.012027629 0.040260095 0.21909451 -0.29779238 0.08062878 0.2653314 0.20966132
0.14245787 0.23820958 0.2316405 -0.35816982 0.25692543 -0.33313408 0.16180047 -0.23208097
0.2765914 -0.03140074 0.14783484 0.18274038 -0.028913043 -0.08089915 -0.12327989 -0.010648458
0.3019269 0.0053612716 -0.32093173 0.10591091 -0.28654155 0.07381686 -0.12079911 -0.16377223
0.26141277 -0.040690728 -0.37361166 -0.026831215 0.10864846 0.22386144 -0.119398125 0.11106627
00000000: 44db ea3d ef02 68be 9616 623d 78cc 50be
00000010: 08c3 b7bd c797 bebe 195f 66be bebd b33e
00000020: 9ed4 953e eeae b0be 87b3 4b39 e48f 743e
00000030: 1c17 913e ba53 b3be 7b8e 8fbe 9394 723e
00000040: 708e 58bd 9863 68be 53f7 373e 0526 5b3d
00000050: 6a7a 1a3e b9a6 7dbe f7ce f3bd b6cf 393e
00000060: 8e4b 1dbe 285d abbd a5c7 893e 53a0 efbd
00000070: 1ead 07be dddd 553e 2275 8bbd 3b52 6cbe
00000080: 48e4 14bd 880f 45bc c5e7 243d 505a 603e
00000090: 3e78 98be b420 a53d 84d9 873e 75b1 563e
000000a0: 7ae0 113e 36ed 733e 2b33 6d3e 0962 b7be
000000b0: bb8b 833e 8d90 aabe 06af 253e a2a6 6dbe
000000c0: 639d 8d3e 109e 00bd 0462 173e 4b20 3b3e
000000d0: 0cdb ecbc 74ae a5bd 2b7a fcbd df76 2ebc
000000e0: 2a96 9a3e 9bad af3b 2a51 a4be d2e7 d83d
000000f0: 93b5 92be 4b2d 973d 8665 f7bd e8b3 27be
00000100: e5d7 853e 52ab 26bd 074a bfbe 23cd dbbc
00000110: 1583 de3d ef3b 653e 0187 f4bd b676 e33d

conv_layer.bias f4 [8]
-0.018484276 0.26800534 0.1399668 -0.25363523 -0.1233646 0.18555485 0.29687572 -0.051650684
00000000: 566c 97bc ff37 893e 7553 0f3e 7adc 81be
00000010: 94a6 fcbd 1702 3e3e 1800 983e ab8f 53bd

conv_block.0.0.weight f4 [4, 8, 3, 3]
0.02975317 -0.028633863 -0.018612519 0.14782996 -0.056671996 0.14257038 0.037812162 -0.022827258
0.03859999 -0.12276966 -0.017601183 -0.10346791 0.064322315 0.17006885 -0.08857357 -0.15298077
-0.019223178 -0.11290108 -0.09212943 0.0015424135 -0.060441867 0.073511004 0.061759483 0.0406234
-0.087120645 0.08545086 -0.1048194 -0.08162647 -0.034326166 -0.04258139 -0.06601372 0.032033626
0.00062569877 0.09158057 0.0015668536 -0.07004804 -0.06113615 0.106839746 -0.094710104 -0.055997647
0.11037299 -0.10005289 -0.12515226 -0.09037704 0.10352304 0.04868001 0.06858405 -0.07749193
0.01780828 -0.10287663 -0.06854081 0.106812805 -0.014262239 -0.037050273 0.06614457 -0.20028135
0.13994366 -0.03724762 -0.010499395 0.09165587 -0.10333424 0.1512266 -0.23351055 -0.0043820897
0.0031596485 0.025143633 -0.032865923 0.093627386 0.13134345 0.11868508 0.0026891006 -0.05943282
-0.13203678 -0.088201225 -0.10087151 0.11083891 0.07085725 -0.06319984 -0.13970515 -0.04797268
0.0040490236 -0.07389919 -0.08053887 -0.11596819 -0.009721892 0.21220505 -0.095050454 0.056686502
-0.020920513 0.070209 0.013328968 -0.018195745 -0.06337196 -0.13439906 0.078511864 0.06377418
-0.0057673925 -0.0892817 -0.09378626 -0.044784166 -0.024794169 -0.112745725 -0.05185687 -0.0915159
0.011036779 0.08809618 -0.09122091 -0.0368359 -0.13509768 0.12092778 0.0975079 -0.036867082
-0.10801414 -0.010935676 -0.12190781 -0.09297464 0.12465416 -0.025351785 0.064590685 0.09806622
-0.018455006 0.022711217 -0.1107227 0.12425279 -0.08787894 0.09987987 0.040332846 -0.06993733
0.16551103 -0.031725176 0.17778479 -0.017772818 -0.03751053 -0.015232904 0.04501624 0.105211206
-0.08712423 0.060371555 -0.009111935 -0.020868171 0.03598393 0.014183779 -0.10326492 0.09386732
0.119467884 0.0015998792 -0.022282297 -0.12994605 0.014298577 -0.027858095 0.0067237285 -0.0315644
-0.08320519 0.005531258 0.029057385 -0.062935315 0.03762348 0.070861645 0.10230679 -0.0038251348
0.0874667 -0.10601249 0.08211154 0.053345952 0.10376944 -0.12086464 0.047007762 0.10672695
0.031099545 -0.05285914 0.025716165 -0.033711556 0.015885556 0.019350758 0.034929063 -0.12288145
-0.076045476 0.03804766 0.0009765263 0.032640904 -0.034539998 0.00072810333 -0.048997115 -0.08692226
-0.049957268 0.034518503 0.04423279 -0.0046908287 -0.0025594898 0.014265612 0.07390924 -0.03375117
0.06862094 -0.10829332 0.09539647 -0.14599882 0.09498482 -0.020491524 -0.05455062 0.1056269
-0.023540957 -0.07087791 0.012825997 0.14957343 0.068387344 -0.05811968 0.07755119 0.019559506
0.06618382 -0.11194589 0.030851232 -0.15242304 -0.08487277 0.06021058 -0.017613577 -0.095937215
-0.01221307 -0.11587328 -0.09596131 0.040880628 0.10643794 -0.013714098 -0.11223859 -0.008012234
-0.0710814 -0.02406884 -0.072489955 -0.0017744178 -0.010554397 0.1254608 -0.06512176 0.089281075
-0.15825073 -0.004311979 -0.037774213 -0.07444773 -0.0041286433 -0.055152465 -0.0056461 -0.055185996
-0.023526177 0.0041893027 -0.030069705 0.02819164 0.026533997 -0.068257 -0.14252733 -0.064527385
0.01701064 -0.017241048 -0.07681989 0.00010713345 -0.04787883 0.09575548 -0.03678209 0.07983232
00000000: ecbc f33c 9091 eabc 4879 98bc bd60 173e
00000010: e520 68bd f8fd 113e ede0 1a3d 3b00 bbbc
00000020: 061b 1e3d a96e fbbd 5b30 90bc fce6 d3bd
00000030: 6bbb 833d 8726 2e3e 0f66 b5bd fea6 1cbe
00000040: ed79 9dbc ae38 e7bd 5bae bcbd cf2a ca3a
00000050: e491 77bd f08c 963d 83f7 7c3d b964 263d
00000060: 4f6c b2bd dc00 af3d 8eab d6bd c72b a7bd
00000070: 9899 0cbd d369 2ebd 3432 87bd b135 033d
00000080: ef05 243a 988e bb3d e25e cd3a 5975 8fbd
00000090: e669 7abd ccce da3d 5ff7 c1bd ca5d 65bd
000000a0: 3c0b e23d 88e8 ccbd ea27 00be 9917 b9bd
000000b0: e303 d43d b164 473d cb75 8c3d 17b4 9ebd
000000c0: ace2 913c fcb0 d2bd 205f 8cbd acc0 da3d
000000d0: 2bac 69bc 07c2 17bd ce76 873d 8e16 4dbe
000000e0: 644d 0f3e f690 18bd a805 2cbc 13b6 bb3d
000000f0: e7a0 d3bd 25db 1a3e 641d 6fbe a297 8fbb
00000100: 1b12 4f3b 05fa cd3c 6b9e 06bd b7bf bf3d
00000110: e67e 063e 2a11 f33d 9f3b 303b d46f 73bd
00000120: a634 07be d8a2 b4bd b995 cebd 83ff e23d
00000130: 9b1d 913d eb6e 81bd de0e 0fbe 007f 44bd
00000140: acad 843b 7558 97bd 90f1 a4bd bb80 edbd
00000150: 9248 1fbc 484c 593e d0a9 c2bd 1b30 683d
00000160: 7f61 abbc bcc9 8f3d be61 5a3c 3e0f 95bc
00000170: 28c9 81bd e89f 09be d4ca a03d 0a9c 823d
00000180: 65fc bcbb 53d9 b6bd 0313 c0bd 9a6f 37bd
00000190: 241d cbbc 3be7 e6bd df67 54bd b06c bbbd
000001a0: 9bd3 343c c56b b43d 07d2 babd 3ee1 16bd
000001b0: 0c57 0abe fca8 f73d 39b2 c73d f001 17bd
000001c0: 8436 ddbd 8d2b 33bc cdaa f9bd 7d69 bebd
000001d0: ae4a ff3d 8cae cfbc 1f48 843d f1d6 c83d
000001e0: f42e 97bc e00c ba3c 95c2 e2bd 3f78 fe3d
000001f0: e0f9 b3bd d18d cc3d 0e34 253d 4e3b 8fbd
00000200: b97b 293e 42f2 01bd 370d 363e 4d98 91bc
00000210: a4a4 19bd 6e93 79bc f362 383d f978 d73d
00000220: 306e b2bd 2a48 773d 3a4a 15bc baf3 aabc
00000230: e363 133d 1563 683c 8f7c d3bd 823d c03d
00000240: 94ab f43d 0ab3 d13a 5d89 b6bc 9410 05be
00000250: 9444 6a3c a936 e4bc b952 dc3b ac49 01bd
00000260: 7c67 aabd 8e3f b53b c109 ee3c 3be4 80bd
00000270: 141b 1a3d e91f 913d 3986 d13d 1daf 7abb
00000280: be21 b33d 141d d9bd 182a a83d 4981 5a3d
00000290: 1285 d43d e187 f7bd 368b 403d a993 da3d
000002a0: 79c4 fe3c d382 58bd b5aa d23c 2115 0abd
000002b0: 6d22 823c 7b85 9e3c c711 0f3d 45a9 fbbd
000002c0: bbbd 9bbd ddd7 1b3d 92fd 7f3a 78b2 053d
000002d0: d079 0dbd 30de 3e3a 33b1 48bd 4c04 b2bd
000002e0: fe9f 4cbd 4663 0d3d 712d 353d 86b5 99bb
000002f0: 1dbd 27bb 50ba 693c ba5d 973d ab3e 0abd
00000300: 2389 8c3d e3c8 ddbd 395f c33d b780 15be
00000310: 6787 c23d d7dd a7bc 7970 5fbd eb52 d83d
00000320: f7d8 c0bc 7028 91bd 2124 523c c729 193e
00000330: aa0e 8c3d e70e 6ebd 29d3 9e3d 423b a03c
00000340: 628b 873d e343 e5bd b9bb fc3c c914 1cbe
00000350: c6d1 adbd 5e9f 763d 594a 90bc bb7a c4bd
00000360: 5419 48bc f84e edbd 5d87 c4bd 7272 273d
00000370: 22fc d93d 19b1 60bc 59dd e5bd bf45 03bc
00000380: 2093 91bd 042c c5bc 9d75 94bd 9593 e8ba
00000390: 59ec 2cbc cc78 003e 8f5e 85bd ffd8 b63d
000003a0: 7b0c 22be 804b 8dbb 22b9 1abd 0d78 98bd
000003b0: 9249 87bb 8de7 61bd eb02 b9bb b60a 62bd
000003c0: f8b9 c0bc 6b46 893b be54 f6bc 27f2 e63c
000003d0: d35d d93c 53ca 8bbd aff2 11be ef26 84bd
000003e0: e659 8b3c 193d 8dbc bf53 9dbd d5ac e038
000003f0: 981c 44bd 731b c43d d1a8 16bd 217f a33d

conv_block.0.0.bias f4 [4]
-0.03948855 -0.098929025 -0.08910512 -0.057695184
00000000: bfbe 21bd 4d9b cabd bf7c b6bd c951 6cbd

conv_block.1.0.weight f4 [4, 8, 3, 3]
0.04063386 -0.0034247704 0.02913964 -0.014685027 -0.14313672 0.065002464 -0.10233826 -0.07166873
-0.08395084 0.09638927 0.18492968 -0.10050337 -0.0049480805 -0.23974474 -0.098670885 0.053185377
0.007914748 0.05246191 0.061028473 -0.27977222 0.14281033 -0.019828519 -3.718032e-05 -0.09185632
0.034410633 -0.099559516 0.17103584 -0.03869968 0.0027301412 -0.18293247 0.10211198 -0.19551456
0.033901695 0.05818988 0.13406655 0.064062804 -0.31023288 0.047158774 0.05596062 0.0046764766
0.06914407 -0.1349421 0.00022436278 0.064774126 -0.1663758 0.09852142 -0.02935891 0.09044322
-0.06284648 0.19248754 0.053674262 0.011608818 0.03615876 -0.09944565 0.09005167 0.07065825
-0.12422437 -0.040682763 -0.11771109 0.011965991 -0.123776965 0.15769425 0.063198075 -0.017197547
0.023839505 0.1419311 -0.05571191 -0.03456546 -0.057400048 -0.014589038 0.042569194 -0.040365748
0.072570704 -0.073576406 0.07067454 -0.028494427 -0.035863854 -0.054632943 -0.02816001 0.0794476
0.12937437 0.08108637 0.09652746 0.019952804 0.021486327 -0.04019671 0.124597125 0.13914342
0.23056938 0.113372594 -0.04473213 0.029217776 0.049152467 0.25719547 0.004902383 0.015368695
0.13193071 -0.24925563 0.07953194 -0.10143759 0.2150137 0.08130354 -0.09792395 -0.13234437
0.24509142 0.07535341 0.32976273 0.00541811 -0.16400658 0.18135223 0.01058215 0.1733334
0.13312072 -0.18405165 -0.161412 -0.10887887 -0.06750943 0.0028083362 -0.05556857 0.023937115
0.13369122 0.022659464 -0.064206555 -0.040708322 -0.14296675 0.029614286 0.12364652 0.009267581
-0.007933643 -0.040656853 -0.027316619 0.008654308 -0.08529057 0.09982105 0.027136307 0.072429664
-0.028866805 0.057228226 0.049520094 0.1434277 -0.044574276 -0.031425126 -0.100096926 0.12080858
0.029505318 -0.010617467 -0.012959005 0.02518418 0.029903505 -0.048157763 -0.034903042 -0.02186447
-0.06344906 -0.11267703 -0.08195804 -0.018647388 0.079191335 -0.00025835307 -0.012736581 0.025796006
0.08724048 0.013579042 0.31224552 -0.03858258 0.026982639 0.023612017 -0.33134714 0.075782694
0.07904256 -0.12986891 -0.13147043 -0.1236775 0.050277423 -0.012126327 0.10334457 -0.13106777
-0.110077046 -0.09856895 0.019509599 -0.0044523603 -0.04061183 -0.06118247 0.068658665 0.0051332293
-0.13529141 0.2904793 0.012098223 0.033933748 0.041263968 0.051380843 0.096918 -0.06275171
-0.11253157 -0.12983134 0.06840918 -0.09809002 -0.14354862 -0.10277528 -0.002886526 0.04445314
-0.037557054 0.007848372 -0.05413941 0.05967109 -0.012458378 0.064243376 0.107760474 0.023731824
-0.059774294 -0.11596055 0.0010517724 0.16374306 0.14823933 0.028092401 0.068004176 0.08569583
-0.13003345 -0.06232032 0.0604206 -0.14488243 0.15231226 0.08547413 0.039977126 -0.023072558
-0.035756987 -0.06692233 0.007368041 0.11065487 0.031133791 0.0844863 -0.012041636 0.03116563
0.12648928 0.041425027 0.24479142 0.05825195 -0.24674508 -0.07847222 -0.027841127 -0.16169675
0.14831543 0.057354085 0.052246384 -0.067407824 0.053152002 -0.00023168906 -0.15015624 6.826783e-05
0.046015985 0.12519771 0.1763829 -0.14566685 0.1428787 0.10228006 -0.095920816 0.16997476
00000000: b16f 263d 1d72 60bb 41b6 ee3c 7899 70bc
00000010: 6f92 12be 0320 853d b996 d1bd 0ec7 92bd
00000020: 6bee abbd bd67 c53d 355e 3d3e b6d4 cdbd
00000030: 8223 a2bb a57f 75be f613 cabd e9d8 593d
00000040: dcac 013c 4de2 563d fef8 793d 4e3e 8fbe
00000050: df3c 123e 6b6f a2bc 11f2 1bb8 2b1f bcbd
00000060: 2af2 0c3d dce5 cbbd 0524 2f3e 8e83 1ebd
00000070: 2bec 323b a652 3bbe 1620 d13d f834 48be
00000080: 81dc 0a3d 8358 6e3d be48 093e 5c33 833d
00000090: d8d6 9ebe 8f29 413d f736 653d 213d 993b
000000a0: 689b 8d3d 432e 0abe ed42 6b39 4ca8 843d
000000b0: 6b5e 2abe 99c5 c93d 1982 f0bc 4c3a b93d
000000c0: a8b5 80bd 741b 453e 8bd9 5b3d e932 3e3c
000000d0: 351b 143d 29aa cbbd 036d b83d 46b5 903d
000000e0: 5969 febd f8a2 26bd 8312 f1bd 010d 443c
000000f0: c77e fdbd 9a7a 213e fe6d 813d dfe1 8cbc
00000100: 114b c33c 6356 113e 2c32 64bd 8394 0dbd
00000110: 501c 6bbd dc06 6fbc 095d 2e3d 8e56 25bd
00000120: f39f 943d 3aaf 96bd d0bd 903d 256d e9bc
00000130: fae5 12bd cbc6 5fbd d2af e6bc 6cb5 a23d
00000140: b77a 043e 9c10 a63d 30b0 c53d 1074 a33c
00000150: 1804 b03c 4ea5 24bd c72c ff3d 9d7b 0e3e
00000160: 611a 6c3e e42f e83d 0a39 37bd 1e5a ef3c
00000170: 1954 493d 20af 833e 2ba4 a03b fbcc 7b3c
00000180: d818 073e de3c 7fbe a4e1 a23d 83be cfbd
00000190: 8d2c 5c3e 7882 a63d 5a8c c8bd 4885 07be
000001a0: 3ff9 7a3e e352 9a3d a9d6 a83e 678a b13b
000001b0: 57f1 27be 66b4 393e c160 2d3c 507e 313e
000001c0: cc50 083e 0978 3cbe 3049 25be e3fb debd
000001d0: 6242 8abd 100c 383b de9b 63bd c517 c43c
000001e0: 5ae6 083e 57a0 b93c ba7e 83bd c5bd 26bd
000001f0: e065 12be a999 f23c 633a fd3d 0dd7 173c
00000200: 1cfc 01bc cd87 26bd 1ac7 dfbc ccca 0d3c
00000210: d3ac aebd fb6e cc3d f64c de3c 0156 943d
00000220: 147a ecbc 2568 6a3d 95d5 4a3d b6de 123e
00000230: 8493 36bd a2b7 00bd 9eff ccbd 7d6a f73d
00000240: 23b5 f13c e2f4 2dbc 0252 54bc 0e4f ce3c
00000250: 32f8 f43c 1341 45bd 7ef6 0ebd 1e1d b3bc
00000260: 95f1 81bd 37c3 e6bd 9ed9 a7bd 68c2 98bc
00000270: 112f a23d 9073 87b9 18ad 50bc 2552 d33c
00000280: 23ab b23d a17a 5e3c a5de 9f3e c408 1ebd
00000290: b20a dd3c fd6d c13c 55a6 a9be f533 9b3d
000002a0: 11e1 a13d 5bfc 04be 2fa0 06be a14a fdbd
000002b0: b3ef 4d3d 80ad 46bc 51a6 d33d a136 06be
000002c0: 1370 e1bd 85de c9bd 98d2 9f3c 1be5 91bb
000002d0: 9758 26bd 789a 7abd ea9c 8c3d a634 a83b
000002e0: d589 0abe b4b9 943e a037 463c 1dfe 0a3d
000002f0: 6804 293d b874 523d f27c c63d f883 80bd
00000300: f476 e6bd 82f2 04be 1d1a 8c3d 6ce3 c8bd
00000310: 69fe 12be d97b d2bd df2b 3dbb 7f14 363d
00000320: 6dd5 19bd 7596 003c 49c1 5dbd ac69 743d
00000330: 3a1e 4cbc 0892 833d 86b1 dc3d 3e69 c23c
00000340: e4d5 74bd ba7c edbd a0db 893a 43ac 273e
00000350: 0dcc 173e 0922 e63c c645 8b3d 4c81 af3d
00000360: 7d27 05be 9843 7fbd 977b 773d 0f5c 14be
00000370: bff7 1b3e 100d af3d 0ebf 233d a902 bdbc
00000380: eb75 12bd 930e 89bd 9c6f f13b 059f e23d
00000390: 4b0c ff3c 2707 ad3d 484a 45bc 104f ff3c
000003a0: 6886 013e 4aad 293d 9aaa 7a3e 9999 6e3d
000003b0: beaa 7cbe 0bb6 a0bd 1313 e4bc d593 25be
000003c0: 00e0 173e 1eec 6a3d 4e00 563d 1d0d 8abd
000003d0: eab5 593d 8ff1 72b9 8fc2 19be 032b 8f38
000003e0: 427b 3c3d d433 003e b89d 343e b129 15be
000003f0: cb4e 123e 3578 d13d 2272 c4bd dd0d 2e3e

conv_block.1.0.bias f4 [4]
0.04906174 -0.0894651 0.03473866 0.0032557654
00000000: f7f4 483d 7a39 b7bd 204a 0e3d ae5e 553b

conv_block.2.0.weight f4 [4, 8, 3, 3]
-0.002733886 -0.04188049 -0.019999595 0.13562356 0.04802347 -0.11369127 0.044531982 -0.19639377
0.072737694 0.026040157 -0.07408864 0.09436007 -0.07214087 0.051002067 0.03977614 0.065768
-0.10469511 -0.015214194 -0.07049206 0.025891602 0.07313971 0.09220551 -0.088216044 -0.05609944
-0.1439807 -0.040332705 0.0958533 -0.10525097 -0.11678872 0.0027554026 -0.009501478 -0.042228565
0.106647745 -0.10826218 0.10264398 0.08196182 0.1589617 0.12332064 0.014868368 -0.06901855
-0.113813385 0.20694093 -0.09045978 0.28383756 0.10805176 -0.034670033 0.050468087 -0.06926252
-0.119107395 -0.18048213 0.01698877 0.105784625 0.00037705197 0.058586806 -0.24394037 0.006263308
0.018136656 -0.09622049 -0.061708 0.010459328 0.08532217 -0.048549436 -0.14249934 -0.071896315
0.114073955 0.08979541 -0.038768716 -0.014592258 -0.12043528 0.034941096 -0.030690197 -0.24092428
-0.11791057 0.03623401 0.05089958 -0.07534246 -0.0462227 -0.03452859 -0.0052829683 -0.09705823
-0.04320725 -0.068970226 0.10265192 -0.08122261 -0.011272506 -0.052447245 -0.16636813 -0.06290387
-0.15636683 -0.037940536 0.05989944 0.08200582 -0.13680117 0.018196426 0.083427705 -0.15112378
-0.08514403 -0.050103232 -0.15377246 -0.08087748 -0.046554994 -0.07144417 0.08123927 -0.07290773
0.026586669 0.11034816 0.059803054 0.03941404 0.18593134 0.013566653 0.012059585 -0.019854084
-0.068341985 0.07508094 0.086669736 0.06817694 0.1226262 0.10839528 0.03129265 -0.045048006
0.010056119 -0.11425627 0.044702094 0.09960398 -0.013582903 -0.09087266 -0.1514409 -0.0946362
0.08813039 0.016947232 -0.20010756 0.030418383 0.17150962 -0.24892959 -0.08289984 -0.06285891
-0.05404101 0.06316361 -0.09268703 0.049122058 -0.09511469 -0.16457404 0.02087759 -0.018976849
-0.07401422 0.12820259 0.036316138 0.0007383073 -0.021760212 0.13791484 0.051382296 -0.03490012
0.16050377 -0.037622258 -0.086326465 0.11886038 0.074335076 0.23355348 -0.07560976 0.06751535
-0.19494912 -0.0510792 0.04175507 -0.07658354 -0.022721607 -0.14899959 0.02267757 0.0014190847
-0.01252893 0.04711004 0.039191857 -0.06999871 -0.0053702462 0.050628666 -0.0065833237 -0.0037049728
-0.058292493 -0.086157806 0.09698343 -0.1567853 -0.038546324 -0.0523965 0.07908269 0.044308834
0.17425512 0.11754031 0.15472119 0.20695885 -0.04638949 -0.02499833 0.0010103926 0.024188945
0.006935405 0.00060099876 0.22025886 0.078507714 0.17255014 -0.079773605 -0.19545765 0.1230725
0.013126939 -0.16567959 -0.016379675 -0.14838529 -0.053125303 -0.11373142 -0.13267335 -0.0629546
-0.17859878 -0.14399616 -0.047740385 -0.08712033 0.14592668 0.11422234 0.07815572 0.060665663
-0.009154735 -0.036182046 -0.07028909 0.028707726 -0.060762785 0.16958316 -0.04705535 -0.07732244
-0.03503198 0.13042709 -0.032076053 -0.13937318 -0.007610242 0.017345916 0.20617986 -0.0010807697
-0.008014885 -0.13705379 -0.021759247 -0.020492347 0.032055493 0.05577387 0.0071947714 0.0769016
0.13942109 -0.13016704 0.09105537 0.08280189 0.033475976 -0.0010793114 0.071535476 -0.019182904
0.112777814 0.0176198 0.10128342 0.09350194 0.011016653 0.027865766 0.10608774 -0.0007025017
00000000: ff2a 33bb e08a 2bbd 31d6 a3bc e7e0 0a3e
00000010: 42b4 443d f8d6 e8bd 2b67 363d 731b 49be
00000020: 80f7 943d 2b52 d53c c9bb 97bd da3f c13d
00000030: 98be 93bd 8be7 503d 4eec 223d 60b1 863d
00000040: 646a d6bd f444 79bc 245e 90bd a01a d43c
00000050: 46ca 953d 3ed6 bc3d 9daa b4bd 87c8 65bd
00000060: ad6f 13be e833 25bd bc4e c43d d28d d7bd
00000070: ed2e efbd fc93 343b 16ac 1bbc dcf7 2cbd
00000080: 226a da3d 90b8 ddbd 0237 d23d 99db a73d
00000090: dbc6 223e 888f fc3d 759a 733c 9959 8dbd
000000a0: fe16 e9bd 53e8 533e fa42 b9bd 2853 913e
000000b0: 3e4a dd3d 2a02 0ebd a0b7 4e3d 82d9 8dbd
000000c0: 94ee f3bd 4fd0 38be 082c 8b3c 9ca5 d83d
000000d0: 0faf c539 b8f8 6f3d 81cb 79be 703c cd3b
000000e0: 5393 943c 400f c5bd 87c1 7cbd 9a5d 2b3c
000000f0: 64bd ae3d c6db 46bd 59eb 11be 603e 93bd
00000100: 9b9f e93d a8e6 b73d f2cb 1ebd 5e14 6fbc
00000110: c6a6 f6bd 651e 0f3d 026a fbbc dbb4 76be
00000120: 197b f1bd 1d6a 143d 147c 503d 264d 9abd
00000130: 0454 3dbd da6d 0dbd c01c adbb 77c6 c6bd
00000140: 16fa 30bd 4340 8dbd 2b3b d23d 0a58 a6bd
00000150: 51b0 38bc ecd2 56bd 685c 2abe bfd3 80bd
00000160: a01e 20be 8967 1bbd 1d59 753d abf2 a73d
00000170: 9b15 0cbe ac10 953c 25dc aa3d 31c0 1abe
00000180: fe5f aebd 0c39 4dbd 8776 1dbe 18a3 a5bd
00000190: 73b0 3ebd 5251 92bd c660 a63d a650 95bd
000001a0: 49cc d93c 37fe e13d 0cf4 743d 9e70 213d
000001b0: c964 3e3e ab46 5e3c 9195 453c 08a5 a2bc
000001c0: e2f6 8bbd 09c4 993d e77f b13d 5aa0 8b3d
000001d0: 7223 fb3d 58fe dd3d b92c 003d 4284 38bd
000001e0: 6cc2 243c 31ff e9bd 8b19 373d 2cfd cb3d
000001f0: d38a 5ebc 721b babd 5313 1bbe a0d0 c1bd
00000200: b57d b43d ecd4 8a3c ffe8 4cbe f92f f93c
00000210: 38a0 2f3e 66e7 7ebe 64c7 a9bd 2cbc 80bd
00000220: 1b5a 5dbd ec5b 813d b3d2 bdbd 3634 493d
00000230: 7ecb c2bd 1986 28be 7b07 ab3c 5675 9bbc
00000240: c494 97bd 8a47 033e 3bc0 143d f78a 413a
00000250: 7942 b2bc 8c39 0d3e 3e76 523d 6ef3 0ebd
00000260: 1a5b 243e cc19 1abd eecb b0bd 126d f33d
00000270: fd3c 983d a528 6f3e 4ad9 9abd 7d45 8a3d
00000280: bea0 47be 6c38 51bd 5d07 2b3d d5d7 9cbd
00000290: aa22 babc 5993 18be 50c6 b93c 9500 ba3a
000002a0: 2446 4dbc 75f6 403d a487 203d 7c5b 8fbd
000002b0: e4f8 afbb 0160 4f3d ecb8 d7bb 21cf 72bb
000002c0: 1cc4 6ebd 8173 b0bd 409f c63d 538c 20be
000002d0: c0e2 1dbd b69d 56bd 1bf6 a13d 2e7d 353d
000002e0: ef6f 323e f9b8 f03d 3b6f 1e3e 05ed 533e
000002f0: e802 3ebd 4cc9 ccbc 266f 843a e527 c63c
00000300: 6542 e33b 588c 1d3a 8a8b 613e a7c8 a03d
00000310: fcb0 303e 5860 a3bd 0d26 48be 6f0d fc3d
00000320: 5f12 573c e9a7 29be ab2e 86bc 50f2 17be
00000330: eb99 59bd 05ec e8bd 86db 07be 57ee 80bd
00000340: 99e2 36be bb73 13be 6c8b 43bd 256c b2bd
00000350: ce6d 153e 67ed e93d 1b10 a03d 8f7c 783d
00000360: befd 15bc a033 14bd baf3 8fbd 772c eb3c
00000370: 66e2 78bd 35a7 2d3e 1cbd 40bd 3a5b 9ebd
00000380: b27d 0fbd ae8e 053e 2e62 03bd d8b7 0ebe
00000390: 565f f9bb 0619 8e3c d020 533e 9da8 8dba
000003a0: dd50 03bc d457 0cbe 7340 b2bc 91df a7bc
000003b0: 9f4c 033d 2473 643d 1ec2 eb3b 967e 9d3d
000003c0: 67c4 0e3e 824a 05be 3d7b ba3d 0a94 a93d
000003d0: 1b1e 093d ae77 8dba 3181 923d 7725 9dbc
000003e0: 0ef8 e63d 6657 903c af6d cf3d f27d bf3d
000003f0: 317f 343c bf46 e43c 8744 d93d 1728 38ba

conv_block.2.0.bias f4 [4]
0.00720025 0.092616454 -0.014997639 -0.045154992
00000000: 13f0 eb3b b2ad bd3d a8b8 75bc 71f4 38bd

conv_block.3.0.weight f4 [4, 8, 3, 3]
-0.030036781 0.06777259 -0.013796261 -0.11322445 -0.110147275 -0.14009833 -0.017489793 -0.12664337
0.11420319 0.15036248 0.10904917 -0.043638535 0.1499593 -0.061746392 0.07005119 0.05716752
-0.017628241 0.17385888 -0.17685819 0.04610959 0.089686655 0.21577498 0.26998726 -0.19782509
0.10811549 -0.16483779 0.13475378 -0.021319238 0.13434367 -0.15551639 -0.037037026 0.027715327
0.08128811 0.0016209641 0.12687324 -0.06343032 -0.10099592 -0.11700088 0.01868839 0.03516496
0.1113356 0.07349165 0.0661341 0.039917212 -0.019111482 0.05263201 0.0072572622 -0.03408007
-0.1387426 0.042029265 0.07632021 0.18614194 -0.14823118 -0.20386873 -0.011417949 0.14864577
-0.12559244 0.024512252 0.03416952 0.0523839 -0.026223447 0.12742022 -0.076056056 -0.1574448
-0.15986711 0.1342832 0.072782345 0.0011890979 0.09858992 0.17206329 0.076323986 0.023016276
-0.03148445 0.048242036 0.14224228 0.04862249 0.07446529 -0.15407164 -0.03961906 0.038933106
0.1523789 0.12086421 -0.08913501 -0.02011247 0.17754121 -0.116226 0.019726612 -0.06397022
-0.11498003 0.11011249 -0.022352047 -0.4423239 0.22727425 -0.4025868 0.08090986 0.08899765
0.044751026 0.23506178 -0.13022707 0.039491035 0.05177896 0.009209046 -0.1380058 -0.13829349
-0.059336595 -0.052823395 -0.04858037 -0.005325422 0.07059323 -0.05840355 0.012017293 -0.030556867
-0.073642805 0.106192164 0.12679031 -0.11236951 -0.086453326 -0.0798938 -0.13786097 -0.09978256
-0.22958946 0.017467417 -0.21665013 -0.3275379 0.19270124 -0.18487506 0.010582709 -0.09594783
-0.12959142 -0.05789288 -0.052949626 -0.051036756 0.1327789 0.056601748 0.01475648 0.006660526
-0.19847816 -0.025862765 0.033342052 0.05651504 0.122034945 0.0077574295 -0.06866369 -0.01833706
0.19233708 0.09009251 -0.019155428 0.034613475 0.059122954 0.18995342 0.01937155 0.13188654
-0.0033098508 -0.080883235 -0.02810955 0.054708645 0.070586085 0.05629207 -0.020125689 0.048054326
0.14546642 0.1250895 0.47198677 0.43403757 0.2707887 0.32663196 -0.088925354 0.17251904
0.0062135 0.15938772 -0.042072263 0.07548165 -0.067359015 -0.080542006 -0.17576556 0.029534318
-0.08086433 -0.099361554 -0.12102578 0.080115005 0.042380508 0.12815931 -0.045015782 0.059862442
0.11384677 -0.10236098 0.0826883 0.016342478 0.055592082 -0.27480388 -0.2682127 -0.08300392
-0.24831316 -0.08926814 0.06764205 -0.076496296 0.09837427 0.09684066 0.048381474 0.06860546
-0.07197747 0.008080228 0.111504406 -0.09739736 0.0055137468 -0.05370403 -0.062050782 0.004176958
0.00083843054 0.048521526 0.08085487 -0.11569027 0.12583242 -0.07625014 0.056642488 0.04103724
0.0016067161 0.06801247 0.022370614 -0.07766648 -0.12403146 -0.045145057 -0.057615962 -0.032625005
0.016547026 -0.07111547 0.032083236 0.048432007 -0.13934405 -0.09216362 -0.025091616 -0.0794987
-0.03806634 -0.029625751 -0.07033194 -0.02506882 -0.08983028 -0.0072825705 -0.0535248 -0.13542858
-0.21582459 -0.294023 -0.059180938 0.16914502 -0.105920434 0.042996816 -0.041573327 -0.007981734
0.022315962 0.091338575 0.035065256 -0.03787181 -0.012016169 0.09118588 -0.0029976142 0.034247078
00000000: b20f f6bc 5bcc 8a3d b609 62bc 38e2 e7bd
00000010: e594 e1bd f075 0fbe c146 8fbc cdae 01be
00000020: 5de3 e93d 9ff8 193e 2c55 df3d 52be 32bd
00000030: ee8e 193e c9e9 7cbd 0077 8f3d 7d28 6a3d
00000040: 1a69 90bc 1008 323e 501a 35be 69dd 3c3d
00000050: a3ad b73d 1ef4 5c3e c53b 8a3e a992 4abe
00000060: a76b dd3d 3dcb 28be e5fc 093e afa5 aebc
00000070: 6391 093e b03f 1fbe 23b4 17bd 410b e33c
00000080: 617a a63d 8876 d43a 0feb 013e c1e7 81bd
00000090: f3d6 cebd 289e efbd 6518 993c 2209 103d
000000a0: eb03 e43d ca82 963d 5171 873d 3b80 233d
000000b0: af8f 9cbc aa94 573d 54ce ed3b 8b97 0bbd
000000c0: 8a12 0ebe e126 2c3d c54d 9c3d fe9b 3e3e
000000d0: eac9 17be f7c2 50be 5912 3bbc 9936 183e
000000e0: 4e9b 00be ebcd c83c 57f5 0b3d 8090 563d
000000f0: 8ed2 d6bc 727a 023e 47c3 9bbd 3639 21be
00000100: 34b4 23be 8981 093e e90e 953d 81db 9b3a
00000110: 83e9 c93d 5c31 303e c04f 9c3d a18c bc3c
00000120: d7f5 00bd 7199 453d f6a7 113e 6028 473d
00000130: 4281 983d f5c4 1dbe 9847 22bd 5278 1f3d
00000140: 3709 1c3e a887 f73d 6b8c b6bd e8c2 a4bc
00000150: 5dcd 353e e607 eebd b499 a13c d202 83bd
00000160: a67a ebbd a882 e13d a41b b7bc 4778 e2be
00000170: 95ba 683e db1f cebe 12b4 a53d 6644 b63d
00000180: da4c 373d 09b4 703e 3f5a 05be 5ac1 213d
00000190: 2d16 543d 8ae1 163c 6451 0dbe cf9c 0dbe
000001a0: ee0a 73bd 585d 58bd 36fc 46bd e180 aebb
000001b0: 2f93 903d 9038 6fbd 2ee4 443c 6552 fabc
000001c0: 0ad2 96bd 477b d93d 52d5 013e fc21 e6bd
000001d0: 710e b1bd 5c9f a3bd 6d2b 0dbe cc5a ccbd
000001e0: 8019 6bbe d417 8f3c 88d9 5dbe 0cb3 a7be
000001f0: 7953 453e e34f 3dbe 1963 2d3c 4c80 c4bd
00000200: 9db3 04be 1621 6dbd b5e1 58bd eb0b 51bd
00000210: 31f7 073e 3cd7 673d 2ac5 713c 8b40 da3b
00000220: dc3d 4bbe 26de d3bc ad91 083d 517c 673d
00000230: 75ed f93d 0932 fe3b 8c9f 8cbd 9a37 96bc
00000240: 03f4 443e 6c82 b83d d8eb 9cbc dcc6 0d3d
00000250: e92a 723d 2683 423e 16b1 9e3c 440d 073e
00000260: 15ea 58bb 1ca6 a5bd 0046 e6bc 2c16 603d
00000270: 708f 903d 8392 663d a1de a4bc 9dd4 443d
00000280: 26f5 143e 7617 003e 40a8 f13e 2c3a de3e
00000290: d1a4 8a3e 4e3c a73e 7f1e b6bd d5a8 303e
000002a0: 9e9a cb3b 8936 233e f753 2cbd 2096 9a3d
000002b0: 86f3 89bd 35f3 a4bd e3fb 33be f4f1 f13c
000002c0: 339c a5bd 127e cbbd 5ddc f7bd 5613 a43d
000002d0: 2f97 2d3d 323c 033e 7862 38bd 5232 753d
000002e0: 7f28 e93d a2a2 d1bd 7c58 a93d a9e0 853c
000002f0: 86b4 633d 18b3 8cbe 2d53 89be f6fd a9bd
00000300: ce45 7ebe 37d2 b6bd ea87 8a3d 17aa 9cbd
00000310: 7378 c93d 6554 c63d a72b 463d 0581 8c3d
00000320: ec68 93bd ef62 043c 6c5c e43d 4478 c7bd
00000330: a9ac b43b c2f8 5bbd f628 7ebd ddde 883b
00000340: 1fca 5b3a 82be 463d 3d97 a53d 05ef ecbd
00000350: 37da 003e 0929 9cbd f401 683d aa16 283d
00000360: 7298 d23a 1f4a 8b3d 9442 b73c 9a0f 9fbd
00000370: 3504 febd 06ea 38bd b7fe 6bbd cca1 05bd
00000380: a18d 873c fda4 91bd b669 033d a460 463d
00000390: 35b0 0ebe 48c0 bcbd ef8c cdbc 37d0 a2bd
000003a0: 73eb 1bbd b4b1 f2bc 310a 90bd 205d cdbc
000003b0: f0f8 b7bd a1a2 eebb d23c 5bbd caad 0abe
000003c0: 1f01 5dbe 2f8a 96be b667 72bd 5a34 2d3e
000003d0: d0ec d8bd 6e1d 303d cb48 2abd d2c5 02bc
000003e0: f7cf b63c b80f bb3d 96a0 0f3d 791f 1bbd
000003f0: 77df 44bc aabf ba3d 9f73 44bb aa46 0c3d

conv_block.3.0.bias f4 [4]
-0.013957296 9.4253664e-05 -0.046566296 0.04467341
00000000: 24ad 64bc 0daa c538 4dbc 3ebd 77fb 363d

conv_block.4.0.weight f4 [4, 8, 3, 3]
-0.084055156 -0.07085617 0.1346294 -0.054858997 0.03831535 0.008593204 -0.07540093 -0.08101145
0.097903386 0.013307375 0.040374853 0.06675843 -0.028069789 -0.067434356 -0.01884245 0.11691201
0.09217018 0.031349007 -0.3071314 0.035507433 0.017611006 0.15034376 0.07937935 -0.20480344
-0.084437884 -0.27025607 -0.07870955 0.05094693 -0.03605467 -0.028753107 -0.02723752 0.1594177
0.09653934 0.0386796 0.07486743 0.08058546 0.041167274 -0.045937464 -0.096634485 -0.017033959
0.051318396 -0.11715286 0.05916921 0.013823672 -0.08243132 0.07466634 -0.09885094 0.025059687
0.058740422 -0.036228888 0.10483505 0.1277709 -0.14118193 -0.033908907 0.11120109 -0.05336212
0.09664839 -0.06642934 0.029722195 0.0150617715 0.034118466 0.07726639 0.004311689 -0.12804832
-0.28800428 -0.33228952 -0.25306386 -0.0068521244 0.06768535 0.26105607 -0.13698435 0.09905905
-0.0491243 -0.23761132 -0.10558788 -0.088440634 0.056392618 -0.082822576 -0.07753429 -0.15702817
-0.16948523 -0.13583568 -0.064125575 -0.09276352 0.00013424113 0.07902891 0.004797549 0.036327392
-0.06398985 -0.047924083 -0.48754048 0.5562867 0.010255435 0.4037208 -0.4863971 -0.42942718
-0.20879912 -0.15629816 0.004726571 0.07651322 0.026671516 0.083490804 -0.08987461 -0.13980454
0.11558802 0.09527206 -0.023920858 -0.0009224979 0.02260931 0.0021546308 -0.12804112 0.005801455
-0.14690606 0.024885656 0.031543367 -0.0100396685 -0.011551949 0.072466105 0.14055328 0.075112484
0.00016008699 -0.080582775 -0.02849397 0.029398123 0.063654415 0.05339496 0.0037051162 -0.10523568
-0.06376855 -0.027016105 -0.039392896 0.015033251 -0.03977507 0.076805525 0.09871085 -0.19156057
0.30310056 -0.335475 -0.29886976 -0.3115487 0.053419266 -0.124013156 -0.029002383 0.14136325
-0.20181984 0.048169307 -0.07284668 0.07065006 0.05625692 0.068910845 -0.09401915 -0.08660134
0.02433836 0.06288617 -0.06358814 -0.057524025 0.10788697 -0.06955611 -0.09360545 0.1318273
-0.01529363 0.016161304 0.40140703 -0.26756185 -0.19797342 -0.43449706 -0.24079011 0.08939258
-0.42727017 0.12642613 0.1652355 -0.15534577 -0.1096149 0.08990968 -0.029614637 0.10670759
0.07645777 0.061455738 0.1091884 0.12518683 -0.038778152 0.029406648 0.07911783 -0.0071478607
-0.029373575 -0.08963872 0.0635962 0.0462016 -0.03691367 -0.107214525 0.098681465 0.12782386
-0.16706625 -0.10203739 -0.043933522 0.04286037 -0.107851855 0.034563936 0.0738013 0.03171582
0.077238224 0.034641344 -0.094756804 0.06660633 -0.075286 0.0052008494 0.004699963 0.18030198
0.15980792 0.03385195 -0.20867506 -0.048496947 -0.18979372 0.2658478 -0.276027 0.055818222
0.053537294 0.15697865 -0.011697428 0.008175586 0.039762203 0.13819592 0.17811495 -0.0556717
-0.05517906 0.17132589 0.1326047 -0.051151425 -0.0046160603 0.06767762 -0.09062488 -0.06326791
0.033129156 0.14689383 -0.19955602 0.19705386 0.1605716 0.017413303 -0.0048068403 -0.18706584
-0.08032436 0.3118399 0.31986365 -0.043053173 -0.07030369 -0.08288274 -0.015042106 -0.03765903
0.009612549 0.085534476 -0.04301511 0.11848828 0.14959915 0.11756477 -0.059855107 0.01868581
00000000: 1c25 acbd 0a1d 91bd 4adc 093e d4b3 60bd
00000010: 8ef0 1c3d 83ca 0c3c ce6b 9abd 55e9 a5bd
00000020: 9281 c83d 2d07 5a3c 1a60 253d a5b8 883d
00000030: 9df2 e5bc 061b 8abd 7b5b 9abc 906f ef3d
00000040: b8c3 bc3d d167 003d 5440 9dbe 3e70 113d
00000050: f544 903c b7f3 193e a491 a23d feb7 51be
00000060: c5ed acbd 015f 8abe 7932 a1bd baad 503d
00000070: 10ae 13bd a38b ebbc 3821 dfbc 653e 233e
00000080: 6bb6 c53d 806e 1e3d 1854 993d fd09 a53d
00000090: 049f 283d ec28 3cbd 4de8 c5bd cd8a 8bbc
000000a0: 3d33 523d d7ed efbd 6a5b 723d af7c 623c
000000b0: c0d1 a8bd abea 983d 5d72 cabd f949 cd3c
000000c0: cc99 703d be64 14bd c2b3 d63d 60d6 023e
000000d0: ff91 10be 11e4 0abd 66bd e33d 3d92 5abd
000000e0: 97ef c53d 1b0c 88bd f67b f33c a6c5 763c
000000f0: cebf 0b3d d73d 9e3d 1249 8d3b 191f 03be
00000100: 4c75 93be da21 aabe 9691 81be c987 e0bb
00000110: 9e9e 8a3d 24a9 853e a045 0cbe 79df ca3d
00000120: 9036 49bd 6250 73be 753e d8bd 5d20 b5bd
00000130: f2fb 663d e29e a9bd 4cca 9ebd fecb 20be
00000140: 898d 2dbe 8218 0bbe 4554 83bd cdfa bdbd
00000150: 14c3 0c39 e9d9 a13d c234 9d3b 08cc 143d
00000160: 1c0d 83bd 0b4c 44bd e89e f9be ce68 0e3f
00000170: 6906 283c 7eb4 ce3e 0a09 f9be e1dd dbbe
00000180: 70cf 55be a00c 20be 5ae1 9a3b f7b2 9c3d
00000190: 397e da3c 3afd aa3d 2e10 b8bd ec28 0fbe
000001a0: 69b9 ec3d ff1d c33d adf5 c3bc c9d3 71ba
000001b0: 2937 b93c b534 0d3b 361d 03be 221a be3b
000001c0: 8b6e 16be 01dd cb3c 9e33 013d 6c7d 24bc
000001d0: 6344 3dbc 1c69 943d 33ed 0f3e 93d4 993d
000001e0: 06dd 2739 9508 a5bd 306c e9bc 55d4 f03c
000001f0: 3f5d 823d acb4 5a3d 89d1 723b ce85 d7bd
00000200: 1699 82bd e150 ddbc 725a 21bd 064e 763c
00000210: 2feb 22bd 374c 9d3d ea28 ca3d 7428 44be
00000220: ff2f 9b3e 61c3 abbe 7505 99be 5083 9fbe
00000230: 29ce 5a3d 9cfa fdbd 6896 edbc 87c1 103e
00000240: dca9 4ebe 2e4d 453d a430 95bd fbb0 903d
00000250: a86d 663d 2121 8d3d 1d8d c0bd 0b5c b1bd
00000260: 3e61 c73c 77ca 803d 803a 82bd 509e 6bbd
00000270: d8f3 dc3d 6f73 8ebd 37b4 bfbd bcfd 063e
00000280: 2292 7abc b664 843c 3985 cd3e defd 88be
00000290: 8bb9 4abe 6676 debe af91 76be 7513 b73d
000002a0: 28c3 dabe da75 013e 7f33 293e f612 1fbe
000002b0: c77d e0bd 9122 b83d 659a f2bc 8289 da3d
000002c0: e495 9c3d 03b9 7b3d 2b9e df3d fa30 003e
000002d0: d7d5 1ebd 36e6 f03c 8708 a23d 9a38 eabb
000002e0: daa0 f0bc 8194 b7bd b93e 823d e43d 3d3d
000002f0: ca32 17bd 4a93 dbbd 8219 ca3d 42e4 023e
00000300: 6a13 2bbe fbf8 d0bd a3f3 33bd 5b8e 2f3d
00000310: 6fe1 dcbd ea92 0d3d 2325 973d 73e8 013d
00000320: 132f 9e3d 15e4 0d3d db0f c2bd e668 883d
00000330: 8c2f 9abd e36b aa3b 2602 9a3b 15a1 383e
00000340: b0a4 233e 58a8 0a3d eaae 55be bca4 46bd
00000350: 4959 42be 341d 883e 6953 8dbe a6a1 643d
00000360: ec49 5b3d 03bf 203e 92a6 3fbc e5f2 053c
00000370: b1dd 223d 3b83 0d3e c463 363e 0208 64bd
00000380: 7003 62bd 0e70 2f3e 87c9 073e 2884 51bd
00000390: 5242 97bb 909a 8a3d 8999 b9bd 9b92 81bd
000003a0: 70b2 073d 566b 163e 6a58 4cbe 7dc8 493e
000003b0: e26c 243e 58a6 8e3c b382 9dbb 308e 3fbe
000003c0: 1981 a4bd 7ba9 9f3e 2bc5 a33e 8658 30bd
000003d0: 62fb 8fbd 6dbe a9bd 2a73 76bc 5b40 1abd
000003e0: f47d 1d3c b32c af3d 9d30 30bd fca9 f23d
000003f0: 8530 193e ccc5 f03d a12a 75bd fc12 993c

conv_block.4.0.bias f4 [4]
0.010027178 0.04820725 0.011326569 -0.034310266
00000000: 0849 243c f774 453d 1393 393c ec88 0cbd

conv_block.5.0.weight f4 [4, 8, 3, 3]
-0.13341607 -0.032892827 -0.12020427 0.16039787 0.035570424 -0.028844705 -0.15080433 -0.1405271
0.06890137 -0.05481737 0.06637314 -0.19986534 0.005524787 -0.05094804 -0.06267356 -0.015843518
0.16021547 -0.11019079 -0.11755604 -0.10582981 -0.07577905 0.028228946 -0.033923037 -0.0748773
-0.12748739 -0.06547119 0.08355323 -0.17869307 -0.114672445 -0.2905088 -0.4048155 -0.24766822
0.07503343 -0.048794944 0.53462446 0.41196814 0.0063557825 -0.12296141 -0.006562831 -0.19518031
-0.15825331 -0.032227904 -0.023089621 0.024531009 -0.07048665 0.3580284 0.0068983925 0.028172825
-0.24616404 0.15135247 -0.4196276 -0.22822179 -0.5257575 0.03792672 -0.18560036 0.25385848
0.16704474 -0.0331411 -0.21555927 -0.174982 0.21855631 -0.07356436 -0.025326218 -0.1720126
-0.08878639 0.009613504 -0.10584984 -0.10743241 0.027066352 0.0566851 0.0022260416 -0.058076266
0.1111594 0.056522626 0.041564718 -0.039240524 0.022174068 -0.035010986 -0.0035467385 0.07118059
-0.18503672 0.06032893 0.14498079 0.11831621 0.036623552 -0.07552666 -0.020272262 0.014396568
-0.01928541 -0.11642365 0.14180066 0.0043933354 -0.07174 -0.052504573 -0.031023888 -0.13346815
-0.061847698 -0.05542251 -0.042890638 -0.119241074 0.010253842 0.2144792 0.15031347 0.30144325
0.12954181 0.2461345 -0.22655663 -0.41529053 -0.02927537 0.07541883 0.15989192 0.051740825
-0.14522803 0.04109871 0.050651174 0.10200075 -0.13646996 -0.42331666 -0.0667954 0.11654276
0.23859867 -0.09370383 0.37111196 0.010993954 0.15065101 -0.02087095 -0.19182883 -0.16101472
-0.266202 0.0457785 -0.037404384 0.071793064 -0.09491963 0.04791154 0.09446265 -0.010521312
-0.079421796 0.107168354 -0.019164836 0.0012174654 0.030914612 0.081833825 -0.00061484013 0.12813039
0.0614985 0.0094545735 -0.102154806 0.0398232 -0.09443492 0.09039682 -0.055549406 -0.036717746
0.04821798 -0.035416573 0.0541283 -0.074215055 0.08460556 0.121448904 0.058674388 -0.1294938
0.08531584 0.04674649 0.07802206 0.0073825163 -0.036231164 -0.06401424 -0.005731716 0.018381333
-0.055275574 -0.06242167 -0.101694934 0.26704282 0.05872297 0.044169106 -0.19915144 -0.11322871
-0.08078072 -0.35997272 -0.025707502 0.4190818 -0.066114 0.012121749 -0.0081927385 0.11902085
0.01820723 0.06400473 -0.06964908 -0.13286558 0.02103618 -0.024175335 -0.05263355 0.034145452
0.06054213 0.0984301 0.08147943 0.17146333 0.049778983 -0.24259321 0.11479804 0.11409977
0.065070555 0.11603404 -0.0074384175 0.04800501 -0.13691129 -0.14369482 -0.01954104 0.06645693
0.025915364 0.08532538 0.01447873 -0.07280326 -0.009014453 0.109068885 -0.077789605 -0.06320148
-0.07326486 -0.16997772 0.098671235 0.038769692 0.10720286 0.07860853 -0.18032432 -0.1727819
-0.11096421 -0.12355977 0.050620236 0.00865839 0.05205339 0.04502374 -0.11446492 -0.060062952
-0.03403258 -0.05734929 -0.09826195 -0.07352164 -0.14374202 0.11410977 0.04478263 -0.046497084
-0.13265055 -0.044390418 -0.01676669 0.0913086 0.09357571 -0.022624379 0.26875943 -0.17831932
-0.2986755 -0.36332867 0.029251225 0.31754747 0.123303525 0.0108549185 0.043451082 0.019246066
00000000: 399e 08be a1ba 06bd a82d f6bd 573f 243e
00000010: 4bb2 113d bb4b ecbc 736c 1abe 56e6 0fbe
00000020: 291c 8d3d 2e88 60bd a4ee 873d 80a9 4cbe
00000030: 4609 b53b e4ae 50bd ff5a 80bd 44ca 81bc
00000040: 860f 243e b5ab e1bd 39c1 f0bd 4dbd d8bd
00000050: 0c32 9bbd 6440 e73c e2f2 0abd 4559 99bd
00000060: 0e8c 02be c215 86bd f51d ab3d 51fb 36be
00000070: 63d9 eabd 92bd 94be fa43 cfbe bd9c 7dbe
00000080: 20ab 993d 35dd 47bd 26dd 083f 7ded d23e
00000090: 2b44 d03b 31d3 fbbd 040d d7bb 59dd 47be
000000a0: 280d 22be 6801 04bd 7226 bdbc 41f5 c83c
000000b0: 4e5b 90bd 804f b73e e90b e23b b2ca e63c
000000c0: 6d12 7cbe 24fc 1a3e 6ed9 d6be f9b2 69be
000000d0: 0b98 06bf 0c59 1b3d 050e 3ebe bdf9 813e
000000e0: c70d 2b3e f6be 07bd 92bb 5cbe 7b2e 33be
000000f0: 3acd 5f3e e9a8 96bd ee78 cfbc 1224 30be
00000100: a4d5 b5bd f581 1d3c cdc7 d8bd 8605 dcbd
00000110: 41ba dd3c a32e 683d c8e2 113b 61e1 6dbd
00000120: 8aa7 e33d 4584 673d c43f 2a3d acba 20bd
00000130: 64a6 b53c ae67 0fbd 6670 68bb 21c7 913d
00000140: 447a 3dbe 781b 773d d875 143e c54f f23d
00000150: 9402 163d b9ad 9abd 0412 a6bc 95df 6b3c
00000160: 70fc 9dbc 866f eebd 3134 113e f8f5 8f3b
00000170: 6cec 92bd 090f 57bd cf25 febc e0ab 08be
00000180: 0354 7dbd b702 63bd 18ae 2fbd aa34 f4bd
00000190: bbff 273c 6fa0 5b3e c6eb 193e c556 9a3e
000001a0: 9ca6 043e af0a 7c3e 76fe 67be f6a0 d4be
000001b0: e7d2 efbc 3075 9a3d b5ba 233e 30ee 533d
000001c0: a8b6 14be 1f57 283d 9b77 4f3d c5e5 d03d
000001d0: c8be 0bbe f6bc d8be 07cc 88bd f8ad ee3d
000001e0: 3653 743e cbe7 bfbd 6302 be3e fc1f 343c
000001f0: 4244 1a3e 8ef9 aabc c76e 44be 0be1 24be
00000200: a14b 88be 3d82 3b3d 5735 19bd 3e08 933d
00000210: 3965 c2bd e43e 443d a275 c13d 9561 2cbc
00000220: e5a7 a2bd 157b db3d 93ff 9cbc 5c93 9f3a
00000230: a440 fd3c 7e98 a73d 392d 21ba 9d34 033e
00000240: dae5 7b3d 5be7 1a3c 8a36 d1bd a71d 233d
00000250: 1867 c1bd f821 b93d c687 63bd 5965 16bd
00000260: 3780 453d f810 11bd a3b5 5d3d 10fe 97bd
00000270: ae45 ad3d 34ba f83d 8e54 703d 069a 04be
00000280: 12ba ae3d 3f79 3f3d 08ca 9f3d 09e9 f13b
00000290: 2167 14bd e619 83bd 1ed1 bbbb 7394 963c
000002a0: a468 62bd ddad 7fbd 6f45 d0bd d6b9 883e
000002b0: 7f87 703d aaea 343d 5bee 4bbe 74e4 e7bd
000002c0: 5d70 a5bd 584e b8be 8a98 d2bc e491 d63e
000002d0: c766 87bd 4d9a 463c d63a 06bc 34c1 f33d
000002e0: 5427 953c e914 833d 2da4 8ebd ea0d 08be
000002f0: 1154 ac3c 5a0b c6bc 4796 57bd 1adc 0b3d
00000300: 06fb 773d b895 c93d b0de a63d 1594 2f3e
00000310: 0ce5 4b3d 5b6a 78be 3c1b eb3d 24ad e93d
00000320: b643 853d 41a3 ed3d f8bd f3bb e7a0 443d
00000330: 7932 0cbe bc24 13be 8814 a0bc 921a 883d
00000340: 754c d43c 13bf ae3d 3238 6d3c e019 95bd
00000350: 5bb1 13bc 825f df3d 2850 9fbd c76f 81bd
00000360: e30b 96bd a40e 2ebe 2514 ca3d f8cc 1e3d
00000370: 2c8d db3d 82fd a03d f0a6 38be bded 30be
00000380: 3441 e3bd e80c fdbd 2a57 4f3d ebdb 0d3c
00000390: ef35 553d d06a 383d 956c eabd 9204 76bd
000003a0: bf65 0bbd 17e7 6abd 903d c9bd 8392 96bd
000003b0: 1c31 13be 62b2 e93d fe6d 373d ba73 3ebd
000003c0: 8cd5 07be bad2 35bd 4c5a 89bc 0100 bb3d
000003d0: 9fa4 bf3d c356 b9bc d69a 893e 5799 36be
000003e0: ffeb 98be 3706 babe 44a0 ef3c 9595 a23e
000003f0: 8f86 fc3d d4d8 313c c3f9 313d eda9 9d3c

conv_block.5.0.bias f4 [4]
0.047768477 -0.0298493 -0.015475601 0.013270208
00000000: e1a8 433d 8586 f4bc 608d 7dbc 496b 593c

conv_block.6.0.weight f4 [4, 8, 3, 3]
-0.023490714 0.03795662 0.0148302205 -0.077527836 0.09888599 0.1229637 0.118699975 -0.09667654
0.05906061 0.08797614 0.17877617 0.07207524 0.11086909 0.10205501 0.1280731 0.04604979
0.1234121 -0.021671757 -0.052615825 -0.018670805 0.022430077 0.05924425 -0.034936868 -0.13993602
0.014688252 0.17392203 0.251339 -0.10251877 -0.16473103 -0.004809776 -0.13057576 0.06433194
0.053762227 0.000892951 -0.19129448 0.13208939 -0.104459286 -0.10523585 0.17828743 0.043994997
0.09962679 -0.012650828 -0.053470943 -0.0048406958 0.07839851 0.06611247 0.060114767 -0.03150144
0.07143121 0.028833028 -0.026007239 0.08809057 -0.06732146 -0.12740676 0.1288651 0.046571456
0.08380213 0.14267264 -0.017501485 0.17669037 0.12546417 0.07745504 0.1266965 0.09252598
0.15488495 0.010618318 0.07486651 0.058777817 -0.04431041 0.18645401 0.04812197 0.06309248
0.03431458 -0.029825857 -0.089640945 0.068809494 -0.117668405 0.05082574 0.01950902 0.093293846
-0.08535673 0.06437109 -0.08371881 -0.07690768 0.005014684 0.03517798 0.0007517198 0.09099382
0.029738083 -0.08149631 0.13220085 0.056065954 0.045105092 -0.1270091 0.023958154 -0.045733146
-0.04690041 -0.0012407926 -0.0529261 0.08260147 0.10246239 -0.0305667 -0.07679781 -0.028032394
-0.04577495 0.054379143 0.12839575 0.07955618 0.012763571 0.09609481 -0.06976624 -0.07874133
-0.056506973 -0.042236015 0.012623151 0.040655084 0.00071019377 0.12954606 -0.06162987 0.055991795
-0.023906272 -0.03507329 -0.033222187 -0.12640291 -0.089581974 0.003321589 -0.034756828 -0.094574735
0.04524371 0.039261907 -0.0037426057 0.034962635 0.09803196 -0.033096187 -0.022370804 0.019948116
0.00818527 -0.20162213 0.13485937 -0.12904705 -0.088330425 -0.029347358 -0.11117821 -0.10305807
-0.12710723 -0.07923082 -0.15676253 -0.049215473 -0.05340097 0.12698665 -0.12482477 0.082674466
0.071620055 0.009135839 -0.013780487 0.1316563 0.13608502 -0.16728322 -0.065867975 0.105945945
-0.10128849 -0.03029482 -0.034756016 0.061788615 0.13652533 0.14745486 0.113172345 0.037723538
0.13950624 0.07052564 0.028465588 0.21517219 -0.22037855 -0.13303612 -0.13270578 0.27886158
0.13076282 -0.008130097 -0.031898748 -0.054844994 -0.04824448 -0.1057076 0.1604925 0.059380982
0.1260123 -0.0664337 -0.042078774 -0.031032568 0.043047037 -0.06949269 0.0045661917 -0.07634522
0.028206563 -0.012517224 0.13921888 -0.07208668 0.12893093 -0.10963555 0.12708512 -0.037309956
-0.093324006 0.039425023 -0.062634595 0.13809223 -0.03938829 -0.04957834 -0.09921775 0.09401135
-0.0009829352 0.13140407 0.031315167 -0.03443676 -0.11305532 0.031593755 -0.054732315 -0.062194705
-0.005632589 -0.14906707 -0.058627084 1.977379e-05 0.05900664 -0.15184534 -0.11233675 0.07007714
-0.061261293 0.08150639 0.08582644 0.0744532 -0.115336515 -0.019431092 -0.022037331 0.032120407
0.019285897 0.03587065 -0.028335145 -0.113919035 -0.076549456 0.17733862 -0.22476861 -0.011960054
0.018917944 0.09096952 0.1261177 -0.09222887 0.06462923 -0.15249476 -0.10402155 -0.11719924
0.14271124 0.059710633 -0.07762195 -0.08386681 -0.19434291 -0.02702422 -0.1617838 -0.01742961
00000000: 996f c0bc 6778 1b3d 74fa 723c eac6 9ebd
00000010: bd84 ca3d 64d4 fb3d f918 f33d 5afe c5bd
00000020: 8ae9 713d d62c b43d 1a11 373e 2f9c 933d
00000030: 550f e33d 3802 d13d 9825 033e b49e 3c3d
00000040: 7cbf fc3d f888 b1bc b183 57bd 84f3 98bc
00000050: 48bf b73c 19aa 723d f619 0fbd 634b 0fbe
00000060: fea6 703c 9e18 323e 81af 803e 5cf5 d1bd
00000070: 40af 28be 539b 9dbb a7b5 05be 77c0 833d
00000080: c835 5c3d ed14 6a3a b3e2 43be 7142 073e
00000090: c0ee d5bd e585 d7bd fb90 363e 1934 343d
000000a0: 2109 cc3d 6b45 4fbc 5904 5bbd b39e 9ebb
000000b0: 668f a03d fa65 873d e73a 763d a707 01bd
000000c0: 874a 923d 3e33 ec3c 220d d5bc d468 b43d
000000d0: d5df 89bd eb76 02be 36f5 033e b6c1 3e3d
000000e0: 73a0 ab3d c718 123e 465f 8fbc 52ee 343e
000000f0: ae79 003e bfa0 9e3d babc 013e 437e bd3d
00000100: 299a 1e3e 74f8 2d3c 9d53 993d 02c1 703d
00000110: d57e 35bd cded 3e3e 8b1b 453d a136 813d
00000120: 728d 0c3d 5b55 f4bc ac95 b7bd feeb 8c3d
00000130: 22fc f0bd a72e 503d 61d1 9f3c d810 bf3d
00000140: 82cf aebd fdd4 833d c474 abbd c681 9dbd
00000150: 3852 a43b c916 103d 100f 453a f85a ba3d
00000160: 489d f33c 8ae7 a6bd a95f 073e 6aa5 653d
00000170: 1ec0 383d ac0e 02be e443 c43c ae52 3bbd
00000180: a51a 40bd 17a2 a2ba 0ac9 58bd f62a a93d
00000190: cdd7 d13d 0467 fabc 2c48 9dbd 31a4 e5bc
000001a0: 847e 3bbd aabc 5e3d 2d7a 033e 5aee a23d
000001b0: 4c1e 513c 5bcd c43d 9ae1 8ebd 2243 a1bd
000001c0: db73 67bd acff 2cbd 55d1 4e3c f285 263d
000001d0: 4c2c 3a3a b9a7 043e 9a6f 7cbd a757 653d
000001e0: 16d7 c3bc 03a9 0fbd fd13 08bd c46f 01be
000001f0: c176 b7bd 04af 593b 2d5d 0ebd 66b0 c1bd
00000200: 7851 393d 18d1 203d 8146 75bb fb34 0f3d
00000210: fbc4 c83d de8f 07bd fa42 b7bc 3b6a a33c
00000220: 831b 063c 0876 4ebe 9318 0a3e e924 04be
00000230: 95e6 b4bd df69 f0bc 67b1 e3bd 1c10 d3bd
00000240: 6628 02be c543 a2bd 5b86 20be 2a96 49bd
00000250: faba 5abd ca08 023e 21a4 ffbd 3b51 a93d
00000260: 89ad 923d 7cae 153c 8dc7 61bc e9d0 063e
00000270: df59 0b3e 4b4c 2bbe cae5 86bd 30fa d83d
00000280: 5770 cfbd d82c f8bc 535c 0ebd 0f16 7d3d
00000290: 4ccd 0b3e 68fe 163e e7c6 e73d ff83 1a3d
000002a0: b9da 0e3e bf6f 903d aa30 e93c 1956 5c3e
000002b0: eaaa 61be 9f3a 08be 06e4 07be f2c6 8e3e
000002c0: b0e6 053e 1934 05bc 43a8 02bd 25a5 60bd
000002d0: 019c 45bd 3a7d d8bd 2558 243e 7939 733d
000002e0: 5e09 013e 640e 88bd cb5a 2cbd 0338 febc
000002f0: 1752 303d 2f52 8ebd fe9f 953b e25a 9cbd
00000300: 7311 e73c 0b15 4dbc 658f 0e3e 2ea2 93bd
00000310: 7806 043e 9a88 e0bd 9a22 023e 53d2 18bd
00000320: a820 bfbd 227c 213d 9146 80bd 0d68 0d3e
00000330: 9e55 21bd a812 4bbd ad32 cbbd 0689 c03d
00000340: d5d5 80ba ca8e 063e 5544 003d 8f0d 0dbd
00000350: 8c89 e7bd 7468 013d fe2e 60bd e0bf 7ebd
00000360: 9591 b8bb 0aa5 18be f422 70bd e4df a537
00000370: f2b0 713d 587d 1bbe cf10 e6bd 9b84 8f3d
00000380: 1fed 7abd d2ec a63d c6c5 af3d eb7a 983d
00000390: 8d35 ecbd f42d 9fbc a287 b4bc b090 033d
000003a0: 75fd 9d3c 1aed 123d 1b1f e8bc 624e e9bd
000003b0: f6c5 9cbd 4198 353e be29 66be 1af4 43bc
000003c0: cef9 9a3c 3a4e ba3d 0025 013e 7de2 bcbd
000003d0: 545c 843d 9627 1cbe 4009 d5bd 2806 f0bd
000003e0: e522 123e 2393 743d 42f8 9ebd 5dc2 abbd
000003f0: d401 47be e661 ddbc a7aa 25be 8bc8 8ebc

conv_block.6.0.bias f4 [4]
-0.017347546 0.022952138 0.0068151746 0.008190592
00000000: 711c 8ebc 1f06 bc3c d451 df3b d531 063c
