Final Final/200_epoch_checkpoint.pt (torch, 16367 bytes, 17 tensors)

conv_layer.weight f4 [8, 1, 3, 3]
0	0x3c400654	0.011720259
1	0xbe5410a1	-0.20709468
2	0xbdc801ff	-0.09766006
3	0x3e3d88ce	0.18509218
4	0xbe88bff2	-0.26708943
5	0x3e01c4f3	0.12672786
6	0x3e16d486	0.14729509
7	0x3e80adee	0.25132698
8	0xbe588f39	-0.21148385
9	0xbe2e72bd	-0.17035957
10	0xbb36d2fa	-0.0027896748
11	0xbe381348	-0.17976105
12	0x3ea4e7db	0.32208142
13	0x3dd3f62a	0.103496864
14	0xbdff0420	-0.12451959
15	0xbc5745d5	-0.013139208
16	0x3e884650	0.26616144
17	0x3e0fa76a	0.14028707
18	0xbe80480f	-0.25054976
19	0x3e846cf1	0.25864366
20	0xbdbd2fa2	-0.09237601
21	0x3e4d3cfc	0.20042795
22	0xbde4ba85	-0.11168388
23	0xbdced847	-0.100998454
24	0x3e9efef5	0.31053892
25	0x3daa9b07	0.0833035
26	0xbd5a3e20	-0.053281903
27	0x3e064977	0.13113962
28	0x3dec4e58	0.115383804
29	0xbbc1152b	-0.005892416
30	0xbe4ab4ea	-0.19795576
31	0x3bd06d9c	0.0063607227
32	0x3e77a302	0.24183276
33	0x3e127dc3	0.14305787
34	0xbe1c16a2	-0.15243009
35	0xbe8667b6	-0.26251
36	0x3d96d3d8	0.07364625
37	0x3e3ce8a7	0.18448125
38	0x3e5c3908	0.2150613
39	0x3db216e8	0.08695775
40	0x3da15e24	0.07879284
41	0xbeaaa215	-0.33326784
42	0x3e18a27d	0.14905734
43	0xbe873be7	-0.2641289
44	0xbd8c97cd	-0.06864891
45	0xbdabc0ec	-0.08386406
46	0x3d7568ce	0.059914403
47	0xbea60673	-0.32426795
48	0x3e54eb28	0.2079283
49	0xbe56bd54	-0.2097066
50	0xbe3559c1	-0.1771002
51	0x3e262850	0.16226315
52	0xbeb493f8	-0.3526914
53	0x3e75585d	0.23959489
54	0xbe82b747	-0.25530455
55	0x3e0714f4	0.13191587
56	0xbe1475aa	-0.1449801
57	0xbdcfed3f	-0.10152673
58	0x3e0b3e55	0.13597997
59	0xbd6317b7	-0.055442538
60	0x3d98037c	0.074225396
61	0xbe332241	-0.17493536
62	0x3e07b269	0.13251652
63	0x3e1c2e3d	0.15252014
64	0xbe141b4a	-0.14463535
65	0x3ddff372	0.109351054
66	0x3e8589fa	0.2608183
67	0x3e4bf159	0.19916286
68	0x3e9e90b6	0.3096978
69	0x3e51af50	0.20477033
70	0x3e835e0c	0.2565769
71	0x3e370c99	0.178759

conv_layer.bias f4 [8]
0	0x3e81d00c	0.2535404
1	0xbdf30d0b	-0.11867722
2	0xbd1fe000	-0.039031982
3	0xbe53c69d	-0.20681234
4	0x3d9da65b	0.076977454
5	0x3e319cb7	0.17344938
6	0x3dc779f0	0.097400546
7	0xbcca74a7	-0.024713827

conv_block.0.0.weight f4 [4, 8, 3, 3]
0	0x3df0d96f	0.11760222
1	0xbe126464	-0.14296108
2	0x3d1954f3	0.03743453
3	0xb8ca02ec	-9.632655e-05
4	0xbd77434d	-0.060366917
5	0xbc178752	-0.0092485715
6	0xbd1d0956	-0.03833898
7	0x3dcd4828	0.10023528
8	0xbd6e622e	-0.0581991
9	0x3c1c68e2	0.00954649
10	0xbd940d63	-0.07229116
11	0x3d91a731	0.07111967
12	0x3d3524f3	0.04422469
13	0xbdcaea13	-0.09907927
14	0xbc27b27a	-0.010235423
15	0xbd0a41fa	-0.033754326
16	0xbe011787	-0.12606631
17	0xbd6c6ecd	-0.057722855
18	0x3d28e612	0.041235037
19	0xbde447b5	-0.111464895
20	0x3c9e653c	0.019335382
21	0x3cfdf5a6	0.031000923
22	0x3dd305a8	0.10303813
23	0x3cc8acda	0.024496485
24	0xbc1009fe	-0.008791445
25	0x3dcc7bf4	0.0998458
26	0x3dc0d16d	0.09414945
27	0x3df1fbb9	0.118155904
28	0xbde53eee	-0.111936435
29	0xbd83c52e	-0.064340934
30	0x3d8f5aca	0.069997385
31	0xbd0663af	-0.03280991
32	0x3de28897	0.11061209
33	0xbb222c5c	-0.0024745679
34	0x3dd85eef	0.10564982
35	0x3d860fa2	0.065459505
36	0x3d913a9a	0.070912555
37	0xbd98fdb7	-0.07470267
38	0xbdbaedd7	-0.091273956
39	0xbdfac014	-0.12243667
40	0x3dd52ff9	0.10409541
41	0xbe0e689a	-0.1390709
42	0xbd3f2547	-0.04666641
43	0xbe00336e	-0.12519619
44	0xbdcb36fc	-0.09922597
45	0x3c6757da	0.014120067
46	0x3e0f4c9e	0.13994071
47	0x3d9a5116	0.07534997
48	0xbd5d5f19	-0.05404577
49	0x3e2991ae	0.16559479
50	0xbc1646a2	-0.009172114
51	0xbd6c60a0	-0.057709336
52	0xbdb0cc0c	-0.08632669
53	0x3ca67482	0.020319227
54	0xbd72aacd	-0.05924492
55	0x3dda4d14	0.10659233
56	0xbd024ef6	-0.031813584
57	0x3dc23e77	0.094845705
58	0xbd2181bf	-0.039430376
59	0xbdb31687	-0.08744531
60	0x3dd77577	0.105204515
61	0xbe04ea72	-0.12980059
62	0xbd255a59	-0.040369365
63	0xbc153e3d	-0.009109077
64	0xbc1cebc5	-0.009577696
65	0x3d3922ef	0.04519933
66	0x3d1eff5b	0.038817745
67	0x3dc3fb2c	0.095693916
68	0x3db5d0fb	0.088777505
69	0xbcbf28b2	-0.023334835
70	0x3cc08ba2	0.023504082
71	0x3d4b1b9e	0.049586885
72	0x3d73591d	0.059411157
73	0xbc8e281c	-0.01735311
74	0xbcda9f2f	-0.026687233
75	0x3d0c85f7	0.034307446
76	0xbd16ab0c	-0.036784217
77	0xbb83fee4	-0.004028188
78	0xbd924a7c	-0.07143113
79	0xbd58173c	-0.052756533
80	0xbd0c4cf1	-0.034253065
81	0x3de3f291	0.1113025
82	0x3d0835fc	0.03325461
83	0xbe2b919f	-0.16754769
84	0xbd93f82c	-0.072250694
85	0xbd85e8d7	-0.06538551
86	0xbd00074f	-0.03125697
87	0x3d141c44	0.03615977
88	0x3d68dd6a	0.056851782
89	0x3da89f58	0.082335174
90	0xbd49b627	-0.04924598
91	0xbd5fcc37	-0.054638114
92	0xbd58cd95	-0.052930433
93	0xbdbe78d8	-0.09300393
94	0x3d7254fc	0.05916308
95	0xbda4aba1	-0.08040548
96	0xbd62b93a	-0.055352427
97	0xbd29873e	-0.041388743
98	0xbdedf320	-0.11618638
99	0xbddab87a	-0.10679717
100	0x3c451889	0.012029775
101	0xbd2d13e8	-0.042255312
102	0xbd5bfacf	-0.053705987
103	0xbdd79575	-0.105265535
104	0x3c6075cf	0.013699963
105	0x3e212bd8	0.15739381
106	0x3d1f3902	0.038872726
107	0xbd20f175	-0.03929277
108	0x3d453a14	0.04815109
109	0xbc8120ae	-0.015762653
110	0x3d480414	0.048832014
111	0xbe145902	-0.14487079
112	0xbd3a11de	-0.045427196
113	0xbc6155ec	-0.0137533955
114	0x3c982544	0.018572457
115	0xbcaf17c9	-0.021373646
116	0x3d9fb19c	0.07797548
117	0xbd9f9469	-0.07791979
118	0x3dff06bf	0.124524586
119	0xbc45281d	-0.0120334895
120	0xbcf75847	-0.030193461
121	0x3ab8d18f	0.0014100539
122	0x3e16283b	0.14663784
123	0xbdcff102	-0.101533905
124	0x3e1a8be6	0.1509243
125	0xbd4e7bf6	-0.050411187
126	0x3d8bb4b3	0.06821575
127	0x3ccc770a	0.024959106
128	0xbdbd4db5	-0.09243337
129	0x3dd97bdb	0.10619327
130	0xbdc7cd63	-0.09755971
131	0xbddd2108	-0.10797316
132	0xbda253fe	-0.079261765
133	0x3de6cef7	0.11269944
134	0xbdb50bde	-0.08840154
135	0x3d3356df	0.04378402
136	0xbdfcf9e4	-0.1235235
137	0xbdf71878	-0.12065214
138	0xbdbe955a	-0.0930583
139	0x3dbe8f14	0.09304634
140	0x3dcc4123	0.09973361
141	0xbac494d6	-0.001499797
142	0xbc9fe3ad	-0.019517744
143	0x3d8a6e92	0.06759371
144	0x3da6c97a	0.08143897
145	0xbd65eac4	-0.056132093
146	0xbc4b2fa6	-0.012401497
147	0xbd589bc6	-0.052882932
148	0xbda8788d	-0.08226118
149	0xbd9c443e	-0.07630204
150	0x3dbc0b02	0.09181787
151	0x3d13d254	0.036089256
152	0x3d606958	0.054787964
153	0x3da49535	0.080362715
154	0xbdd67afb	-0.104726754
155	0xbe003ae3	-0.12522464
156	0xbcc165cc	-0.02360811
157	0x3ce8c546	0.02841438
158	0xbb3a0bd4	-0.0028388398
159	0xbcc8af16	-0.02449755
160	0x3ca5365d	0.020167524
161	0xbe053903	-0.1301003
162	0xbde8483b	-0.11341902
163	0x3d9d3861	0.07676769
164	0x3e090920	0.13382387
165	0xbd1535f0	-0.036428392
166	0x3cfe9081	0.031074764
167	0x3d22dc42	0.039760835
168	0xbd649da0	-0.055814385
169	0x3c3c18bd	0.011480507
170	0xbd1bc759	-0.03803191
171	0xbde6dc8b	-0.11272534
172	0xbcf2a646	-0.029620301
173	0xbc8ab1fe	-0.016930576
174	0x3dc70fbe	0.097197995
175	0x3dcc3f4a	0.09973009
176	0xbdd61931	-0.10454024
177	0x3db7048b	0.089364134
178	0xbd153d5c	-0.03643547
179	0x3d388891	0.045052115
180	0xbce53ce1	-0.02798313
181	0xbd16819f	-0.03674471
182	0xbaa7cd0b	-0.0012802196
183	0xbe0b164e	-0.13582727
184	0x3d89778b	0.06712254
185	0x3defae9d	0.11703227
186	0x3df0563c	0.11735198
187	0xbc42df9b	-0.011894132
188	0x3d9639f1	0.0733527
189	0x3e11e80d	0.14248677
190	0xbd341856	-0.04396852
191	0xbd4390f1	-0.04774565
192	0x3de444f9	0.11145968
193	0xbd7d0989	-0.06177667
194	0x3e29e693	0.16591863
195	0xbd1dedd2	-0.03855688
196	0xbd5848d5	-0.052803833
197	0x3dd4e1f2	0.10394658
198	0x3df809be	0.12111233
199	0x3d01ed81	0.031720642
200	0xbd45aa5e	-0.048258178
201	0x3c9dd231	0.019265266
202	0x3d845878	0.064621866
203	0x3d6d025f	0.05786359
204	0x3bfd9bbd	0.0077395127
205	0x3d22847e	0.039677136
206	0xbc236973	-0.0099738715
207	0xbc1ec96e	-0.009691579
208	0xbc7d82c0	-0.015473068
209	0x3cd3855f	0.025820432
210	0x3bf19b2b	0.007373234
211	0x3d8e8a3b	0.06959959
212	0x3de2844d	0.110603906
213	0x3cbace24	0.022803374
214	0x3cd8b8d2	0.026455317
215	0x3d4647ae	0.048408203
216	0x3d9265ff	0.071483605
217	0x3db6b16f	0.089205615
218	0x3cf9d074	0.030494906
219	0x3d9975d6	0.074931785
220	0xbd9f5eef	-0.07781779
221	0x3dfecf51	0.12441886
222	0xbdd2c7e5	-0.10292033
223	0x3d1eb600	0.038747787
224	0x3de61fad	0.112365104
225	0x3df1e778	0.11811727
226	0x3da99337	0.08280032
227	0xbd4559f0	-0.048181474
228	0xbdec7027	-0.11544829
229	0xbd4ade27	-0.049528267
230	0xbdc88826	-0.09791593
231	0xbdbba98c	-0.09163198
232	0xbcb76f75	-0.022392014
233	0xbd2ab18f	-0.04167324
234	0xbd8a080b	-0.06739815
235	0x3d019762	0.03163851
236	0x3d142b04	0.036173835
237	0xbd2a81e2	-0.041627772
238	0xbd70ce85	-0.058790702
239	0x3df0b048	0.11752373
240	0xbc86f443	-0.016473895
241	0x3d3947ca	0.04523448
242	0x3d6a95bb	0.0572717
243	0xbc82d688	-0.015971437
244	0x3dea2175	0.11432163
245	0xbdc25dc3	-0.0949054
246	0x3d503cca	0.050839223
247	0x3d377500	0.044789314
248	0xbdcba0af	-0.09942757
249	0x3d1749e6	0.03693571
250	0x3cab0b60	0.020879447
251	0xbd95206f	-0.07281577
252	0xbdb77f75	-0.089598574
253	0x3d8a5271	0.06754006
254	0x3cd4dc91	0.02598408
255	0xbdf7751f	-0.12082886

conv_block.0.0.bias f4 [4]
0	0xbc5706c8	-0.013124175
1	0x3ca643dc	0.02029603
2	0xbd5a8f9e	-0.05335962
3	0x3d9b9049	0.075958796

conv_block.1.0.weight f4 [4, 8, 3, 3]
0	0x3ddb0c45	0.106956996
1	0xbd912a73	-0.07088175
2	0xbdef8447	-0.11695152
3	0x3defd567	0.11710625
4	0xbd8c79cb	-0.06859168
5	0xbd5d915c	-0.054093704
6	0xbd14a6b5	-0.036291797
7	0x3d6192d9	0.055071685
8	0x3e00f4ce	0.12593386
9	0xbd3881dd	-0.045045722
10	0xbd55ac7a	-0.05216644
11	0x3cb18535	0.021669963
12	0x3df7b190	0.12094414
13	0xbd7a398b	-0.061090034
14	0x3c38c763	0.011278006
15	0xbc940848	-0.018070355
16	0xbd701fe7	-0.058624174
17	0xbd4ef0f6	-0.050522767
18	0x3df49a50	0.11943495
19	0x3d16ff09	0.036864314
20	0x3d965863	0.07341077
21	0xbe164c31	-0.14677502
22	0xbbf3593a	-0.007426408
23	0x3da8b6ff	0.08238029
24	0xbcc385d9	-0.023867534
25	0x3ded148b	0.11576184
26	0x3d945a68	0.07243806
27	0x3d9a2829	0.07527191
28	0xbc7d1ca4	-0.015448723
29	0x3deb0aaf	0.11476647
30	0x3dcfd38f	0.101477735
31	0xbe13db7b	-0.14439194
32	0xbca971c1	-0.020684125
33	0xbde22095	-0.11041371
34	0x3c8081e0	0.01568693
35	0xbc491ba7	-0.012274659
36	0xbdba3a3e	-0.0909314
37	0x3d423736	0.047415935
38	0x3d39c8cb	0.045357507
39	0x3d42201c	0.047393903
40	0xbd54925e	-0.0518974
41	0x3cebe992	0.028797898
42	0x3dfcbccd	0.123406984
43	0xbd9de8b3	-0.077103995
44	0xbda4f837	-0.08055156
45	0xbca65a78	-0.02030681
46	0x3defc2bc	0.117070645
47	0xbdc4ae76	-0.09603588
48	0xbd98eb71	-0.07466782
49	0x3dca0e04	0.098659545
50	0xbc224573	-0.009904253
51	0x3cfb7e2e	0.030699816
52	0x3e0fe541	0.14052297
53	0x3cc9557a	0.024576891
54	0x3d4e7bf9	0.0504112
55	0x3d66be25	0.05633368
56	0x3dde02bf	0.108403675
57	0xbc7c2834	-0.015390445
58	0x3d933b75	0.07189075
59	0xbd0f5036	-0.034988604
60	0x3d4b4351	0.049624745
61	0xbcad55eb	-0.021159133
62	0x3dee2d2b	0.11629709
63	0x3d04923c	0.032366022
64	0x3cf44797	0.029819293
65	0xb984aaaa	-0.00025304157
66	0xbda3c584	-0.079966575
67	0x3daf937f	0.085730545
68	0x3b4305c0	0.0029758066
69	0x3dcce314	0.10004249
70	0x3d93860f	0.07203304
71	0xbdf0faad	-0.117665626
72	0xbd0610d4	-0.032730892
73	0xbd2aca8f	-0.04169708
74	0xbd50c4ff	-0.05096912
75	0x3c7c5f5f	0.015403598
76	0x3de1d2bb	0.11026522
77	0x3d6b664f	0.057470616
78	0x3d9b5ba5	0.07585839
79	0xbd9ac020	-0.07556176
80	0xbd6af451	-0.057361905
81	0x3d849686	0.064740226
82	0xbdf8cedf	-0.121488325
83	0xbd2a4f40	-0.041579485
84	0x3decd0b5	0.11563245
85	0xbc0c96a3	-0.0085808365
86	0x3ccfa803	0.025348669
87	0x3da7ce54	0.08193651
88	0xbbfb1247	-0.007662091
89	0x3dfaea60	0.12251735
90	0xbdbb46b5	-0.09144346
91	0x3d52dc6c	0.051479742
92	0xbd99aa7f	-0.07503223
93	0xbbeff778	-0.0073232017
94	0x3ceb3734	0.028712846
95	0x3c0d9a0d	0.008642686
96	0xbbb3e846	-0.0054903356
97	0x3df74db0	0.120753646
98	0x3de6d738	0.112715185
99	0x3d9b7646	0.07590918
100	0x3d729525	0.059224267
101	0xbcc9646f	-0.024584023
102	0xbdf83d94	-0.1212112
103	0xbdec6429	-0.115425415
104	0x3dbbe947	0.091753535
105	0xbdd60ce4	-0.104516774
106	0x3e149906	0.14511499
107	0x3ddd2ebb	0.10799929
108	0xbbd9dd6b	-0.0066487095
109	0x3d15a17b	0.036530953
110	0xbddcd74b	-0.107832514
111	0x3db2c6a5	0.08729295
112	0x3d7c9b62	0.061671622
113	0xbb7629c0	-0.0037561506
114	0xbe0246b1	-0.12722279
115	0x3ddc5fbe	0.10760449
116	0xbdbe9cf5	-0.09307281
117	0x3bee27d2	0.0072679305
118	0x3de06c10	0.10958111
119	0xbdb2c453	-0.08728852
120	0xbd6ba1b2	-0.05752725
121	0xbdb9075a	-0.09034605
122	0xbe31aaea	-0.17350355
123	0x3e0ffd36	0.14061436
124	0x3e34abe2	0.17643693
125	0x3d8fcbc3	0.07021286
126	0xb9c24fd4	-0.0003706204
127	0x3e2ad5f6	0.16683182
128	0x3e53ccb6	0.2068356
129	0x3e40f7e0	0.18844557
130	0xbc957459	-0.018243955
131	0x3d7ff8be	0.06249308
132	0x3dad883a	0.08473249
133	0xbd6e954d	-0.058247853
134	0x3e021bdf	0.12705944
135	0x3ce824ef	0.028337924
136	0xbc560e06	-0.013064867
137	0xbd87e29a	-0.06635018
138	0xbe00b193	-0.12567739
139	0xbd29a383	-0.041415703
140	0xbc64a2cc	-0.013954829
141	0x3de09649	0.109661646
142	0xbda4ee65	-0.08053283
143	0xbc863cdf	-0.016386447
144	0x3ce316ba	0.027720798
145	0x3d53ceba	0.05171082
146	0xbe06ea70	-0.13175368
147	0xbd5c5763	-0.053794276
148	0x3dd6d1ec	0.10489258
149	0xbddd2c87	-0.107995085
150	0xbda0bb46	-0.078482196
151	0x3dc7f135	0.097628035
152	0xbce5a398	-0.02803211
153	0xbe06d017	-0.13165317
154	0xbd560349	-0.052249227
155	0xbdb59ae6	-0.08867435
156	0x3d422a02	0.047403343
157	0x3d9f9ce7	0.077935986
158	0xbded6ceb	-0.1159304
159	0x3dfa02c3	0.12207558
160	0xbcb20652	-0.02173153
161	0xbd849a56	-0.0647475
162	0x3d32c3b1	0.043643657
163	0x3b6957ec	0.0035605384
164	0x3d987373	0.07443895
165	0x3d9e44f3	0.07727995
166	0x3d533c9b	0.05157147
167	0xbd8d94e6	-0.06913166
168	0x3b1cab3e	0.002390578
169	0x3d531efc	0.05154322
170	0x3da7287b	0.08162018
171	0x3c58f383	0.0132416515
172	0x3c464da9	0.012103477
173	0x3ccdf958	0.02514331
174	0xbc0583d9	-0.008149111
175	0xbd2dc643	-0.042425405
176	0xbcef62f3	-0.029221987
177	0xbd93fc3d	-0.07225845
178	0xbd27c65b	-0.04096065
179	0xbde46948	-0.11152893
180	0x3c96f30f	0.018426446
181	0x3b90ac2e	0.0044150567
182	0x3c4f534f	0.01265414
183	0x3e544e65	0.2073303
184	0xbd1d0199	-0.0383316
185	0x3c0bd29e	0.008534102
186	0x3b961ef4	0.0045813266
187	0xbd98d0de	-0.07461713
188	0xbdb44050	-0.08801329
189	0x3c8b3e32	0.01699743
190	0x3e0c8605	0.13723
191	0xbd6ce8e2	-0.05783928
192	0xbdd17140	-0.10226679
193	0x3ce3c3af	0.02780327
194	0x3dd0c756	0.1019427
195	0xbd8ffcf0	-0.07030666
196	0xbddd3092	-0.1080028
197	0x3c081da5	0.008307849
198	0xbdfdb75d	-0.123884894
199	0xbd93ebef	-0.07222735
200	0xbdcc08d8	-0.09962624
201	0x3da5d97b	0.08098122
202	0x3df5d54c	0.12003574
203	0xbcf7e900	-0.03026247
204	0x3e36e807	0.17861949
205	0x3d2ba197	0.04190215
206	0x3d1454dd	0.036213744
207	0xbc7b5474	-0.015339959
208	0xbce2c660	-0.027682483
209	0xbdcf4d48	-0.10122162
210	0xbe0f6b48	-0.14005768
211	0x3d537368	0.05162373
212	0xbd105c17	-0.035244074
213	0xbc9cdd00	-0.01914835
214	0xbdcbafdc	-0.09945652
215	0xbc47181a	-0.012151742
216	0x3ccc297a	0.024922121
217	0xbe129d32	-0.14317778
218	0xbd77d4a5	-0.060505528
219	0x3d486745	0.04892661
220	0x3dca3d0a	0.098749235
221	0xbdb613df	-0.08890509
222	0xbda0b330	-0.07846677
223	0x3ce6af85	0.028159866
224	0xbcb1c182	-0.021698717
225	0x3ca91756	0.02064101
226	0xbc329346	-0.010899371
227	0x3bb2b282	0.0054534087
228	0xbd7a3d40	-0.06109357
229	0x3d3630dc	0.04448019
230	0xbe07baeb	-0.13254897
231	0x3d38c22c	0.04510705
232	0x3c6e3428	0.014538802
233	0xbd55f8f1	-0.052239362
234	0xbde30f41	-0.11086894
235	0x3dcced41	0.1000619
236	0xbda65cff	-0.08123206
237	0xbd924ba5	-0.07143334
238	0x3df357ec	0.11882004
239	0x3d4ade33	0.049528312
240	0xbc54ffe4	-0.013000462
241	0xbdaa8757	-0.08326595
242	0xbd78df34	-0.060759738
243	0xbdfd7413	-0.12375655
244	0x3daf3802	0.085556045
245	0xbbf470b8	-0.007459726
246	0x3d1b9d55	0.03799184
247	0xbcc90952	-0.024540577
248	0xbd03e789	-0.03220323
249	0x3bc94cb7	0.0061431783
250	0xbcbcc7df	-0.023044525
251	0xbd176d2f	-0.03696936
252	0xbdc7a953	-0.09749093
253	0x3e0117e8	0.12606776
254	0xbd8e9c91	-0.069634564
255	0xbdc2f728	-0.095197976

conv_block.1.0.bias f4 [4]
0	0x3c821641	0.015879752
1	0x3d1dea94	0.03855379
2	0xbd47810f	-0.048707064
3	0x3da8a2b0	0.08234155

conv_block.2.0.weight f4 [4, 8, 3, 3]
0	0x3b124aee	0.0022322494
1	0xbcaf2849	-0.021381514
2	0xbd8576f9	-0.06516833
3	0x3cfe5106	0.031044494
4	0x3d66ccd8	0.056347698
5	0xbb85339d	-0.0040649907
6	0x3d6d701f	0.057968255
7	0xbd3a9f43	-0.04556204
8	0xbdd4c9fe	-0.103900895
9	0xbd79d14a	-0.06099061
10	0xbd7506f2	-0.059821077
11	0x3d88f4d4	0.06687322
12	0xbca6bb9a	-0.020353127
13	0x3ce15d03	0.027510172
14	0x3df47eb2	0.11938228
15	0x3dcfb9ba	0.101428464
16	0x3dea222a	0.114322975
17	0x3d4c24e6	0.049839877
18	0x3ce57282	0.028008703
19	0x3dd42cf9	0.1036014
20	0xbd31e175	-0.043427903
21	0xbd7b560c	-0.061361358
22	0x3d6ef4ea	0.058339037
23	0xbdc74b69	-0.0973118
24	0xbd562db5	-0.052289683
25	0x3da3c8cf	0.079972856
26	0xbdc829e6	-0.097736165
27	0x3e0ed967	0.1395012
28	0xbd151b95	-0.036403257
29	0x3dd5be2b	0.10436662
30	0xbd7149b0	-0.058908165
31	0x3ca2e997	0.019886775
32	0xbc88864e	-0.016665604
33	0x3d93f527	0.072244935
34	0xbd41de8f	-0.04733139
35	0xbd34b36d	-0.044116426
36	0x3dbbacd3	0.09163823
37	0xbc10c7d8	-0.008836709
38	0x3ddf48c3	0.1090255
39	0x3e0af2b0	0.1356914
40	0xbd98671f	-0.07441544
41	0x3d7a66a0	0.061133027
42	0xbd01eb2a	-0.03171841
43	0xbd9b2919	-0.07576198
44	0xbc83aa44	-0.0160724
45	0x3e05876a	0.13039938
46	0xbc63919a	-0.013889695
47	0xbb5730e8	-0.0032835547
48	0x3cdf4100	0.027252674
49	0xbd917566	-0.0710247
50	0x3dd22298	0.102605045
51	0x3da181d9	0.078860946
52	0xbcc184cd	-0.023622895
53	0xbc8f29a1	-0.017475905
54	0x3a49fb0e	0.00077049516
55	0xbd908b3a	-0.07057805
56	0x3e39f9e9	0.1816174
57	0x3d2a2598	0.04153976
58	0xbdb7afdf	-0.089690916
59	0x3c34e7d1	0.011041597
60	0x3d9c90d7	0.076448135
61	0x3d4ad086	0.04951527
62	0xbda61d06	-0.081110045
63	0x3d6b9dc0	0.05752349
64	0xbca204d5	-0.019777695
65	0x3da2647c	0.07929322
66	0xbdd53175	-0.10409824
67	0x3dfed9a4	0.124438554
68	0xbdc039a4	-0.09385994
69	0xbd5ff933	-0.054681014
70	0xbd954f9f	-0.07290577
71	0xbb2ec946	-0.0026670261
72	0x3cf0cef2	0.029395554
73	0xbd5a8a5c	-0.053354606
74	0xbd36608c	-0.044525668
75	0xbc8d9ab7	-0.017285688
76	0xbd26c864	-0.04071845
77	0xbd17731c	-0.03697501
78	0x3ca81ac8	0.020520583
79	0x3acb1754	0.0015494623
80	0x3d37e5c4	0.044896856
81	0xbbc27957	-0.005934875
82	0xbd315c8b	-0.043301146
83	0x3db0bda7	0.08629923
84	0x3cd946cf	0.026523022
85	0xbdffac7d	-0.124840714
86	0xbced34d9	-0.028955864
87	0x3e1789e1	0.1479869
88	0xbcb51076	-0.022102576
89	0x3d8e8673	0.06959238
90	0xbdd1079a	-0.10206528
91	0xbd7d7dd0	-0.061887562
92	0xbdd68743	-0.10475018
93	0xbc75b479	-0.014996641
94	0x3d95617b	0.072939835
95	0xbd632583	-0.055455696
96	0x3e03e033	0.12878494
97	0xbda93fa9	-0.08264095
98	0xbd7c55f9	-0.061605427
99	0xbd01ac20	-0.03165829
100	0x3d9e4591	0.077281125
101	0x3cdb0eb8	0.026740417
102	0xbde98bf0	-0.11403644
103	0x3d008b2e	0.031382732
104	0xbde0e7cd	-0.109817125
105	0xbdb353f5	-0.08756248
106	0x3c8e0379	0.01733564
107	0x3d44b5e1	0.048025016
108	0xbd4fc68e	-0.050726466
109	0xbda116fb	-0.07865711
110	0xbc22d220	-0.009937793
111	0x3d097378	0.033557385
112	0xbdf6a5e7	-0.12043362
113	0xbdab0a5c	-0.08351585
114	0xbdd16793	-0.10224833
115	0xbd359f6f	-0.0443415
116	0xbdb95151	-0.09048713
117	0xbd2ed36a	-0.04268209
118	0xbd5c8a9f	-0.053843137
119	0x3daecea3	0.085355066
120	0x3bc8db7d	0.0061296807
121	0x3d47b796	0.048759066
122	0x3a94a3fe	0.0011340377
123	0x3d15cc0f	0.03657156
124	0x3dfcc9fa	0.123432115
125	0x3df5baab	0.11998495
126	0xbd27eee2	-0.0409993
127	0x3dd0ad48	0.10189301
128	0x3d03b88a	0.032158412
129	0x3d663a82	0.05620814
130	0x3d72303d	0.059128035
131	0x3da4cf78	0.08047384
132	0xbc3728fc	-0.011179205
133	0x3d8156b6	0.06315367
134	0xbcfbe0a6	-0.03074677
135	0x3b8c7d0d	0.004287368
136	0xbddc8036	-0.10766642
137	0x3decac95	0.11556355
138	0x3dad76fb	0.08469959
139	0x3d23c074	0.03997846
140	0x3bda722e	0.0066664433
141	0xbd231845	-0.039818067
142	0xbd379fdf	-0.0448302
143	0x3d92933a	0.071569875
144	0x3de91c9e	0.113824114
145	0xbda3f695	-0.08006016
146	0x3d28d08f	0.041214522
147	0x3d16ed31	0.036847297
148	0xbe26517b	-0.1624202
149	0xbd3414dd	-0.04396521
150	0xbdde874a	-0.10865648
151	0xbda7c5af	-0.08192002
152	0x3db605b9	0.0888781
153	0x3df50d5f	0.11965441
154	0xbe121280	-0.1426487
155	0xbd95f275	-0.07321636
156	0x3d8bb5cb	0.06821784
157	0x3c589451	0.013218955
158	0xbd3bff04	-0.0458975
159	0xbe0fc1a5	-0.14038713
160	0xbd233588	-0.039845973
161	0xbd860650	-0.06544173
162	0xbdea772b	-0.11448511
163	0x3de966b7	0.113965444
164	0x3d31f089	0.043442283
165	0xbaa860de	-0.0012846251
166	0x3d8e7efa	0.069578126
167	0x3d7aae1a	0.061201192
168	0xbcdd3366	-0.027002048
169	0x3d10524b	0.03523473
170	0x3b9b2d15	0.004735599
171	0x3bd03ed3	0.0063551455
172	0x3d339d73	0.043851327
173	0x3da2ff14	0.079588085
174	0x3d745b85	0.059657592
175	0xbe1e6da1	-0.15471508
176	0xbe07decf	-0.13268588
177	0xbc52611d	-0.012840536
178	0x3dee6d4d	0.11641941
179	0xbd4f7e9a	-0.050657846
180	0xbd313b21	-0.04326928
181	0x3dba7ce7	0.091058545
182	0x3d301c32	0.04299564
183	0x3d30d2c7	0.043169763
184	0xbdb3e30c	-0.0878354
185	0x3d5d841b	0.054081064
186	0xbc777928	-0.0151045695
187	0x398cf453	0.00026884917
188	0xbd1db31d	-0.038500894
189	0xbd84f3cc	-0.06491813
190	0xbdb074ce	-0.08616029
191	0xbd2e1c32	-0.042507358
192	0xbc82f00d	-0.015983606
193	0xbc8a7e57	-0.016905947
194	0xbd833c37	-0.064079694
195	0xbe144302	-0.14478686
196	0xbc8e7ccd	-0.017393494
197	0x3b18e87a	0.0023331926
198	0x3dfcc859	0.12342901
199	0xbe433f00	-0.19067001
200	0xbdc11b99	-0.09429092
201	0x3dc3b4cb	0.09555968
202	0x3d39b459	0.04533801
203	0xbe391d27	-0.18077527
204	0xbe1dc02f	-0.15405343
205	0x3d9216fe	0.07133292
206	0xbd9a9ba2	-0.07549216
207	0x3d966770	0.07343948
208	0xbe0353f5	-0.12824996
209	0xbd234d18	-0.039868444
210	0xbd8ccb20	-0.068746805
211	0xbde3b0e3	-0.11117723
212	0x3dc477f1	0.095931895
213	0xbdc5218b	-0.096255384
214	0x3d980aee	0.0742396
215	0x3e0aa898	0.13540876
216	0xbd8f1c6a	-0.069878414
217	0x3d8d0743	0.06886151
218	0xbd4a04ff	-0.04932117
219	0x3deee000	0.11663818
220	0x3da7fc57	0.08202427
221	0x3d4ca864	0.049965277
222	0x3db727bc	0.089431256
223	0xbd6194cf	-0.055073556
224	0xbdb347f5	-0.08753959
225	0xbd135610	-0.035970747
226	0x3dd63249	0.1045881
227	0x3d08b985	0.03338005
228	0x3d901c01	0.07036591
229	0x3bb4451b	0.005501402
230	0x3d9237ee	0.07139574
231	0xbcf0edce	-0.02941027
232	0xbdb6e91b	-0.0893118
233	0xbd8208d9	-0.06349344
234	0x3d14d915	0.036339838
235	0xbced196a	-0.028942782
236	0x3dc4f3dd	0.09616826
237	0xbd59f65f	-0.053213473
238	0xbcb313e9	-0.02186008
239	0xbdd5ddcf	-0.10442697
240	0x3c2f98eb	0.010717611
241	0xbdb26f07	-0.08712583
242	0x3d178220	0.03698933
243	0x3caadc75	0.020857075
244	0x3dc66759	0.09687681
245	0x3bdf297d	0.0068103657
246	0x3c084988	0.0083183125
247	0xbc362058	-0.01111611
248	0xbde9d54a	-0.11417635
249	0xbe0a2111	-0.13489176
250	0x3db1f6dc	0.08689663
251	0xbd884c79	-0.06655211
252	0x3c76a14c	0.015053105
253	0xbe1ed45b	-0.15510695
254	0xbd8b6a9e	-0.06807445
255	0xbb870ba7	-0.004121262

conv_block.2.0.bias f4 [4]
0	0xbc86d1fb	-0.016457548
1	0x3c8e9fca	0.017410178
2	0xbc35c95b	-0.01109537
3	0xbd83a21d	-0.06427405

conv_block.3.0.weight f4 [4, 8, 3, 3]
0	0x3d221b24	0.039576665
1	0xbddbafe4	-0.10726908
2	0xbdb1ee19	-0.08687992
3	0xbe1ccdc8	-0.15312874
4	0x3bc2db28	0.0059465356
5	0xbba82520	-0.005131379
6	0xbd2f39de	-0.042779796
7	0xbd66c23a	-0.056337573
8	0x3e76a37f	0.24085806
9	0xbd77faa2	-0.060541756
10	0x3c0e3c2e	0.00868134
11	0xbce05646	-0.027384888
12	0x3d5d95d5	0.05409797
13	0x3dddf7e2	0.108382955
14	0x3d9586bb	0.073010884
15	0x3dbe9572	0.09305848
16	0x3cd18b29	0.025579052
17	0x3d94ce98	0.07265967
18	0xbdb6ba90	-0.08922303
19	0xbd246e02	-0.040143974
20	0x3cd1e9c4	0.025624163
21	0x3d1ff2bc	0.03904985
22	0xbc375ebf	-0.011192023
23	0xbcbf8e80	-0.023383379
24	0x3d5bc61f	0.05365574
25	0x3d677a87	0.056513336
26	0x3debb984	0.11509994
27	0xbc62153d	-0.013799009
28	0x3d86d1ed	0.06583009
29	0x3d9fa7cb	0.07795676
30	0x3d7a1bdc	0.061061725
31	0xbd09f58c	-0.033681437
32	0xbd18568d	-0.037191916
33	0x3db4f5af	0.08835923
34	0xbdecaa6a	-0.115559414
35	0xbdcdb051	-0.10043395
36	0x3c9ceca9	0.019155817
37	0xbc399232	-0.01132636
38	0x3bdbdf86	0.0067099957
39	0x3ddef45d	0.10886452
40	0x3c1a9684	0.0094353
41	0xbd4bd098	-0.049759477
42	0xbd72bfff	-0.059265133
43	0xbd5157b7	-0.051109042
44	0x3d7fdbf5	0.062465627
45	0x3e0761fa	0.13220969
46	0xbd99db93	-0.075125836
47	0x3e04aca7	0.12956487
48	0x3e038ab0	0.12845874
49	0x3dd84cfb	0.10561558
50	0x3e0e083d	0.1387033
51	0xbcb806d5	-0.022464195
52	0xbd8a1552	-0.06742348
53	0xbd8fe9f1	-0.07027043
54	0xbcf87971	-0.030331345
55	0xbd8cb125	-0.06869725
56	0x3d25c40d	0.04047017
57	0x3dd63eef	0.104612224
58	0x3c97be6d	0.01852342
59	0xbd64a7d4	-0.055824116
60	0xbdf6a9f7	-0.12044137
61	0xbe0aeec0	-0.13567638
62	0x3bac4e6f	0.0052583735
63	0xbd37c77b	-0.044867974
64	0xbdc7997a	-0.0974607
65	0xbdc4666f	-0.0958985
66	0xbbb3000d	-0.0054626525
67	0x3d9a1768	0.07523996
68	0x39ade3bb	0.00033166804
69	0x3dd9f775	0.10642902
70	0xbcaf48a4	-0.021396942
71	0x3db6eb36	0.08931582
72	0xbc19806b	-0.009368996
73	0xbe238063	-0.15966944
74	0xbd9a2fd0	-0.07528651
75	0xbe52997a	-0.20566359
76	0xbe09d5df	-0.13460492
77	0x3da1d0fb	0.07901188
78	0xbc9724a8	-0.018450096
79	0x3e1a1a06	0.1504899
80	0xbc87df60	-0.016586006
81	0x3d000509	0.031254802
82	0x3ce3aded	0.027792895
83	0xbd4d189d	-0.0500723
84	0x3dac3312	0.084081784
85	0xbddc3047	-0.10751396
86	0xbd335dd3	-0.04379065
87	0xbda0f962	-0.07860066
88	0x3d6697b6	0.056297027
89	0xbdee66e4	-0.116407186
90	0x3d250e83	0.040297043
91	0xbd275ed7	-0.04086193
92	0xbc298a6f	-0.010347947
93	0xbbe139c2	-0.0068733403
94	0xbd218812	-0.039436407
95	0x3db7a775	0.08967487
96	0x3d8752d5	0.06607596
97	0xbd949acc	-0.07256088
98	0xbdcc2a0e	-0.09968959
99	0xbdaa6aa7	-0.083211236
100	0xbdb62baa	-0.08895047
101	0xbd4c208a	-0.04983572
102	0xbbe949b0	-0.00711938
103	0xbd934421	-0.07190729
104	0x3b09667b	0.0020965624
105	0x3d29a2d3	0.041415047
106	0xbca89ceb	-0.020582637
107	0xbdad9aec	-0.08476815
108	0x3dc29d3d	0.09502647
109	0x3dcbb4ff	0.09946632
110	0xbb49d43a	-0.0030796663
111	0xbdba17ac	-0.09086546
112	0x3dbb6e4e	0.09151898
113	0x3dc8a199	0.09796447
114	0xbdd39c41	-0.103325374
115	0xbd0c13df	-0.034198638
116	0x3dad77de	0.084701285
117	0xbd2e99e0	-0.042627215
118	0xbd259e6a	-0.04043428
119	0xbcc81ec0	-0.024428725
120	0xbb995923	-0.0046798154
121	0xbd26473d	-0.040595282
122	0xbd8cc141	-0.06872798
123	0x3dc00452	0.09375824
124	0x3dd42a05	0.10359577
125	0xbd400804	-0.046882644
126	0x3dd5647a	0.10419555
127	0xbe14ab1d	-0.145184
128	0x3e013b38	0.12620246
129	0xbd875d84	-0.066096336
130	0x3cb855ad	0.02250179
131	0xbc5f4666	-0.013627624
132	0x3d90171f	0.0703566
133	0x3dfecbcb	0.12441214
134	0xbd0d3ca5	-0.034481663
135	0xbcd96b7e	-0.026540514
136	0xbc35963e	-0.011083184
137	0x3d510539	0.05103037
138	0x3bf5fa4c	0.0075066444
139	0x3d98179c	0.07426378
140	0xbde1b92f	-0.11021649
141	0xbce69416	-0.028146785
142	0x3cd293eb	0.025705298
143	0xbdac59fb	-0.084156
144	0xbd8c72a3	-0.06857803
145	0xbe8a3482	-0.26993185
146	0xbe15d8e5	-0.1463352
147	0x3d940309	0.072271414
148	0xbb29ce1b	-0.0025910202
149	0xbe6bb146	-0.23016843
150	0x3c63ea9e	0.013910918
151	0x3cf27980	0.029598951
152	0xbd940318	-0.072271526
153	0xbcbb21c4	-0.02284325
154	0x3d2d21a4	0.04226841
155	0x3c074032	0.008255051
156	0xbe15b6e7	-0.14620553
157	0xbdee4903	-0.1163502
158	0xbd020e20	-0.031751752
159	0x3c9abaa2	0.018887822
160	0xbe0b1c90	-0.13585114
161	0x3d6fbe1d	0.058530916
162	0xbc7d09cb	-0.015444229
163	0xbc7039cd	-0.014662218
164	0x3deeb13e	0.116549
165	0xbd9b5e2a	-0.0758632
166	0xbdc239d1	-0.09483684
167	0x3dba36f1	0.090925105
168	0x3d16db53	0.036830258
169	0x3cf56d4c	0.029959343
170	0xbd06b99a	-0.032891847
171	0xbcd993f9	-0.026559817
172	0x3d1671ba	0.03672955
173	0xbd00d44e	-0.03145247
174	0xbd2f09c7	-0.042733934
175	0xbbeb023f	-0.0071718986
176	0x3db564a3	0.088570856
177	0xbd20b99c	-0.03923951
178	0x3d4d883f	0.050178763
179	0x3d045bc5	0.03231408
180	0x3cdfc973	0.027317738
181	0xbe009a06	-0.12558755
182	0xbd6f4ff9	-0.058425877
183	0xbbcd685a	-0.006268543
184	0xbdfcf991	-0.123522885
185	0x3d85e30f	0.065374486
186	0xbd537405	-0.051624317
187	0xbdfa80de	-0.12231611
188	0x3d86c7ee	0.06581102
189	0xbd1a2af6	-0.037638627
190	0x3d92b277	0.07162946
191	0x3d4ca8e4	0.049965754
192	0x3c33726e	0.010952575
193	0xbc97214e	-0.018448498
194	0xbdbef40a	-0.093238905
195	0x3d4b3ba7	0.049617436
196	0xbdf748fb	-0.12074467
197	0xbd510497	-0.051029768
198	0xbe0f73a1	-0.14008953
199	0xbd4c668d	-0.049902488
200	0xbe1a8401	-0.15089418
201	0xbd43dd73	-0.047818612
202	0x3cc92be1	0.024557056
203	0xbdab509d	-0.08364985
204	0xbd726067	-0.059173968
205	0x3d4b518b	0.049638312
206	0xbe01df41	-0.12682821
207	0xbe1411b4	-0.14459878
208	0xbc479745	-0.012182062
209	0x3c772e25	0.015086685
210	0x3dc9df8b	0.098570906
211	0xbe0a70e8	-0.13519633
212	0xbd985e14	-0.07439819
213	0xbe1a2e68	-0.15056765
214	0x3d83d37c	0.06436822
215	0x3dac4098	0.08410758
216	0x3e125164	0.1428886
217	0xbd3a78e0	-0.04552543
218	0xbd7a3192	-0.06108243
219	0xbe4664cd	-0.1937439
220	0x3dda1056	0.10647647
221	0xbdb4dc3d	-0.088310696
222	0xbde82cc1	-0.11336661
223	0xbcfe74f8	-0.031061634
224	0x3de10c56	0.10988681
225	0xbcb90012	-0.022583041
226	0xbd294de2	-0.04133404
227	0xbdf8b4ce	-0.12143861
228	0x3d35bd0a	0.044369735
229	0x3de4f0d1	0.111787446
230	0x3d1f7013	0.03892524
231	0xbdd7cfdf	-0.10537695
232	0xbd1e3273	-0.03862233
233	0xbd4bc2f1	-0.049746457
234	0xbd8f1ce1	-0.0698793
235	0x3d820e5c	0.06350395
236	0xbc595fc7	-0.013267464
237	0x3ddef782	0.10887052
238	0xbdb50d7c	-0.088404626
239	0x3d61b819	0.05510721
240	0xbd6deb41	-0.058085684
241	0x3c8b221e	0.016984042
242	0x3c86aefc	0.01644086
243	0x3cd8168b	0.026377937
244	0xbd63a574	-0.05557771
245	0xbc47f94e	-0.012205435
246	0x3dd89e20	0.10577035
247	0x3d2f8da5	0.042859692
248	0x3c92830b	0.017884752
249	0xbd3133cd	-0.04326229
250	0x3d4d49d6	0.050119244
251	0x3cd82ca8	0.026388481
252	0x3d4d2855	0.05008729
253	0xbc59d711	-0.013295905
254	0x3de7522d	0.11294971
255	0xbd643ff1	-0.05572504

conv_block.3.0.bias f4 [4]
0	0xbd62bf57	-0.055358257
1	0x3db76acb	0.08955916
2	0x3d84497f	0.06459331
3	0x3d921c6e	0.07134329

conv_block.4.0.weight f4 [4, 8, 3, 3]
0	0xbbf1605e	-0.007366224
1	0xbd75e87d	-0.06003617
2	0xbd958f40	-0.073027134
3	0x3ddd4c36	0.10805552
4	0x3cdfed10	0.02733472
5	0xbdb2ca50	-0.08729994
6	0x3d247530	0.04015082
7	0x3cbd2380	0.023088217
8	0xbd9062d2	-0.070500985
9	0xbdc80322	-0.097662225
10	0xbdc24977	-0.094866686
11	0xbdec133f	-0.115271084
12	0x3d840f07	0.06448179
13	0xbc82ffaf	-0.01599106
14	0x3de2262e	0.110424384
15	0xbc18b2b7	-0.009319953
16	0x3cb3c8f1	0.021946402
17	0x3decdf7e	0.11566065
18	0x3cbe2d51	0.023214968
19	0xbcd4d748	-0.02598156
20	0x3dbb57c2	0.09147598
21	0xbb560c14	-0.0032661008
22	0x3c9142cb	0.017732045
23	0x3c935307	0.017983926
24	0x3d0fabb8	0.035075873
25	0xbd5b7f33	-0.053588104
26	0x3deeacfc	0.11654088
27	0xbc880f33	-0.01660881
28	0xbe01837f	-0.12647818
29	0x3da44a7f	0.080220215
30	0x3dfcf0cb	0.12350615
31	0x3db2d792	0.08732523
32	0x3dd8ea08	0.10591513
33	0x3a87ae8c	0.0010351702
34	0x3c5ea86f	0.013589962
35	0xbdec3707	-0.11533933
36	0x3d4c12a9	0.049822483
37	0x3d3841ef	0.044984754
38	0xbce23cc7	-0.027616872
39	0xbdcf2d55	-0.10116068
40	0xbdbec683	-0.09315207
41	0xbd9e4006	-0.07727055
42	0x3df89b05	0.12138943
43	0x3d6022ba	0.054720618
44	0xbd5c95bd	-0.05385374
45	0xbdac17a8	-0.084029496
46	0xbd296b3f	-0.041362043
47	0x3df6c342	0.12048961
48	0xbda2b152	-0.079439774
49	0x3d944077	0.07238858
50	0xbdf4c4da	-0.11951609
51	0xbd06ae80	-0.03288126
52	0xbd94879a	-0.072524264
53	0x3de96782	0.11396696
54	0x3d666aa0	0.05625403
55	0xbcb556b2	-0.022136066
56	0x3da9b24d	0.08285961
57	0x3c142791	0.0090426365
58	0xbe3f031b	-0.18653528
59	0x3d1dcdfc	0.03852652
60	0xbdc9195f	-0.09819292
61	0xbd3b3455	-0.045704205
62	0x3e042646	0.12905225
63	0xbd59e016	-0.05319222
64	0x3d9d011c	0.07666227
65	0xbd1320a3	-0.035919797
66	0xbd973355	-0.07382838
67	0x3d94359e	0.07236789
68	0xbc876bdc	-0.016530924
69	0xbc6cd7e9	-0.014455774
70	0xbad68d8b	-0.0016369087
71	0xbdf74900	-0.120744705
72	0x3d4fa196	0.05069121
73	0x3da31cc8	0.07964474
74	0xbdf3a7bc	-0.11897227
75	0xbd884958	-0.06654614
76	0xbd503794	-0.050834253
77	0xbdb7a506	-0.089670226
78	0x3dcc03dc	0.099616736
79	0x3cf246f1	0.029574843
80	0xbd7dd6f8	-0.06197259
81	0xbdf21519	-0.1182043
82	0x3cbf94e0	0.023386419
83	0x3d327483	0.043568145
84	0x3db8712c	0.09005961
85	0xbdf5c1aa	-0.11999829
86	0xbdbd8a40	-0.09254885
87	0xbdf67272	-0.120335475
88	0x3c13c128	0.00901822
89	0xbdd71bad	-0.105033256
90	0xbd6ef7af	-0.05834168
91	0x3de69ca3	0.11260345
92	0x3c04c50e	0.008103622
93	0x3de158cf	0.11003267
94	0x3c9eb327	0.019372536
95	0xbdefd02e	-0.11709629
96	0x3c7f880c	0.015596401
97	0x3dc3f6bf	0.095685475
98	0xbd8a2783	-0.067458175
99	0x3da90493	0.082528256
100	0xbde4c5c7	-0.111705355
101	0x3dd44413	0.103645466
102	0x3d8d1da5	0.0689042
103	0x3d49ae18	0.049238294
104	0x3dbfd7aa	0.093673065
105	0x3d5788ac	0.052620575
106	0x3d8a6977	0.06758397
107	0x3d23062f	0.03980082
108	0xbd85b9c6	-0.06529574
109	0x3cce838b	0.025209209
110	0x3d94afaf	0.072600715
111	0x3dbd19bf	0.09233426
112	0x3aef6fcd	0.0018267572
113	0x3c9dc5d3	0.019259369
114	0x3d4dfcef	0.050290044
115	0xbd3088dc	-0.04309927
116	0xbd835c11	-0.06414045
117	0xbdc78e79	-0.097439714
118	0xbdc600a8	-0.09668094
119	0x3d10725c	0.03526531
120	0xbdcf8130	-0.101320624
121	0xbd853e0a	-0.06505974
122	0x3d26b562	0.040700324
123	0x3d32b850	0.043632805
124	0x3c935b12	0.017987762
125	0xbdb1b6de	-0.08677457
126	0x3d11f4f0	0.03563398
127	0xbd21fa21	-0.039545182
128	0xbe1b5672	-0.15169695
129	0x3baba4ed	0.0052381665
130	0xbe392037	-0.18078695
131	0x3cfd7a32	0.030942056
132	0x3e04312b	0.12909381
133	0xbde62534	-0.11237565
134	0xbc12d9f9	-0.008963102
135	0x3d10a857	0.03531679
136	0x3d01434a	0.031558312
137	0x3ce8ac4a	0.028402466
138	0x3d0ccc16	0.03437432
139	0xbccf2b10	-0.025289088
140	0x3c918f59	0.017768549
141	0xbd88cc7a	-0.06679626
142	0x3d2335f7	0.039846387
143	0x3ce37bf5	0.027769068
144	0xbc7e2062	-0.01551065
145	0xbd15fee3	-0.036620032
146	0x3d6ba8f8	0.057534188
147	0x3de26509	0.11054427
148	0xbdf25db1	-0.118342765
149	0xbda3c744	-0.07996991
150	0x3c703806	0.0146617945
151	0x3d404563	0.046941172
152	0xbdd6ef39	-0.10494847
153	0xbce381af	-0.027771799
154	0xbd6241c0	-0.055238485
155	0x3d3dda3c	0.046350703
156	0xbdb70695	-0.08936802
157	0xbc6ae70b	-0.0143373115
158	0x3da88cd1	0.082299836
159	0x3dc28705	0.09498409
160	0xbdf9e098	-0.12201041
161	0xbd86bb46	-0.06578688
162	0xbdbaad75	-0.091151156
163	0xbd3fce66	-0.046827696
164	0x3d67a40d	0.056552935
165	0xbd097344	-0.03355719
166	0x3bf013e3	0.0073265894
167	0xbdbd8d4c	-0.09255466
168	0xbd815fd3	-0.06317105
169	0xbced9f99	-0.029006766
170	0xbda17d69	-0.07885248
171	0x3da5cc7e	0.080956444
172	0x3aa85561	0.0012842828
173	0xbde91ecf	-0.113828294
174	0xbc58902d	-0.013217968
175	0xbdd0e87d	-0.102005936
176	0x3bcc15b6	0.006228174
177	0x3a67b39d	0.0008838715
178	0xbe0429fd	-0.12906642
179	0x3dc61d15	0.09673516
180	0xbdbbc0ba	-0.09167619
181	0xbd4b4099	-0.049622152
182	0xbc07a495	-0.0082789855
183	0x3d10705d	0.035263408
184	0x3d701f2d	0.05862348
185	0x3ce38d53	0.02777735
186	0xbd89ddf0	-0.06731784
187	0x3dacafe1	0.08431984
188	0x3b46540b	0.0030262496
189	0x3cbaae36	0.022788148
190	0xbd039931	-0.032128517
191	0xba480003	-0.0007629396
192	0x3bb67e8e	0.0055692857
193	0xbdfa2793	-0.122145794
194	0x3dc24c92	0.09487261
195	0xbc9889f4	-0.018620469
196	0xbcc4d56e	-0.024027552
197	0xbdc77c8a	-0.09740551
198	0x3d0b5bbf	0.034023043
199	0xbe46deef	-0.1942098
200	0xbcbfb26d	-0.02340051
201	0x3ceff00f	0.029289274
202	0xbe152b86	-0.14567384
203	0x3d9ff899	0.07811088
204	0xbe0df126	-0.13861522
205	0x3e21114f	0.15729259
206	0x3c02ae7f	0.007976173
207	0x3d61a064	0.0550846
208	0xbd55dbd2	-0.05221159
209	0xbcf350a2	-0.029701535
210	0x3d2ea0db	0.042633872
211	0xbdbafdff	-0.09130477
212	0x3bc2ebde	0.0059485277
213	0xbd66eaf8	-0.056376427
214	0xbd95b42d	-0.073097564
215	0x3b4c9061	0.0031213986
216	0xbb66491c	-0.0035138791
217	0x3c81421f	0.0157786
218	0xbcbc7e65	-0.023009488
219	0xbd572149	-0.052521978
220	0x3dbc7793	0.092024945
221	0x3e003003	0.12518315
222	0x3ce48cec	0.027899228
223	0x3ca3a2e2	0.01997513
224	0x3d2cc9f7	0.042184796
225	0x3db2c0a8	0.087281525
226	0x3ce4ad20	0.027914584
227	0x3d3f3419	0.046680544
228	0x3b2ebb3d	0.0026661896
229	0x3d18f8cd	0.03734665
230	0x3de5b1cf	0.11215555
231	0xbdaa91b1	-0.0832857
232	0xbd9c6f8d	-0.07638464
233	0xbcaace73	-0.020850396
234	0x3de84150	0.11340582
235	0xbd74f978	-0.059808224
236	0xbd6b8f12	-0.05750949
237	0xbdee5f2e	-0.11639248
238	0xbc40f9af	-0.011778279
239	0x3d10c711	0.035346095
240	0xbdd00c42	-0.10158588
241	0x3b80682a	0.0039186673
242	0x3dc21cef	0.09478175
243	0x3dc0ae44	0.094082385
244	0xbb987c7a	-0.0046535106
245	0xba1924dd	-0.000584198
246	0x3dde0fc1	0.108428486
247	0xbcae346d	-0.021265233
248	0xbdbd34ee	-0.09238611
249	0x3d9fdacf	0.07805406
250	0x3d8cd9a3	0.068774484
251	0xbd842f89	-0.06454379
252	0xbcbe5c0a	-0.023237247
253	0x3c39e48a	0.011345992
254	0x3cd62a9d	0.026143366
255	0xbd3672f1	-0.04454321

conv_block.4.0.bias f4 [4]
0	0x3c069678	0.0082145855
1	0x3d693fbf	0.05694556
2	0x3d9a5c3a	0.07537122
3	0x3dd453ff	0.103675835

conv_block.5.0.weight f4 [4, 8, 3, 3]
0	0x3d8ad0ca	0.067781046
1	0x3db92343	0.09039929
2	0x3d5cc0e7	0.053894904
3	0xbd494896	-0.04914149
4	0x3d44491b	0.04792128
5	0x3d4bc120	0.049744725
6	0x3d8d0cb2	0.06887187
7	0x3dd24467	0.10266953
8	0x3bc8171b	0.00610627
9	0x3d8295f8	0.063762605
10	0x3d1a73a5	0.037707943
11	0x3dcbbdc9	0.09948308
12	0xbde81da0	-0.113337755
13	0xbde027b0	-0.1094507
14	0x3dda23e6	0.10651378
15	0x3d5d99ee	0.054101877
16	0xbdcb4d8d	-0.09926901
17	0x3d8aac54	0.0677115
18	0x3de3725b	0.11105796
19	0xbc8c718a	-0.017143983
20	0x3a2b43f6	0.00065332593
21	0xbd9fa742	-0.07795574
22	0x3d1526b3	0.03641386
23	0xbb98c8cd	-0.004662609
24	0x3dc22173	0.09479036
25	0xbd27657d	-0.04086827
26	0x3d454ad2	0.048167057
27	0x3d758750	0.059943497
28	0xbdb98300	-0.090581894
29	0xbdd6a908	-0.10481459
30	0x3dc41343	0.095739864
31	0xbdfe92f8	-0.12430376
32	0x3d6828cf	0.056679543
33	0x3da1c87e	0.07899569
34	0xbde62267	-0.112370305
35	0xbde2566d	-0.11051641
36	0xbd0fee87	-0.035139587
37	0x3da2a777	0.07942098
38	0x3ded9f99	0.116027065
39	0x3d839d25	0.06426457
40	0x3d846141	0.06463862
41	0x3d19640c	0.037448928
42	0x3d93ba6a	0.0721329
43	0x3e015f5b	0.12634031
44	0x3de2044e	0.11035977
45	0x3dc2ca40	0.095112324
46	0x3d7608ac	0.060066864
47	0xbdee672f	-0.116407745
48	0x3dada985	0.08479599
49	0x3c1b975f	0.009496539
50	0xbd9ac8bd	-0.07557819
51	0xbd0b0ee7	-0.03394976
52	0xbd7f82b1	-0.062380496
53	0xbd80e750	-0.06294119
54	0x3cca9917	0.024731202
55	0x3db2b4c7	0.08725887
56	0x3dd934b2	0.10605754
57	0xbd9e3f4c	-0.07726917
58	0xbdc8c60b	-0.09803399
59	0x3d87c801	0.066299446
60	0xbd965d87	-0.07342058
61	0x3dd70fe9	0.105010815
62	0x3df0de79	0.11761183
63	0xbc4f1353	-0.012638885
64	0x3dcdb3c1	0.10044051
65	0xbd9e1b09	-0.0772
66	0xbd8a6b75	-0.06758777
67	0x3da2e69c	0.079541415
68	0xbdd81246	-0.105503604
69	0xbd1cb905	-0.038262386
70	0xbcab52eb	-0.020913562
71	0x3b66ff93	0.003524755
72	0xbcffa08b	-0.031204483
73	0xb9ee10e2	-0.00045407476
74	0xbde9caa3	-0.11415603
75	0xbe04d0e0	-0.12970304
76	0xbc3b33ea	-0.0114259515
77	0x3d917866	0.07103042
78	0xbd4abbda	-0.049495555
79	0x3cb2e5e8	0.021838143
80	0xbd048442	-0.032352693
81	0xbda69639	-0.081341214
82	0xbdc86e16	-0.09786622
83	0x3d03d6b1	0.032187168
84	0xbdd2d213	-0.10293975
85	0x3c0caa34	0.008585501
86	0x3dde662b	0.10859331
87	0xbd1e90c2	-0.03871227
88	0x3c51f86c	0.012815576
89	0xbd4a176a	-0.049338736
90	0x3da73a67	0.08165436
91	0x3cfefac7	0.03112544
92	0xbdc4ed78	-0.09615606
93	0x3d990012	0.074707165
94	0x3d4c2fc8	0.049850255
95	0x3dc38715	0.09547249
96	0x3c533c81	0.012892843
97	0xbd334149	-0.043763433
98	0xbc9b80e4	-0.018982358
99	0x3dcd8abe	0.100362286
100	0x3dcc272a	0.099684075
101	0x3d02b32a	0.031909145
102	0xbc1c4130	-0.009537026
103	0x3de02219	0.109440036
104	0x3db9ffc7	0.09081989
105	0x3cab3879	0.020900952
106	0x3d7b1571	0.061299745
107	0xbdf1d399	-0.11807937
108	0x3e007867	0.1254593
109	0xbc87dcc5	-0.016584763
110	0x3e14e0bf	0.14538859
111	0xbb21e1ce	-0.002470124
112	0x3c97f399	0.018548774
113	0xbd3d218d	-0.046174575
114	0xbd7a5f26	-0.061125897
115	0x3dc24cf6	0.094873354
116	0x3e160c1c	0.14653057
117	0xbd81eff7	-0.06344598
118	0x3d63cd6f	0.05561584
119	0x3db5c566	0.088755414
120	0x3cca23b1	0.024675222
121	0x3d6c5ee6	0.05770769
122	0x3d068e22	0.032850392
123	0x3d4b2b54	0.049601868
124	0xbddeb579	-0.10874457
125	0x3dc48e38	0.095974386
126	0x3da9a73e	0.08283852
127	0x3d539564	0.051656142
128	0xbd98d86e	-0.07463156
129	0xbd185971	-0.037194673
130	0x3da94a2f	0.082661025
131	0x3d75741d	0.059925187
132	0xbd3981c5	-0.045289773
133	0x3de148bc	0.11000201
134	0xbdb91b79	-0.09038443
135	0x3b230edf	0.002488069
136	0xbd9888bc	-0.07447955
137	0xbdc2b6af	-0.095075004
138	0xbca02339	-0.019548045
139	0xbd6c173b	-0.05763934
140	0x3d018de3	0.031629454
141	0xbc96dbe0	-0.018415391
142	0xbcc761f2	-0.024338696
143	0x3de3c330	0.111212134
144	0x3d45d5ec	0.048299715
145	0x3d8b61e0	0.068057775
146	0xbd81aab8	-0.0633139
147	0xbd97f762	-0.074202314
148	0xbb855898	-0.004069399
149	0xbd950d37	-0.07277911
150	0xbdd68937	-0.104753904
151	0xbc6def5d	-0.014522401
152	0xbc69b9ef	-0.014265521
153	0x3d760f77	0.060073342
154	0xbd9fef08	-0.078092635
155	0xbdca0c6d	-0.09865651
156	0x3cb220b4	0.02174411
157	0x3c1da245	0.009621208
158	0x3d89e163	0.06732442
159	0xbc253723	-0.010083946
160	0x3da404f2	0.08008756
161	0xbda73e51	-0.08166183
162	0x3d7a32f6	0.061083756
163	0x3dd797da	0.1052701
164	0x3d78efe9	0.06077567
165	0x3d9df9a4	0.07713631
166	0x3dbe19d6	0.092822716
167	0x3caa68aa	0.02080186
168	0x3dec5fcc	0.11541709
169	0x3c9205f9	0.017825114
170	0xbdf119ca	-0.11772497
171	0x3d9b6fc7	0.07589679
172	0x3c85996f	0.016308514
173	0xbd6ff46c	-0.05858271
174	0xbd2e6192	-0.04257352
175	0xbd0c54ec	-0.034260675
176	0xbdd9fd54	-0.10644022
177	0x3ac786f0	0.001522271
178	0xbd3f52f3	-0.046709966
179	0xbcfc2ccb	-0.030783078
180	0xbe01a243	-0.12659554
181	0xbab7e1d8	-0.0014029099
182	0xbcc15698	-0.023600861
183	0xbd01d901	-0.03170109
184	0xbda83681	-0.08213521
185	0x3d76d0ea	0.06025783
186	0xbd6a1a4c	-0.057153985
187	0x3a44975b	0.00074993604
188	0x3cf80c22	0.030279223
189	0x3dbfa831	0.09358252
190	0xbcbcbb24	-0.023038454
191	0x3da3e7dd	0.08003209
192	0xbde107e2	-0.10987832
193	0xbd6d1428	-0.05788055
194	0x3cb88241	0.022523047
195	0x3db3d52d	0.087808944
196	0xbcff88b5	-0.031193117
197	0x3c13165d	0.0089775
198	0xbddb712a	-0.10714944
199	0xbd9432f3	-0.0723628
200	0xbc25b7b9	-0.010114604
201	0xbdb6cc04	-0.08925632
202	0x3cc838e2	0.024441186
203	0xbc999597	-0.018748088
204	0xbcda1273	-0.026620125
205	0xbdc857d3	-0.09782376
206	0xbdd9ac56	-0.106285736
207	0xbdb5a293	-0.08868899
208	0xbce63c3d	-0.028104896
209	0xbcd6afba	-0.02620684
210	0x3de7c0c3	0.11316063
211	0xbcf289b9	-0.029606687
212	0x3d22d93c	0.039757952
213	0xbdc1ac44	-0.09456685
214	0x3d8d5a7e	0.06902026
215	0x3d4c8739	0.049933646
216	0x3d558732	0.052130885
217	0xbddb2db9	-0.1070208
218	0x3cb9385d	0.022609884
219	0xbddc1a03	-0.10747149
220	0x3d0c4d99	0.03425369
221	0x3d83de37	0.064388685
222	0xbd29a584	-0.041417614
223	0xbd8c6b97	-0.06856459
224	0xbd633a60	-0.055475593
225	0xbc1b038d	-0.009461296
226	0x3d4355bb	0.04768918
227	0x3cce5d9b	0.025191119
228	0x3dcc5a7e	0.099781975
229	0x3abeb95b	0.001455109
230	0xbddadec9	-0.10687024
231	0xbd41e58c	-0.047338054
232	0x3d502cc1	0.05082393
233	0xbda319e4	-0.079639226
234	0x3db04a89	0.086079665
235	0x3db0420b	0.08606347
236	0x3d11fc17	0.035640802
237	0x3d2d15ea	0.042257227
238	0xbc8c45b5	-0.017123083
239	0xbda655f7	-0.08121865
240	0xbd566341	-0.05234075
241	0x3cadf748	0.021236077
242	0xbd16945c	-0.03676258
243	0xbe070bc3	-0.1318808
244	0xbe09a8cd	-0.13443299
245	0xbd070888	-0.03296712
246	0xbc6b5a1b	-0.014364745
247	0x3d30cbdd	0.04316317
248	0xbd050280	-0.032473087
249	0xbcb1c3c9	-0.021699803
250	0xbca03233	-0.019555187
251	0xbca97d91	-0.020689758
252	0xbd80d7d8	-0.06291169
253	0xbd131e37	-0.035917487
254	0x3d937435	0.07199899
255	0xbe0063fe	-0.12538144

conv_block.5.0.bias f4 [4]
0	0x3c84d906	0.016216766
1	0xbd3ccbac	-0.046092674
2	0x3ddbd01f	0.10733055
3	0x3d8e068f	0.06934845
