Final Final/400/400_epoch_checkpoint.pt (torch, 16367 bytes, 17 tensors)

conv_layer.weight f4 [8, 1, 3, 3]
-0.3109346 -0.107384264 -0.21162492 -0.19399658 0.3288984 -0.24791144 0.11252887 -0.00397924
-0.06030857 0.05694728 -0.033778574 -0.28919232 0.15821208 -0.21489684 0.2306522 0.14941426
0.08016056 -0.18468831 0.08823227 -0.037032876 -0.19712716 0.048612703 -0.19506574 0.3008905
-0.29435235 -0.106031574 0.23498757 -0.20772804 0.21101725 0.3535297 0.07341921 -0.013766556
0.242961 0.14674646 -0.07120264 0.20853709 0.09222284 0.30746725 0.34919912 0.13577119
-0.22310086 -0.0769976 0.3268755 -0.034319993 -0.24069072 -0.17456153 -0.14969242 -0.33071685
-0.08253729 0.23621544 0.12429545 0.06687028 -0.16137213 -0.14834045 -0.15479124 0.29993293
0.17891115 0.076375015 -0.32072937 -0.090709396 -0.12969682 0.05401065 -0.17305261 0.3504577
-0.24955325 -0.32566908 -0.30687928 -0.3314979 0.21031156 0.1425512 0.07784536 0.08598609
00000000: d232 9fbe 48ec dbbd 34b4 58be 0aa7 46be
00000010: 5f65 a83e 7fdc 7dbe 8975 e63d 4964 82bb
00000020: 1e06 77bd 8d41 693d 675b 0abd 0411 94be
00000030: 5902 223e eb0d 5cbe 1730 6c3e 0d00 193e
00000040: 382b a43d ef1e 3dbe 1fb3 b43d c9af 17bd
00000050: b4db 49be 1d1e 473d 50bf 47be 520e 9a3e
00000060: 5ab5 96be 1527 d9bd 95a0 703e a9b6 54be
00000070: e814 583e d801 b53e d05c 963d 1f8d 61bc
00000080: c5ca 783e b444 163e b1d2 91bd bf8a 553e
00000090: 54df bc3d 596c 9d3e 3aca b23e 9a07 0b3e
000000a0: 8d74 64be ebb0 9dbd 3a5c a73e 1f93 0cbd
000000b0: a177 76be 42c0 32be f848 19be b853 a9be
000000c0: 5009 a9bd 76e2 713e 9d8e fe3d 49f3 883d
000000d0: bc3e 25be 8fe6 17be 9881 1ebe cf90 993e
000000e0: 7c34 373e 816a 9c3d a436 a4be d9c5 b9bd
000000f0: 3ecf 04be 453a 5d3d b434 31be 316f b33e
00000100: e38a 7fbe 19be a6be 481f 9dbe 18ba a9be
00000110: ea5b 573e f1f8 113e 636d 9f3d 7a19 b03d

conv_layer.bias f4 [8]
-0.110683315 0.11385472 0.12056352 -0.28588533 0.007899834 -0.3122184 -0.023400417 0.271399
00000000: efad e2bd aa2c e93d 02ea f63d 905f 92be
00000010: 4e6e 013c 17db 9fbe 3bb2 bfbc cff4 8a3e

conv_block.0.0.weight f4 [4, 8, 3, 3]
-0.09257555 0.0709236 -0.05424221 0.13232826 0.027092256 0.021974437 -0.02226967 0.07795754
0.051158797 0.058706235 -0.045823786 0.13210277 -0.08939096 0.029753786 -0.0020085059 0.023782074
0.097133 0.029459577 -0.068283066 -0.03278636 0.047100462 -0.028928744 0.0066810753 0.100065894
-0.07289599 0.15186638 0.027302053 0.02975047 0.07794446 0.12559207 0.054546364 0.039388202
0.025732022 0.044340353 -0.034413297 -0.06671022 -0.03118578 0.12892927 -0.07211515 -0.10604761
-0.08019945 0.025846316 0.0023714015 0.060211543 0.05383419 0.024000073 -0.08332693 0.08934331
-0.031340823 -0.06949659 0.11438509 0.02147651 0.03634939 0.06527424 -0.04028884 0.11093444
0.06295633 0.037556145 -0.038153697 -0.05671069 0.018414749 0.06084012 -0.030459465 0.010054117
0.08078139 0.11563775 0.07959235 0.05254522 -0.098712504 -0.12269442 0.15431301 0.021403534
0.07996936 0.122840546 -0.013990445 -0.08706464 0.116543494 -0.10520259 -0.12055273 -0.014586933
-0.121613905 -0.0086405445 0.14905141 0.13342828 -0.010696498 -0.06282788 -0.015177562 -0.01982363
-0.009936195 0.13139048 0.082916334 -0.15715769 0.030924445 0.10240734 0.0057915547 0.15194798
-0.1091621 0.17624505 0.08578036 0.0003197931 -0.090672575 0.07287079 0.08885077 -0.0717439
-0.04014139 0.06878514 0.015349345 -0.13528427 -0.025360418 -0.08435737 0.06839341 -0.0070779673
0.080714576 -0.069752455 -0.047023833 -0.06801376 0.06399423 0.024872342 0.01332697 0.016575567
-0.054848816 -0.05390106 -0.14203301 0.03612627 0.028530812 -0.11783853 -0.013581707 -0.10022471
-0.0698153 0.028847994 -0.037455007 0.0134310555 -0.015263521 -0.08111425 0.0040098364 -0.07020422
0.022789443 0.037025057 0.031669356 -0.067170724 0.07021772 -0.03924539 0.027706577 0.049470004
-0.053362045 -0.047784142 -0.043787148 0.092878565 0.013516598 0.0488566 0.105902925 -0.04399428
-0.08358374 0.069296025 0.1269781 -0.081202686 0.038735066 -0.0048002126 0.06288431 -0.13716076
-0.06989303 0.013348056 0.0023356804 -0.13696724 0.06424815 -0.07926506 -0.03213973 0.16794673
-0.0623484 0.032821883 0.050069604 -0.0022403006 -0.09544203 0.0067276717 0.031126648 -0.022170575
0.0038865046 0.03609594 0.049933903 0.022173915 0.029146614 0.10651033 0.08181743 -0.032103784
0.10011175 -0.039362267 0.009423104 -0.074833676 0.11693418 0.04312101 -0.07057434 0.046590474
0.06472158 0.0091253705 -0.05604848 0.028965866 -0.025880767 -0.010933418 -0.022152778 0.09233513
0.07425493 -0.049925905 -0.09458956 0.03803085 0.06938078 -0.042202886 0.027038952 0.13177486
-0.05950403 -0.025935633 0.006564639 -0.026736518 0.059810836 -0.09802368 -0.0009986004 0.16187352
-0.043121245 0.05791417 -0.096939705 -0.08960249 -0.0121564455 -0.0960434 0.09986332 -0.08157551
0.1320946 -0.05874641 0.011397629 -0.06915161 0.041139398 -0.068300776 -0.051202293 0.023565048
-0.055396672 -0.10709645 -0.026713643 0.11607139 -0.0066277008 -0.102786265 -0.03977434 -0.059897285
-0.08577017 0.04941998 -0.05529943 -0.059872016 -0.04206848 0.08653386 0.037917398 0.06807168
-0.087083675 -0.037626512 -0.09899346 -0.060186725 0.0699791 -0.10699287 0.00051237765 0.06954618
00000000: 4098 bdbd 6440 913d 142d 5ebd 0f81 073e
00000010: 94f0 dd3c bc03 b43c e26e b6bc 34a8 9f3d
00000020: e38b 513d f375 703d b9b1 3bbd f345 073e
00000030: 9c12 b7bd 36be f33c 23a1 03bb a0d2 c23c
00000040: abed c63d 3655 f13c fed7 8bbd fd4a 06bd
00000050: 6aec 403d f9fb ecbc ecec da3b 59ef cc3d
00000060: 7e4a 95bd dc82 1b3e 8ea8 df3c 42b7 f33c
00000070: 58a1 9f3d 359b 003e 026c 5f3d 8655 213d
00000080: f6cb d23c 3b9e 353d f5f4 0cbd 5e9f 88bd
00000090: 5279 ffbc 0906 043e 1cb1 93bd 7d2f d9bd
000000a0: 9c3f a4bd a7bb d33c 8469 1b3b 61a0 763d
000000b0: 3d81 5c3d cd9b c43c 4fa7 aabd a0f9 b63d
000000c0: 3c5f 00bd 3a54 8ebd bb42 ea3d 82ef af3c
000000d0: 19e3 143d 80ae 853d e905 25bd 9831 e33d
000000e0: 40ef 803d 79d4 193d 0d47 1cbd 7849 68bd
000000f0: 87da 963c 7d33 793d 2186 f9bc 06ba 243c
00000100: b770 a53d 7cd3 ec3d 5001 a33d a839 573d
00000110: c829 cabd 3647 fbbd 3b04 1e3e 7756 af3c
00000120: fac6 a33d d393 fb3d 2e38 65bc f24e b2bd
00000130: 5bae ee3d 7574 d7bd 5ae4 f6bd 08fe 6ebc
00000140: b610 f9bd 1291 0dbc efa0 183e 6ca1 083e
00000150: 5d40 2fbc e7ab 80bd 4fab 78bc 2a65 a2bc
00000160: 6ccb 22bc 3a8b 063e 0ad0 a93d f2ed 20be
00000170: 4355 fd3c f1ba d13d 15c7 bd3b 4098 1b3e
00000180: 6190 dfbd 9579 343e 9dad af3d e7a9 a739
00000190: 8bb2 b9bd 483d 953d 64f7 b53d 77ee 92bd
000001a0: 4c6b 24bd 39df 8c3d d27b 7b3c f687 0abe
000001b0: a7c0 cfbc 8fc3 acbd d811 8c3d 4bee e7bb
000001c0: af4d a53d 60da 8ebd 109c 40bd cc4a 8bbd
000001d0: 680f 833d 15c1 cb3c 5d59 5a3c 7cc9 873c
000001e0: 27a9 60bd 5cc7 5cbd 1a71 11be 24f9 133d
000001f0: 73b9 e93c 5455 f1bd cf85 5ebc 9d42 cdbd
00000200: 53fb 8ebd a152 ec3c 6c6a 19bd ee0d 5c3c
00000210: d913 7abc 3a1f a6bd f264 833b 3bc7 8fbd
00000220: edb0 ba3c 96a7 173d bab7 013d ce90 89bd
00000230: 4fce 8f3d c6bf 20bd e7f8 e23c 0fa1 4a3d
00000240: 2992 5abd 4eb9 43bd 275a 33bd 1e37 be3d
00000250: b974 5d3c dc1d 483d a2e3 d83d 5933 34bd
00000260: f42d abbd 13eb 8d3d 8c06 023e 984d a6bd
00000270: a9a8 1e3d 1a4b 9dbb 7dc9 803d df73 0cbe
00000280: 1424 8fbd ceb1 5a3c 3712 193b 2441 0cbe
00000290: 8994 833d b855 a2bd f3a4 03bd 3afa 2b3e
000002a0: 0961 7fbd 3d70 063d c915 4d3d 02d2 12bb
000002b0: 1c77 c3bd cd73 dc3b 50fd fe3c 119f b5bc
000002c0: bab4 7e3b 56d9 133d 7e87 4c3d 12a6 b53c
000002d0: e1c4 ee3c 1722 da3d e68f a73d 427f 03bd
000002e0: 6407 cd3d 543a 21bd 5d63 1a3c 6642 99bd
000002f0: 307b ef3d a89f 303d 4889 90bd a7d5 3e3d
00000300: bf8c 843d 9482 153c 1793 65bd d349 ed3c
00000310: e703 d4bc 1422 33bc be79 b5bc 331a bd3d
00000320: f812 983d 1b7f 4cbd 2cb8 c1bd 3dc6 1b3d
00000330: 8317 8e3d efdc 2cbd cb80 dd3c fdef 063e
00000340: 7fba 73bd f776 d4bc 2f1c d73b 8b06 dbbc
00000350: 35fc 743d a4c0 c8bd 78e3 82ba 2cc2 253e
00000360: e79f 30bd 6937 6d3d 5388 c6bd 8381 b7bd
00000370: d42b 47bc 67b2 c4bd 2485 cc3d 1011 a7bd
00000380: cf43 073e 13a0 70bd 1fbd 3a3c 5c9f 8dbd
00000390: c981 283d 47e1 8bbd 7fb9 51bd 7d0b c13c
000003a0: 9fe7 62bd 6255 dbbd 92d6 dabc d6b6 ed3d
000003b0: 2f2d d9bb 9b81 d2bd 6bea 22bd db56 75bd
000003c0: 45a8 afbd 9b6c 4a3d a881 62bd 5c3c 75bd
000003d0: 0050 2cbd aa38 b13d 464f 1b3d 2a69 8b3d
000003e0: ed58 b2bd 421e 1abd 15bd cabd 5b86 76bd
000003f0: 3451 8f3d 141f dbbd 1551 063a 3a6e 8e3d

conv_block.0.0.bias f4 [4]
-0.09309124 0.008473708 -0.039703924 0.0038216882
00000000: 9fa6 bebd 4fd5 0a3c 95a0 22bd 4a75 7a3b

conv_block.1.0.weight f4 [4, 8, 3, 3]
-0.12006919 0.08969432 0.02820224 -0.09560573 0.09864849 -0.12624408 0.09272527 -0.04022654
0.11881059 0.10970679 -0.045701552 0.09628667 0.13327394 -0.064931676 0.010872859 0.11811986
-0.033701066 -0.029501684 -0.06940781 0.091997206 -0.10928532 -0.0693264 -0.046511944 -0.10205662
0.1055244 0.06502637 -0.079177134 0.030183323 0.098541 -0.016314153 0.051726427 0.09435722
0.07341238 0.13084555 0.012743363 0.029819237 0.10937296 0.06135915 0.098132096 0.007593296
-0.053462464 0.029778821 -0.099926986 -0.039830547 0.06265521 -0.09636176 0.03536314 -0.03958035
-0.08766698 -0.052454453 0.025919434 -0.09343157 -0.024206627 0.06482338 -0.029597253 -0.020898733
-0.041074984 0.029562848 0.13794425 -0.03457589 -0.102021314 -0.08168391 -0.03363283 0.07339467
-0.12107331 -0.032960568 -0.010157572 0.014915556 0.022589836 0.02274833 0.022819497 0.12732834
0.01194973 -0.0921175 0.04480543 0.060986437 -0.103636086 -0.09809508 -0.08423029 0.046759557
-0.12358186 -0.07238635 -0.06706833 0.11405228 0.015251368 -0.06818434 0.046508633 0.019145446
-0.049735017 -0.12119654 0.07259832 0.060724758 0.022566065 0.048496276 0.10706484 -0.008060405
0.130999 0.0013824028 0.0015382967 0.05114397 0.07795787 -0.00050805317 0.09674006 0.046148118
0.032696232 -0.11832236 0.023380483 0.06661215 0.040511973 -0.102411024 0.009369199 0.017680496
0.082322724 -0.08394884 -0.11703659 0.005231843 -0.10530169 0.11403833 0.10738499 0.04586777
-0.014558857 0.028530467 -0.0074765035 0.053823266 -0.07010156 -0.092972256 -0.027776746 0.030378783
0.034851685 0.091801226 -0.07976739 0.04163928 0.08225452 -0.1333556 0.09720952 -0.06540371
-0.064282455 0.023652492 -0.085157536 -0.0019852747 -0.121743076 -0.11421788 0.08800754 -0.08188878
-0.05048301 0.015259106 -0.022352913 -0.1053059 -0.04502814 -0.056864865 0.09325434 -0.031509712
0.09367149 -0.014668107 0.096400164 -0.025653774 0.12251097 -0.015092017 -0.07717224 0.049839098
0.10993451 0.08104162 0.0053431834 -0.013118959 -0.02059252 0.08030595 0.15622476 -0.034642182
0.009989401 0.062780954 0.02888357 -0.07004643 0.00943009 0.07396266 0.049689423 0.08458045
0.1174655 -0.034820184 -0.061965037 0.03976913 0.09117127 -0.030371506 -0.07375494 -0.04473123
-0.026097786 -0.01657151 -0.035069633 -0.077389516 0.045424532 0.10804462 0.07771893 0.005917755
0.05974701 0.10289654 0.07478141 0.00091529347 0.11671595 0.12468969 0.07133806 -0.0036224488
-0.040308397 -0.097291544 -0.033582713 0.05829707 -0.09176692 -0.064097784 0.00062999065 -0.074684665
0.058403507 -0.008990288 0.031410765 0.011385222 -0.034946926 0.083795354 0.097110756 0.124147035
0.08743036 -0.12955986 0.101799496 0.011125954 -0.06703912 0.020186603 -0.10577963 0.094830066
0.037026156 -0.09400447 -0.10392181 -0.076925986 0.06198848 0.10793987 -0.04461876 0.035335004
0.09652396 0.061104294 -0.08451174 -0.079251885 0.12966406 0.0325523 -0.042252645 -0.09917394
-0.06767099 -0.08145001 -0.08866562 -0.06757824 -0.09606964 -0.020504287 -0.077486195 -0.03504126
0.13583677 -0.09816018 -0.118801765 -0.056425385 0.06745577 -0.08680136 -0.09921138 -0.027683573
00000000: d6e6 f5bd a8b1 b73d 6208 e73c f0cc c3bd
00000010: 3808 ca3d 2146 01be bfe6 bd3d 96c4 24bd
00000020: f752 f33d f4ad e03d 8d31 3bbd f231 c53d
00000030: f778 083e e6fa 84bd 1324 323c d3e8 f13d
00000040: 210a 0abd 84ad f1bc af25 8ebd 0869 bc3d
00000050: fbd0 dfbd 00fb 8dbd 4f83 3ebd 1003 d1bd
00000060: 2d1d d83d 8c2c 853d 9f27 a2bd 0443 f73c
00000070: ddcf c93d 42a5 85bc 17df 533d 5c3e c13d
00000080: 3b59 963d 60fc 053e 8ac9 503c 7947 f43c
00000090: eefe df3d bb53 7b3d 7bf9 c83d 2fd1 f83b
000000a0: 75fb 5abd b7f2 f33c 85a6 ccbd 5b25 23bd
000000b0: 6051 803d 5059 c5bd f1d8 103d 011f 22bd
000000c0: bf8a b3bd 7bda 56bd fe54 d43c 0d59 bfbd
000000d0: fa4c c6bc 1fc2 843d f075 f2bc d233 abbc
000000e0: 3e3e 28bd c92d f23c 4241 0d3e 739f 0dbd
000000f0: 8df0 d0bd e549 a7bd 94c2 09bd f24f 963d
00000100: 49f5 f7bd a901 07bd f26b 26bc 6060 743c
00000110: 520e b93c b55a ba3c f4ef ba3c 5c62 023e
00000120: cdc8 433c 1aa8 bcbd e685 373d eacc 793d
00000130: 283f d4bd 13e6 c8bd ee80 acbd f386 3f3d
00000140: 7c18 fdbd 4b3f 94bd 1f5b 89bd 3e94 e93d
00000150: e0e0 793c 3ba4 8bbd d67f 3e3d e9d6 9c3c
00000160: f2b6 4bbd e435 f8bd 6eae 943d 86ba 783d
00000170: 78dc b83c 08a4 463d d044 db3d ca0f 04bc
00000180: 9a24 063e be31 b53a aca0 c93a 577c 513d
00000190: 60a8 9f3d df2e 05ba a71f c63d cf05 3d3d
000001a0: 7cec 053d fe52 f2bd 6d88 bf3c f36b 883d
000001b0: e2ef 253d dfbc d1bd 4581 193c b0d6 903c
000001c0: d198 a83d 5fed abbd e1b0 efbd e16f ab3b
000001d0: 6aa8 d7bd ee8c e93d a9ec db3d d8df 3b3d
000001e0: 4688 6ebc bab8 e93c 75fd f4bb c975 5c3d
000001f0: 6891 8fbd 3d68 bebd 0f8c e3bc eddc f83c
00000200: a4c0 0e3d 4802 bc3d 165d a3bd f38d 2a3d
00000210: 0f75 a83d 5f8e 08be c915 c73d 61f2 85bd
00000220: 85a6 83bd dfc2 c13c 1367 aebd 621b 02bb
00000230: 6f54 f9bd 10eb e9bd 4c3d b43d 4eb5 a7bd
00000240: 46c7 4ebd 5401 7a3c 751d b7bc 9faa d7bd
00000250: 6d6f 38bd 22eb 68bd 22fc be3d 5410 01bd
00000260: d7d6 bf3d 8052 70bc 736d c53d dd27 d2bc
00000270: 08e7 fa3d 8244 77bc 7b0c 9ebd 1524 4c3d
00000280: 5825 e13d 26f9 a53d df15 af3b e7f0 56bc
00000290: a5b1 a8bc 7277 a43d 62f9 1f3e f6e4 0dbd
000002a0: 96aa 233c 4d93 803d 3d9d ec3c 8174 8fbd
000002b0: aa80 1a3c bc79 973d 2387 4b3d 8438 ad3d
000002c0: c191 f03d 9c9f 0ebd 0dcf 7dbd f5e4 223d
000002d0: 01b8 ba3d aacd f8bc d40c 97bd 1838 37bd
000002e0: 06cb d5bc fac0 87bc 2da5 0fbd 657e 9ebd
000002f0: 130f 3a3d 7f46 dd3d 1a2b 9f3d bae9 c13b
00000300: 48b9 743d 6cbb d23d ff26 993d 4ef0 6f3a
00000310: c608 ef3d 4f5d ff3d b019 923d 9b66 6dbb
00000320: 6b1a 25bd ca40 c7bd 078e 09bd e9c8 6e3d
00000330: 4cf0 bbbd b345 83bd f525 253a 46f4 98bd
00000340: 8438 6f3d 004c 13bc 93a8 003d 1589 3a3c
00000350: 8224 0fbd e69c ab3d 01e2 c63d cd40 fe3d
00000360: b00e b33d 57ab 04be 417c d03d a249 363c
00000370: ce4b 89bd 605e a53c fea2 d8bd 4436 c23d
00000380: bda8 173d 6a85 c0bd f5d4 d4bd 5f8b 9dbd
00000390: a2e7 7d3d 940f dd3d 29c2 36bd 70bb 103d
000003a0: 5bae c53d 7f48 7a3d 7e14 adbd d04e a2bd
000003b0: a8c6 043e 8f55 053d 1c11 2dbd b51b cbbd
000003c0: 1797 8abd 43cf a6bd 5296 b5bd 7666 8abd
000003d0: 29c0 c4bd 9bf8 a7bc 15b1 9ebd 6d87 0fbd
000003e0: cb18 0b3e 3408 c9bd 574e f3bd 4e1e 67bd
000003f0: 4026 8a3d e9c4 b1bd 562f cbbd a9c8 e2bc

conv_block.1.0.bias f4 [4]
-0.1048276 0.07098427 -0.043570302 -0.06373971
00000000: daaf d6bd 3360 913d c676 32bd f789 82bd

conv_block.2.0.weight f4 [4, 8, 3, 3]
0.14392133 -0.094788164 -0.009409261 0.09627897 0.065734126 0.09807351 -0.108731136 -0.14132294
0.21813372 -0.11365749 0.079233974 0.104684524 -0.10873228 -0.056473747 -0.015915357 0.05339968
0.015835164 0.008927859 0.13837871 0.020987764 0.004703075 -0.03319161 0.16677518 -0.0020030327
-0.035495527 -0.061249353 0.013093509 0.1453378 -0.053393863 0.07761723 -0.06964914 -0.00072605064
-0.08308611 0.07390556 0.03261852 -0.019794658 -0.06725694 -0.06257248 -0.103482544 0.031133093
-0.07262565 0.02314909 0.0034385896 0.035173688 -0.0062217494 0.09533675 -0.1394941 -0.09587439
0.14747292 -0.040051576 -0.049756266 0.1209234 0.094832614 -0.05238243 -0.021871556 0.0042069755
0.03996407 0.07782091 -0.016237885 -0.055356815 -0.076011896 -0.09913582 0.05047344 -0.041158777
-0.069602005 0.009794342 -0.0803299 -0.036019456 0.012236707 -0.057366285 -0.15381141 -0.027212694
0.042837553 0.074527316 0.021160232 0.17885253 0.036963694 -0.04603675 0.0031042616 0.0013174125
-0.012518831 -0.08497611 0.07333833 0.045327444 0.01398294 -0.055671774 0.0764795 0.021357134
0.029228881 0.086906366 0.089013845 0.100465275 -0.06566803 0.06595783 -0.09502203 0.024326196
-0.16560507 -0.12028304 0.08732084 0.046254773 0.11192358 -0.014601334 0.06499763 -0.08967265
-0.034026902 0.08758421 0.121878296 0.14113592 0.060670845 0.051356632 0.09415986 0.06258517
0.07342838 0.12624758 0.042497803 0.14158204 0.023880051 -0.1513253 0.11565088 0.08304239
0.10589478 -0.06911516 0.101851955 0.078282766 -0.038938284 0.108624816 -0.036586665 -0.016807454
0.013143856 0.023296284 0.08713621 -0.11365113 -0.008498133 0.1266847 0.06180691 -0.07602945
0.10197758 -0.10343278 0.06253695 -0.027277289 0.1067865 -0.030895991 -0.09628957 0.04680682
0.001933215 0.043781973 -0.014610107 -0.08306856 0.21190426 -0.07280868 -0.14553893 0.06553312
-0.10762613 0.050324593 -0.122088514 -0.010779147 -0.057195064 0.025567666 0.036953047 0.025234606
-0.04524212 -0.13595115 0.025523366 0.108358204 -0.079565026 0.08703335 0.051460993 0.054164704
-0.086994566 -0.004002923 0.071836725 0.04333952 0.06042084 -0.108679 0.06334801 0.04074013
0.08059002 0.043297946 0.14123563 -0.09896093 -0.042217128 -0.13426736 0.10574072 -0.050141238
-0.123417936 0.09761205 0.016576916 -0.026411027 -0.04500601 0.049852494 0.056495104 0.082693644
0.09210516 -0.009140945 0.0724303 0.027508473 0.06169313 -0.07223125 0.09228274 -0.0027165827
-0.0019502823 0.022810113 -0.05556318 0.08310932 -0.048118677 0.059457563 0.081107855 0.10690015
-0.05190938 0.013013485 -0.0027905938 -0.11430795 -0.0026026766 0.013753394 -0.06634911 -0.0071446975
-0.08063566 -0.12367066 -0.04664472 0.13142332 -0.02038591 0.10937347 0.1374305 0.14834785
-0.01612766 0.0056655505 0.009112077 0.012604007 -0.016752278 0.09318615 -0.034390684 -0.05340029
-0.0724635 0.091617495 0.12429697 0.029637503 -0.014008707 -0.10391909 -0.022469638 -0.056292366
-0.044792414 -0.0621279 -0.08670082 0.01654747 0.020384891 -0.019325508 0.031998467 0.115179986
0.08530046 0.050046343 -0.15495723 -0.123470135 0.017310113 0.09559723 -0.07786061 -0.06533945
00000000: 1d60 133e 4c20 c2bd 4d29 1abc e92d c53d
00000010: 9d9f 863d c4da c83d 6eae debd f6b6 10be
00000020: 725e 5f3e 42c5 e8bd 6c45 a23d d764 d63d
00000030: 08af debd 0451 67bd ec60 82bc 9fb9 5a3d
00000040: bfb8 813c 2846 123c 26b3 0d3e 88ee ab3c
00000050: 411c 9a3b edf3 07bd 1dc7 2a3e 5045 03bb
00000060: c263 11bd 9ae0 7abd 2886 563c 6fd3 143e
00000070: 86b3 5abd c8f5 9e3d 35a4 8ebd 6f54 3eba
00000080: 0d29 aabd cc5b 973d ff9a 053d 6828 a2bc
00000090: 02be 89bd 0026 80bd a8ee d3bd d40a ff3c
000000a0: c2bc 94bd 29a3 bd3c f659 613b 4912 103d
000000b0: d1df cbbb ea3f c33d 8bd7 0ebe cb59 c4bd
000000c0: 2403 173e 1f0d 24bd 3acd 4bbd b0a6 f73d
000000d0: 9a37 c23d f58e 56bd fa2b b3bc abda 893b
000000e0: 5db1 233d 9260 9f3d 5005 85bc d4bd 62bd
000000f0: 20ac 9bbd b907 cbbd 3dbd 4e3d 1b96 28bd
00000100: 7f8b 8ebd 7378 203c 0184 a4bd 2389 13bd
00000110: 787c 483c e9f8 6abd bd80 1dbe 28ed debc
00000120: 6e76 2f3d c7a1 983d 3958 ad3c 1e25 373e
00000130: 3e67 173d 0891 3cbd de70 4b3b 07ad ac3a
00000140: c81b 4dbc f407 aebd 6832 963d 45a9 393d
00000150: b418 653c 1608 64bd 49a1 9c3d 28f5 ae3c
00000160: 6871 ef3c f7fb b13d e44c b63d bdc0 cd3d
00000170: f67c 86bd e614 873d e99a c2bd bb47 c73c
00000180: 6094 29be f456 f6bd 45d5 b23d a575 3d3d
00000190: 3138 e53d 6f3a 6fbc 7a1d 853d 4ba6 b7bd
000001a0: cb5f 0bbd 5a5f b33d 549b f93d ef85 103e
000001b0: fe81 783d 555b 523d e2d6 c03d a72c 803d
000001c0: 9e61 963d 0c47 013e 2d12 2e3d e2fa 103e
000001d0: 19a0 c33c 05f5 1abe 5eda ec3d 2112 aa3d
000001e0: 5ddf d83d 408c 8dbd c297 d03d b752 a03d
000001f0: c07d 1fbd b076 de3d e6db 15bd c9af 89bc
00000200: 5459 573c d9d7 be3c 7874 b23d ecc1 e8bd
00000210: c13b 0bbc a2b9 013e 3e29 7d3d 54b5 9bbd
00000220: 9fd9 d03d 91d4 d3bd 5f13 803d 9f74 dfbc
00000230: e1b2 da3d 9719 fdbc 7733 c5bd 82b8 3f3d
00000240: ee63 fd3a ba54 333d 3b5f 6fbc d91f aabd
00000250: 6efd 583e b81c 95bd 2808 15be 3a36 863d
00000260: 176b dcbd 2921 4e3d 8b09 fabd 059b 30bc
00000270: 5f45 6abd 4873 d13c 145c 173d ceb8 ce3c
00000280: cd4f 39bd c736 0bbe 6116 d13c e8ea dd3d
00000290: fdf2 a2bd 8a3e b23d c3c8 523d cfdb 5d3d
000002a0: 352a b2bd f42a 83bb 221f 933d c884 313d
000002b0: d87b 773d 1893 debd 9abc 813d 1fdf 263d
000002c0: 610c a53d 3059 313d 13a0 103e 07ac cabd
000002d0: deeb 2cbd 627d 09be 978e d83d e660 4dbd
000002e0: 8bc2 fcbd d4e8 c73d 50cc 873c f05b d8bc
000002f0: 3958 38bd 2132 4c3d 6967 673d 495b a93d
00000300: a1a1 bc3d e7c3 15bc 5656 943d 7359 e13c
00000310: efb1 7c3d faed 93bd bcfe bc3d b208 32bb
00000320: 9da0 ffba 46dc ba3c 3896 63bd 3835 aa3d
00000330: 1718 45bd c689 733d e01b a63d 77ee da3d
00000340: ee9e 54bd 8336 553c 65e2 36bb 491a eabd
00000350: ab91 2abb ea55 613c 0be2 87bd 111e eabb
00000360: 4f24 a5bd 0b47 fdbd 890e 3fbd d693 063e
00000370: 5a00 a7bc 33ff df3d 95ba 0c3e 80e8 173e
00000380: 281e 84bc 15a6 b93b d24a 153c 0981 4e3c
00000390: 133c 89bc 61d8 be3d 3fdd 0cbd 43ba 5abd
000003a0: be67 94bd f4a1 bb3d 698f fe3d 59ca f23c
000003b0: c784 65bc 88d3 d4bd 3f12 b8bc d392 66bd
000003c0: 4078 37bd d379 7ebd 3390 b1bd 8f8e 873c
000003d0: 37fe a63c 8750 9ebc d310 033d 7ce3 eb3d
000003e0: 02b2 ae3d 65fd 4c3d 1cad 1ebe e9dd fcbd
000003f0: f0cd 8d3c 7bc8 c33d 6275 9fbd b1d0 85bd

conv_block.2.0.bias f4 [4]
-0.0825252 -0.08253595 -0.049649715 -0.051234815
00000000: f902 a9bd 9c08 a9bd 805d 4bbd 99db 51bd

conv_block.3.0.weight f4 [4, 8, 3, 3]
-0.043161664 -0.08240793 -0.021043837 0.10533107 0.019604724 -0.019661214 -0.028320886 0.044458535
0.15412097 -0.073514976 -0.0124602495 0.018030416 -0.09015252 -0.022988144 0.077536836 -0.11013688
0.07499045 -0.043345474 -0.16858847 -0.09031997 0.018267313 0.077468656 0.105053104 0.13861696
0.21414284 0.15055929 0.1873156 0.13825148 -0.04300746 -0.04327282 -0.059204344 -0.04039715
0.10807304 -0.08331699 0.005646508 -0.05333427 0.08408794 -0.07571622 -0.015461388 0.09215214
-0.08550774 -0.0010523571 0.05018387 0.095292605 -0.0386742 0.11717669 -0.08010923 -0.10828383
-0.025730565 0.08306582 -0.13633148 0.085037 -0.053570617 0.03900375 0.036853798 0.033746056
-0.012806882 0.016172804 -0.005071867 0.06846356 0.08468123 -0.050077476 -0.087461606 -0.030476024
-0.06566971 -0.037329663 -0.064272285 -0.020984026 -0.110374175 0.009928404 0.03387823 0.016288865
0.16261145 0.04821924 -0.01767615 0.062694795 0.05092516 -0.008606298 -0.012906807 0.01014843
0.06482354 0.023699345 -0.09950719 -0.035442162 0.0024731949 -0.014624068 0.12834458 -0.11292401
0.028868731 0.12327392 -0.13801752 0.20994368 0.11718162 -0.113509886 -0.12476647 -0.08173111
-0.06313081 0.026577871 0.08843202 0.025736729 -0.123369515 0.10572626 0.14729029 -0.17808533
-0.01962218 -0.02945125 0.12431212 0.052391984 0.0019640995 0.12962878 -0.03970204 -0.016117403
0.0024178585 -0.041666657 0.1213413 0.08965957 0.114619985 0.14388582 0.17572677 -0.0049479073
0.05899353 -0.1503203 0.047856864 0.063463554 0.0019905856 0.09330065 0.043811023 0.06589334
0.0047708894 0.12589544 -0.048758 -0.08565504 0.08597441 0.105063945 0.08211725 -0.05418427
0.01656929 0.037607566 -0.03466004 0.07017658 -0.10374089 -0.037707485 0.0932051 0.057857372
0.10460761 -0.13741817 -0.018214742 -0.049085043 0.07827003 0.10171852 -0.0374037 -0.13588831
0.04427907 0.087138765 -0.07096777 -0.04707423 0.05699805 -0.09751782 -0.13307205 -0.039133802
-0.1223041 -0.06975179 -0.097595036 0.03911203 -0.0019486508 0.03436615 0.1572311 0.037008103
0.047441907 -0.04775885 0.018354004 -0.11576395 -0.09505307 -0.10857775 -0.018757472 -0.06556522
0.09488821 0.024694826 0.033256866 -0.0012147243 0.056185268 -0.11190116 -0.11266259 -0.055703007
0.036047284 -0.075420745 0.0659477 0.002261028 0.05031846 -0.001598671 -0.07465842 -0.02028103
-0.0601943 0.023437817 0.008662284 0.014475147 -0.061387993 0.026470957 -0.113677144 -0.09441745
-0.048274785 -0.019899122 -0.06771046 0.07895443 -0.094852224 0.07880041 -0.015782746 -0.10338881
-0.09974406 -0.09567552 0.05951542 -0.10672812 -0.0053479285 -0.049667817 0.11104565 -0.11437358
0.045815032 -0.16246237 0.102482565 0.0141456 -0.082743496 -0.09619108 -0.014286541 0.10116131
0.10960826 -0.043147393 0.052052625 -0.033887345 -0.09833625 -0.023675038 0.03697877 -0.07494307
0.090168945 -0.046463102 -0.07579219 0.1286222 0.046960972 -0.08334184 0.03645528 -0.09162774
0.015676323 0.055864874 0.11700352 0.034263134 -0.13748059 -0.057396024 -0.0035328837 -0.08461482
0.11656181 0.13868877 -0.14360338 -0.022640113 -0.0938482 -0.037919886 -0.0904399 -0.029201064
00000000: 49ca 30bd 7dc5 a8bd 2064 acbc d1b7 d73d
00000010: 169a a03c 8e10 a1bc 3401 e8bc 271a 363d
00000020: e3d1 1d3e 058f 96bd 1326 4cbc 86b4 933c
00000030: e2a1 b8bd a251 bcbc a2cb 9e3d 728f e1bd
00000040: 9894 993d 068b 31bd 75a2 2cbe adf9 b8bd
00000050: 55a5 953c e3a7 9e3d 1526 d73d 9bf1 0d3e
00000060: 4348 5b3e 372c 1a3e a9cf 3f3e cc91 0d3e
00000070: 9728 30bd d73e 31bd 4180 72bd 7b77 25bd
00000080: 6655 dd3d 19a2 aabd 5806 b93b 0975 5abd
00000090: 4c36 ac3d 1b11 9bbd c351 7dbc 43ba bc3d
000000a0: af1e afbd 3fef 89ba 9a8d 4d3d c528 c33d
000000b0: d768 1ebd 55fa ef3d 4f10 a4bd eac3 ddbd
000000c0: e8c8 d2bc 6a1e aa3d 7b9a 0bbe e127 ae3d
000000d0: dd6c 5bbd 65c2 1f3d 02f4 163d 4e39 0a3d
000000e0: f5d3 51bc d47c 843c e731 a6bb 9f36 8c3d
000000f0: 5a6d ad3d 0a1e 4dbd 121f b3bd dba8 f9bc
00000100: d77d 86bd fde6 18bd 30a1 83bd b1e6 abbc
00000110: db0b e2bd bfaa 223c e6c3 0a3d 3a70 853c
00000120: 9e83 263e 8a81 453d 93cd 90bc 2166 803d
00000130: e796 503d 6e01 0dbc 1277 53bc 9a45 263c
00000140: 34c2 843d 2125 c23c 6dca cbbd cd2b 11bd
00000150: 5315 223b c999 6fbc c36c 033e b444 e7bd
00000160: 1e7e ec3c 0977 fc3d 7754 0dbe 7afb 563e
00000170: ebfc ef3d df77 e8bd 9085 ffbd a462 a7bd
00000180: ba4a 81bd d6b9 d93c d91b b53d d5d5 d23c
00000190: 28a9 fcbd 0287 d83d 44d3 163e 005c 36be
000001a0: b2be a0bc bf43 f1bc 5a97 fe3d fa98 563d
000001b0: 1fb8 003b 68bd 043e 9b9e 22bd a508 84bc
000001c0: ef74 1e3b a8aa 2abd ca81 f83d 709f b73d
000001d0: e2bd ea3d ce56 133e b8f1 333e 0e22 a2bb
000001e0: 33a3 713d 91ed 19be 8f05 443d 2ef9 813d
000001f0: 7c74 023b 6914 bf3d 3073 333d 16f3 863d
00000200: 1f55 9c3b bcea 003e 78b6 47bd e96b afbd
00000210: 5a13 b03d c42b d73d 172d a83d 53f0 5dbd
00000220: 52bc 873c 640a 1a3d b0f7 0dbd bdb8 8f3d
00000230: 1b76 d4bd 2a73 1abd 51e2 be3d dafb 6c3d
00000240: 843c d63d 59b7 0cbe 1537 95bc 660d 49bd
00000250: 0a4c a03d cd51 d03d 9f34 19bd 4e26 0bbe
00000260: f85d 353d cf75 b23d 8d57 91bd e8d0 40bd
00000270: ca76 693d 6cb7 c7bd 0a44 08be c44a 20bd
00000280: 927a fabd 07da 8ebd e8df c7bd f033 203d
00000290: df69 ffba 85c3 0c3d 3101 213e cf95 173d
000002a0: 7252 423d c99e 43bd 235b 963c a615 edbd
000002b0: 2fab c2bd 035e debd 45a9 99bc 0f47 86bd
000002c0: c054 c23d ce4c ca3c 5a38 083d 6237 9fba
000002d0: 8622 663d 6f2c e5bd a5bb e6bd d628 64bd
000002e0: 51a6 133d 3176 9abd 960f 873d c12d 143b
000002f0: bb1a 4e3d 7f8a d1ba 84e6 98bd 6724 a6bc
00000300: 4c8e 76bd aa00 c03c 41ec 0d3c 2b29 6d3c
00000310: fa71 7bbd 9fd9 d83c 90cf e8bd f05d c1bd
00000320: c8bb 45bd 7c03 a3bc c8ab 8abd dcb2 a13d
00000330: e241 c2bd 1c62 a13d d14a 81bc 83bd d3bd
00000340: 9d46 ccbd 87f1 c3bd 71c6 733d 4694 dabd
00000350: ad3d afbb 7b70 4bbd e76b e33d b23c eabd
00000360: 8ba8 3b3d 895c 26be 61e2 d13d f2c2 673c
00000370: 6c75 a9bd d4ff c4bd 1912 6abc a92d cf3d
00000380: 4c7a e03d 52bb 30bd 2235 553d 75cd 0abd
00000390: 8464 c9bd 27f2 c1bc 0d77 173d c17b 99bd
000003a0: 7faa b83d 1850 3ebd f038 9bbd 8ab5 033e
000003b0: 265a 403d 20af aabd 2252 153d 53a7 bbbd
000003c0: a26b 803c 91d2 643d 8b9f ef3d 8057 0c3d
000003d0: b6c7 0cbe 1818 6bbd f487 67bb 894a adbd
000003e0: f5b7 ee3d 6e04 0e3e c40c 13be c277 b9bc
000003f0: 7c33 c0bd e251 1bbd 8e38 b9bd 1237 efbc

conv_block.3.0.bias f4 [4]
-0.055867642 0.048485775 0.07576868 0.030363094
00000000: 78d5 64bd 0599 463d 9c2c 9b3d 06bc f83c

conv_block.4.0.weight f4 [4, 8, 3, 3]
0.088222824 -0.11481642 -0.088783406 0.038989067 -0.083191164 0.090703584 0.099560715 -0.0761681
0.011241379 -0.046759564 -0.07503034 0.1100643 0.095075555 0.10350968 -0.024598612 0.0031600113
0.040561542 0.01666296 0.026514461 0.008867551 0.05481469 0.004044353 0.0657751 -0.0848699
-0.077174716 0.03687843 0.02312089 0.109178364 -0.043533273 0.08247032 -0.07957772 -0.09617392
-0.04995601 0.14530244 0.0886224 0.13033263 0.018709283 0.025645068 0.082118526 0.07335553
-0.087109104 -0.069724575 -0.09229052 0.099643074 -0.028055703 0.008472346 -0.036812183 -0.049644027
-0.10311055 -0.11703315 0.044949334 0.093506716 -0.06773175 0.0018157986 -0.11038236 -0.03163036
0.01986985 -0.10150929 -0.032764226 0.00086273166 -0.03567265 -0.13249518 0.005672991 0.00095875305
-0.043962304 -0.09874279 0.027585605 -0.0045449655 0.05052319 0.02839543 -0.038717866 -0.09738122
0.049449112 -0.009818207 0.023135725 -0.11349548 0.07109034 -0.027467031 -0.079994716 -0.0714519
-0.07535307 0.09816547 -0.0859684 0.0852337 0.09309298 -0.05209122 0.008455492 -0.010291594
-0.007577472 0.035186984 0.061868466 -0.077456065 -0.11637932 0.058106653 -0.049719803 0.025333306
0.0159684 -0.057666272 0.008909279 0.11068633 0.044415243 -0.057628073 -0.16041158 -0.13962007
0.0122313425 0.1733555 0.036843564 0.011397614 -0.07111295 -0.0294956 -0.1133625 -0.019467602
-0.026089625 -0.021343866 0.051429283 0.056338117 0.05044418 0.09871513 -0.112612754 0.047052614
0.01733313 0.029626101 0.03288335 0.041058436 -0.071145214 0.06427649 0.08868749 0.10420787
0.11222644 -0.08781499 -0.094296984 -0.120145544 -0.099806055 -0.09537673 0.024852462 0.088928044
-0.0368286 0.021970343 0.031109286 0.021419311 -0.08309912 -0.04274866 -0.074632674 0.04803752
0.05782389 0.082593046 0.032887086 0.030489199 -0.08497282 0.043583002 -0.0645113 0.03344608
0.0057339524 0.012476493 -0.054211512 -0.11235435 -0.106105536 -0.11093487 -0.04381328 0.04709634
0.12379519 -0.08197989 -0.11160977 -0.07942981 -0.057742435 0.1307361 0.067816816 -0.052895833
0.020210048 0.078112945 0.09760216 -0.15933432 -0.14221607 -0.128533 0.11926367 0.023871558
0.0674953 -0.08007712 -0.1272112 -0.044915076 -0.01697781 -0.08098339 0.032677427 0.011016059
0.008043965 0.050470565 0.0911159 -0.08924825 -0.047315586 0.08883574 -0.047404163 -0.015544516
0.070981234 -0.0012956222 0.007427104 -0.09183179 0.0077521964 -0.06854629 -0.09511122 -0.0901668
-0.017631201 0.06141514 -0.11762128 -0.010622304 0.024182435 -0.0029377209 0.073574215 0.07812705
-0.10104027 0.010399292 0.1150256 0.023451041 -0.01950065 -0.06493838 0.10694985 -0.09182507
0.013022941 -0.105451316 -0.07753272 0.079695955 0.11301361 -0.06690547 0.0049052187 0.08568126
0.06623264 0.07748376 -0.09134617 -0.10617505 0.10283829 -0.030228324 -0.112178534 0.0884086
-0.011904769 -0.07796505 -0.04360394 0.018315801 0.046531677 -0.017096404 -0.055771604 0.054853443
-0.022258477 -0.104527146 0.098480746 0.030005807 -0.0010842065 0.083506346 -0.14438029 -0.041281532
-0.17038958 0.122063115 -0.017326083 0.0368802 0.10779046 -0.10791496 -0.066853136 0.04464268
00000000: 2bae b43d df24 ebbd 13d4 b5bd 00b3 1f3d
00000010: 2160 aabd cdc2 b93d 7de6 cb3d 05fe 9bbd
00000020: c32d 383c f586 3fbd 82a9 99bd 6469 e13d
00000030: f9b6 c23d e2fc d33d 0783 c9bc 3118 4f3b
00000040: dc23 263d c380 883c db34 d93c 3449 113c
00000050: 5e85 603d 7e86 843b 18b5 863d 45d0 adbd
00000060: c70d 9ebd d60d 173d 0568 bd3c e898 df3d
00000070: f24f 32bd 33e6 a83d a5f9 a2bd d5f6 c4bd
00000080: ac9e 4cbd 2aca 143e a97f b53d eb75 053e
00000090: 3644 993c 9b15 d23c c22d a83d 6d3b 963d
000000a0: 4266 b2bd c2cb 8ebd d002 bdbd ab11 cc3d
000000b0: 13d5 e5bc 98cf 0a3c 5fc8 16bd 8957 4bbd
000000c0: a02b d3bd 13af efbd cb1c 383d 7380 bf3d
000000d0: f2b6 8abd 1700 ee3a 2610 e2bd d68e 01bd
000000e0: 18c6 a23c 1ae4 cfbd c833 06bd f128 623a
000000f0: 7c1d 12bd d1ac 07be 7fe4 b93b d454 7b3a
00000100: d111 34bd a939 cabd 35fb e13c efed 94bb
00000110: 68f1 4e3d 889d e83c a096 1ebd ce6f c7bd
00000120: 278b 4a3d 8bdc 20bc 2287 bd3c 5170 e8bd
00000130: d097 913d 8a02 e1bc 45d4 a3bd 6055 92bd
00000140: b652 9abd fa0a c93d 3310 b0bd 028f ae3d
00000150: 88a7 be3d 9a5d 55bd e788 0a3c 139e 28bc
00000160: 714c f8bb 3a20 103d ca69 7d3d 49a1 9ebd
00000170: 4858 eebd 3e01 6e3d fea6 4bbd cb87 cf3c
00000180: 29d0 823c 7833 6cbd 39f8 113c 84af e23d
00000190: c2ec 353d 6a0b 6cbd ef42 24be 90f8 0ebe
000001a0: f865 483c 1b84 313e 47e9 163d 0fbd 3a3c
000001b0: aba3 91bd c2a0 f1bc 992a e8bd 857a 9fbc
000001c0: e9b9 d5bc 55d9 aebc 83a7 523d ccc2 663d
000001d0: 8e9e 4e3d 282b ca3d 84a1 e6bd 3eba 403d
000001e0: 35fe 8d3c 70b2 f23c b1b0 063d e42c 283d
000001f0: 95b4 91bd 64a3 833d c9a1 b53d f06a d53d
00000200: fad6 e53d 58d8 b3bd c71e c1bd de0e f6bd
00000210: 1e67 ccbd e054 c3bd 6497 cb3c e81f b63d
00000220: 96d9 16bd 26fb b33c e7d8 fe3c 8d77 af3c
00000230: df2f aabd 3819 2fbd 04d9 98bd fec2 443d
00000240: bed8 6c3d 8b26 a93d 9cb4 063d 7cc4 f93c
00000250: 3b06 aebd 1784 323d 801e 84bd c2fe 083d
00000260: e1e3 bb3b 346a 4c3c e40c 5ebd 0a1a e6bd
00000270: dc4d d9bd d231 e3bd 8e75 33bd 18e8 403d
00000280: 5588 fd3d 13e5 a7bd aa93 e4bd 19ac a2bd
00000290: 5583 6cbd afdf 053e 8be3 8a3d 4da9 58bd
000002a0: 8b8f a53c aef9 9f3d a4e3 c73d 8928 23be
000002b0: 17a1 11be 289e 03be 8340 f43d 498e c33c
000002c0: fa3a 8a3d 79ff a3bd a743 02be dff8 37bd
000002d0: 0c15 8bbc 9fda a5bd c4d8 053d b37c 343c
000002e0: d6ca 033c 39ba 4e3d f99a ba3d c9c7 b6bd
000002f0: fdcd 41bd 83ef b53d de2a 42bd 6dae 7ebc
00000300: 9c5e 913d ded1 a9ba 105f f33b 4e12 bcbd
00000310: 2306 fe3b ff61 8cbd acc9 c2bd 5fa9 b8bd
00000320: 4f6f 90bc 718e 7b3d 6de3 f0bd 2c09 2ebc
00000330: 3e1a c63c c786 40bb 14ae 963d 1301 a03d
00000340: 33ee cebd cb61 2a3c 8b92 eb3d 661c c03c
00000350: d4bf 9fbc 6afe 84bd 8608 db3d c80e bcbd
00000360: 2c5e 553c dcf6 d7bd 7ac9 9ebd a237 a33d
00000370: ae73 e73d bc05 89bd f5bb a03b a879 af3d
00000380: faa4 873d ceaf 9e3d b313 bbbd 4e72 d9bd
00000390: e29c d23d 64a1 f7bc dcbd e5bd 910f b53d
000003a0: 380c 43bc 24ac 9fbd 0c9a 32bd 050b 963c
000003b0: 0098 3e3d c20d 8cbc c470 64bd 01ae 603d
000003c0: 6957 b6bc 5412 d6bd 46b0 c93d bdce f53c
000003d0: ef1b 8eba 6005 ab3d 6dd8 13be d316 29bd
000003e0: 9b7a 2ebe 3afc f93d 6eef 8dbc b10f 173d
000003f0: 3fc1 dc3d 8502 ddbd 4cea 88bd 3edb 363d

conv_block.4.0.bias f4 [4]
-0.0927494 -0.033729244 0.03115586 0.10934081
00000000: 66f3 bdbd ad27 0abd 933a ff3c 13ee df3d

conv_block.5.0.weight f4 [4, 8, 3, 3]
0.09128144 -0.10868318 0.02893363 0.05624455 -0.06206195 0.10093945 -8.676631e-05 0.080752395
0.0949192 0.051507834 0.025424255 0.010955897 0.02474376 0.050694436 0.037624955 0.0753527
-0.024419205 -0.049860854 -0.0917487 -0.0039529977 -0.10583196 0.021397654 -0.11764852 0.06958458
0.09480858 0.022580504 0.019490894 0.013548067 -0.02496184 -0.060717728 0.065675296 -0.0011864553
0.070212014 0.057116263 -0.09772144 0.04315013 0.06272907 -0.030954817 -0.060996268 0.06562441
0.08475291 -0.047498874 -0.081543125 -0.0010326828 -0.0087865805 -0.11766076 -0.11931158 -0.0660231
0.09185922 -0.077197 -0.004059856 0.059875682 -0.09202572 0.027052311 -0.026346097 0.018695734
-0.07208099 -0.110018864 0.07900983 -0.110299826 -0.044458594 0.048149865 -0.0724287 -0.0033770509
-0.032670557 -0.06393195 0.043169867 0.012515403 0.02900216 0.10345953 0.023565752 -0.10438319
0.09833163 0.0003878915 0.0320116 0.019525623 0.11477111 0.010110341 0.061222974 -0.10168849
0.11213931 0.03610545 -0.10929858 -0.10223044 -0.07603165 -0.0034209392 -0.10866535 -0.009413159
-0.01586746 0.06781238 -0.057715572 -0.009914301 0.009225132 0.11757549 0.14679675 0.098191865
-0.033252824 0.04466634 0.008925752 -0.108447194 0.008107763 0.07580249 -0.0201198 0.08213097
-0.07818005 -0.051787205 0.045545183 0.051687658 -0.07210947 0.054425053 0.055783544 -0.08132873
0.05218865 0.05759909 0.031819828 0.05065618 0.005258285 -0.008466177 -0.068482704 -0.07993687
0.051341284 -0.010524745 0.1043018 -0.04212792 -0.06730163 0.025764126 -0.041753925 -0.08819936
-0.084424786 -0.115279526 -0.04525744 -0.05113037 0.09936974 -0.11990592 0.057963897 -0.08134847
-0.12112122 0.032350067 -0.014093494 -0.17905395 -0.005792691 -0.013025604 0.010547034 -0.04109916
0.012843521 0.061501425 0.09336696 0.019588057 -0.017759094 0.032586917 -0.040937148 0.0868501
-0.024494428 -0.087082006 0.105134994 0.036548615 0.004967845 0.06855501 -0.017033782 -0.073360234
-0.00140385 0.018485988 -0.057785768 0.10806274 -0.07485056 -0.058763813 -0.06502653 0.00755732
-0.06385479 -0.10115089 -0.017533336 0.086645946 0.011040747 -0.015228664 0.11703266 0.051277712
-0.06704752 0.09458336 -0.095813826 -0.11147799 -0.029697156 -0.06657674 0.008962758 -0.09299238
-0.0805386 0.033964753 -0.09221599 0.004362933 0.035993148 0.01768055 0.08889291 0.10248487
0.05967549 -0.00020661208 -0.048338484 -0.08520214 -0.0018470407 0.027126415 0.007171938 0.08296454
-0.10144878 -0.04631404 -0.071219206 0.083353266 -0.076378845 -0.018915752 0.10340216 -0.06681459
-0.04684045 0.011285999 0.06192084 -0.0144047495 -0.067135796 0.022249112 0.07795615 -0.07150026
0.043183718 0.060105678 -0.016218431 0.0151146045 0.07420319 0.07478089 -0.108836934 -0.11770452
0.034729663 0.0042568534 -0.030408494 0.109541 0.09215546 0.021620095 0.09996635 -0.029846836
-0.04262922 -0.08107912 -0.078168854 0.037749045 0.02258411 -0.023203311 -0.065461874 0.048264414
0.058606587 -0.065614656 -0.07786876 -0.03395787 -0.019237533 -0.11494586 -0.11718092 -0.11372168
0.008742499 -0.00071995537 0.10376446 0.0058869873 0.05075732 -0.025943924 0.07889324 -0.026098477
00000000: c3f1 ba3d 4995 debd 3806 ed3c af60 663d
00000010: ac34 7ebd 58b9 ce3d 4ff6 b5b8 8361 a53d
00000020: ff64 c23d e1f9 523d 8746 d03c 5d80 333c
00000030: 6db3 ca3c f8a4 4f3d a01c 1a3d 8452 9a3d
00000040: c90a c8bc e53a 4cbd bee6 bbbd 2688 81bb
00000050: 6dbe d8bd 224a af3c b5f1 f0bd 5c82 8e3d
00000060: 002b c23d c0fa b83c 5eab 9f3c b6f8 5d3c
00000070: c67c ccbc 27b3 78bd c580 863d d582 9bba
00000080: 51cb 8f3d bef2 693d 2e22 c8bd 31be 303d
00000090: 1978 803d f594 fdbc 39d7 79bd 1766 863d
000000a0: ef92 ad3d 2e8e 42bd 1500 a7bd 165b 87ba
000000b0: 97f5 0fbc 20f8 f0bd a159 f4bd 1e37 87bd
000000c0: b020 bc3d 7619 9ebd 8a08 85bb 3440 753d
000000d0: fb77 bcbd cf9c dd3c c5d3 d7bc cc27 993c
000000e0: 339f 93bd 9251 e1bd e8cf a13d e0e4 e1bd
000000f0: 371a 36bd cb38 453d 8055 94bd 8351 5dbb
00000100: 90d1 05bd c1ee 82bd e3d2 303d 680d 4d3c
00000110: f095 ed3c 97e2 d33d f70c c13c dbc6 d5bd
00000120: 1862 c93d ea5d cb39 981e 033d 33f4 9f3c
00000130: 1e0d eb3d d8a5 253c f1c4 7a3d 0e42 d0bd
00000140: 4ba9 e53d 4fe3 133d efd7 dfbd 315e d1bd
00000150: 7bb6 9bbd d631 60bb f08b debd a739 1abc
00000160: 7afc 81bc 38e1 8a3d 2a67 6cbd 986f 22bc
00000170: 0225 173c 6bcb f03d e351 163e d118 c93d
00000180: 1d34 08bd 0df4 363d 513d 123c 9019 debd
00000190: 6cd6 043c 563e 9b3d 47d2 a4bc 4834 a83d
000001a0: dd1c a0bd d21e 54bd 968d 3a3d 70b6 533d
000001b0: 21ae 93bd ceec 5e3d 497d 643d ad8f a6bd
000001c0: c4c3 553d 06ed 6b3d 8255 023d db7c 4f3d
000001d0: b14d ac3b b8b5 0abc a940 8cbd f1b5 a3bd
000001e0: 3d4b 523d fb6f 2cbc 2f9c d53d 538e 2cbd
000001f0: 70d5 89bd 4a0f d33c 2a06 2bbd dea1 b4bd
00000200: e7e6 acbd ac17 ecbd de5f 39bd 146e 51bd
00000210: 5d82 cb3d 3c91 f5bd 8d6b 6d3d 079a a6bd
00000220: 670e f8bd 8181 043d 66e8 66bc eb59 37be
00000230: 9dd0 bdbb 5869 55bc 78cd 2c3c 9857 28bd
00000240: a26d 523c ebe8 7b3d 2d37 bf3d 2277 a03c
00000250: 857b 91bc dc79 053d b6ad 27bd 77de b13d
00000260: 8aa8 c8bc 0d58 b2bd 0451 d73d 00b4 153d
00000270: 4ec9 a23b 9266 8c3d 6e8a 8bbc e43d 96bd
00000280: 6401 b8ba ed6f 973c c5b0 6cbd ff4f dd3d
00000290: 404b 99bd 53b2 70bd a12c 85bd 65a3 f73b
000002a0: 4dc6 82bd 3328 cfbd 12a2 8fbc 6e73 b13d
000002b0: 40e4 343c a581 79bc d2ae ef3d 9408 523d
000002c0: 3650 89bd ecb4 c13d 0a3a c4bd 934e e4bd
000002d0: 7347 f3bc 6359 88bd 88d8 123c ca72 bebd
000002e0: 6cf1 a4bd a01e 0b3d bddb bcbd eff6 8e3b
000002f0: 8d6d 133d cdd6 903c 7c0d b63d 96e3 d13d
00000300: 496e 743d 02a6 58b9 93fe 45bd 767e aebd
00000310: 6718 f2ba 3738 de3c 9402 eb3b 50e9 a93d
00000320: 61c4 cfbd cab3 3dbd 60db 91bd 1eb5 aa3d
00000330: 836c 9cbd 35f5 9abc 83c4 d33d 16d6 88bd
00000340: c6db 3fbd e9e8 383c b5a0 7d3d e601 6cbc
00000350: 7e7e 89bd c543 b63c 79a7 9f3d ba6e 92bd
00000360: 69e1 303d 5f31 763d 84dc 84bc 3fa3 773c
00000370: d8f7 973d b926 993d e6e5 debd 110f f1bd
00000380: b140 0e3d 137d 8b3b 3c1b f9bc 0857 e03d
00000390: 00bc bc3d a01c b13c 28bb cc3d 5a81 f4bc
000003a0: fa9b 2ebd cf0c a6bd fe16 a0bd be9e 1a3d
000003b0: 5002 b93c df14 bebc e010 86bd e8b0 453d
000003c0: 760d 703d fa60 86bd a879 9fbd 6817 0bbd
000003d0: 0898 9dbc bc68 ebbd 8dfc efbd eae6 e8bd
000003e0: b33c 0f3c 63bb 3cba 7682 d43d a1e7 c03b
000003f0: e8e6 4f3d 5a88 d4bc c792 a13d 79cc d5bc

conv_block.5.0.bias f4 [4]
-0.053091496 0.01274995 -0.007915192 -0.0985652
00000000: 7876 59bd 2be5 503c b9ae 01bc 8ddc c9bd

conv_block.6.0.weight f4 [4, 8, 3, 3]
0.09774835 0.06876194 0.07851735 -0.054149177 0.036120944 0.013487118 0.07094649 -0.05974435
-0.05292127 0.07562379 0.09408895 0.07358169 -0.050982006 0.08901049 -0.11767772 0.11380636
-0.009579941 -0.04299165 -0.1031025 0.08583727 -0.039484445 0.030731585 -0.101812 0.070886016
-0.097680196 0.01068959 0.09856867 -0.02569907 -0.11331405 -0.013373139 -0.026644183 -0.04829353
0.06511791 0.058230225 -0.042835668 0.115028515 -0.047935907 0.06963035 0.09058621 0.06364222
-0.04621082 0.09570226 -0.017407449 -0.020745993 -0.12974606 -0.0051800446 -0.0845908 0.1042474
0.091537796 0.015665565 0.10571375 0.09926204 -0.10261825 -0.104444504 0.0944959 -0.023681834
0.051343143 0.048244648 -0.011879255 -0.0633039 0.1037038 -0.11283436 -0.07688944 0.11405633
-0.07100615 0.08173953 0.07977265 0.04992795 -0.11261277 0.016447904 -0.11174555 0.017576331
0.023045152 -0.09615992 0.09157336 -0.06390999 -0.0635653 0.031776253 0.07992085 0.017661383
0.080641575 0.0030238258 0.044247523 -0.06983782 0.05789934 0.017978186 -0.08035779 -0.00083936466
0.037661027 -0.11156052 -0.043783493 -0.014335506 0.044637363 -0.071113996 -0.018228205 -0.016508315
-0.091416195 -0.104837805 -0.016963422 0.02281708 0.030698445 0.038840245 0.05478298 -0.009084739
-0.111454345 -0.07191829 -0.026505508 0.10556063 0.048869282 0.04973535 -0.008072192 0.10622944
-0.07780943 -0.057388987 -0.0296031 0.109089516 -0.06237805 -0.0072275945 0.100923195 -0.09205936
-0.049227197 0.0042811637 0.106370635 -0.084136404 -0.034619708 0.11333663 0.0076101017 -0.064783856
0.09068995 0.06132795 -0.0035733858 -0.102647126 0.003686821 -0.092526674 -0.07090011 -0.06603822
-0.021139307 0.087256625 0.02625367 -0.03993259 -0.04446332 -0.0040616416 0.00078662427 0.07899523
0.08122597 0.05935164 0.023734871 0.052978616 -0.07975143 0.10284563 0.019115688 -0.11305357
0.012314944 -0.093282856 -0.07586501 0.07756684 -0.0554306 -0.04749889 -0.113130376 -0.072152525
-0.032160833 -0.05782777 0.011912498 -0.021132767 -0.007060623 0.09363119 0.0064569945 -0.1755102
-0.025093911 -0.13962804 -0.19438529 -0.09703708 -0.100865476 0.060165145 0.10211031 -0.09310615
-0.032414045 -0.0674704 -0.006132184 0.00854998 0.08197374 0.0839682 0.054158278 0.05915568
0.051044367 -0.102320544 -0.04068734 -0.0730895 -0.044768475 0.022956742 -0.031086612 -0.09640492
-0.0018439809 0.034619957 -0.09921607 -0.008687266 -0.04015466 -0.027316032 -0.0021837128 0.11152609
0.035861526 -0.0872462 -0.07355166 -0.04214599 0.09813109 0.0012964588 0.042518605 0.11097858
-0.1150288 0.096569195 -0.060583893 0.0100412695 -0.055140182 0.09418121 0.09246628 -0.009940994
-0.06572036 0.011054331 0.0006822029 -0.0036382705 -0.089428194 -0.06524192 0.08019576 0.085753284
-0.04038671 0.114284694 0.112927735 0.021178756 0.025093453 -0.061496377 0.05810562 0.078705855
0.054096155 0.04285476 -0.013035992 0.014914562 0.09962429 0.109068036 -0.016622955 -0.06755177
0.07166546 -0.091363564 0.020955732 -0.038442492 0.11354289 0.040679745 -0.0021688065 0.09983753
0.0389803 0.08996953 0.076932766 0.058938503 0.058029037 -0.050098844 -0.017767802 0.0029044559
00000000: 4930 c83d 0fd3 8c3d b4cd a03d 87cb 5dbd
00000010: 8ef3 133d 13f9 5c3c 654c 913d 7eb6 74bd
00000020: f9c3 58bd a5e0 9a3d b5b1 c03d ffb1 963d
00000030: 82d2 50bd 224b b63d 0401 f1bd 4f13 e93d
00000040: 2ff5 1cbc 0318 30bd 6727 d3bd 73cb af3d
00000050: 71ba 21bd cec0 fb3c cf82 d0bd b02c 913d
00000060: 8e0c c8bd 6423 2f3c 5fde c93d db86 d2bc
00000070: 3211 e8bd 031b 5bbc e744 dabc 70cf 45bd
00000080: 8a5c 853d d182 6e3d 7474 2fbd 1294 eb3d
00000090: 7158 44bd 5b9a 8e3d 4385 b93d da56 823d
000000a0: 8f47 3dbd 8cff c33d 119a 8ebc 80f3 a9bc
000000b0: 27dc 04be 5dbd a9bb f13d adbd a97f d53d
000000c0: 2b78 bb3d 1255 803c 7380 d83d e549 cb3d
000000d0: 8429 d2bd 00e7 d5bd 1187 c13d 6800 c2bc
000000e0: 304d 523d 2e9c 453d 35a1 42bc 7aa5 81bd
000000f0: a862 d43d b315 e7bd 3678 9dbd 5d96 e93d
00000100: ac6b 91bd 0e67 a73d d85f a33d 4081 4c3d
00000110: 86a1 e6bd c1bd 863c dada e4bd 3dfc 8f3c
00000120: 30c9 bc3c 7eef c4bd d08a bb3d 3ee3 82bd
00000130: 862e 82bd d127 023d 8bad a33d 9bae 903c
00000140: 6927 a53d 612b 463b e43c 353d 2207 8fbd
00000150: dc27 6d3d fd46 933c a092 a4bd cf08 5cba
00000160: 7342 1a3d d879 e4bd 5256 33bd 78df 6abc
00000170: abd5 363d 37a4 91bd 5153 95bc 723c 87bc
00000180: 6a38 bbbd 34b5 d6bd e0f6 8abc e3ea ba3c
00000190: 4e7b fb3c f316 1f3d 1e64 603d 28d8 14bc
000001a0: 2d42 e4bd e549 93bd 1422 d9bc 2c30 d83d
000001b0: 282b 483d 4bb7 4b3d 3a41 04bc d28e d93d
000001c0: 8d5a 9fbd b710 6bbd 3382 f2bc 536a df3d
000001d0: 2080 7fbd 75d5 ecbb d2b0 ce3d 9e89 bcbd
000001e0: 75a2 49bd 0149 8c3b d9d8 d93d b54f acbd
000001f0: 65cd 0dbd 091d e83d 295e f93b 66ad 84bd
00000200: a7bb b93d 0433 7b3d 772f 6abb a838 d2bd
00000210: 989e 713b a07e bdbd 1434 91bd 0c3f 87bd
00000220: 572c adbc 9ab3 b23d f011 d73c 5b90 23bd
00000230: 2c1f 36bd 8517 85bb 7635 4e3a 40c8 a13d
00000240: cd59 a63d b51a 733d a26f c23c 1b00 593d
00000250: b854 a3bd bba0 d23d 8198 9c3c a188 e7bd
00000260: 9ec4 493c 150b bfbd 1d5f 9bbd 5ddb 9e3d
00000270: 320b 63bd 328e 42bd e6b0 e7bd b4c4 93bd
00000280: 14bb 03bd d0dc 6cbd a32c 433c a01e adbc
00000290: cc5c e7bb b6c1 bf3d 3295 d33b f2b8 33be
000002a0: bf91 cdbc a7fa 0ebe f00c 47be 60bb c6bd
000002b0: 8f92 cebd ba6f 763d 361f d13d 70ae bebd
000002c0: 97c4 04bd ec2d 8abd 7df0 c8bb 3715 0c3c
000002d0: d9e1 a73d 85f7 ab3d 12d5 5d3d 3a4d 723d
000002e0: e613 513d 6f8d d1bd c5a7 26bd f3af 95bd
000002f0: 265f 37bd c70f bc3c 5aa9 febc f16f c5bd
00000300: bbb1 f1ba a8cd 0d3d cb31 cbbd 0955 0ebc
00000310: 3679 24bd dfc5 dfbc 9f1c 0fbb ca67 e43d
00000320: 89e3 123d 23ae b2bd 41a2 96bd 46a1 2cbd
00000330: f4f8 c83d f0ed a93a fd27 2e3d bd48 e33d
00000340: 3894 ebbd 12c6 c53d d126 78bd 2384 243c
00000350: acda 61bd 14e2 c03d f65e bd3d 8ddf 22bc
00000360: 6598 86bd 3a1d 353c ddd5 323a 0d70 6ebb
00000370: 2126 b7bd 8e9d 85bd ad3d a43d 6b9f af3d
00000380: 896c 25bd 180e ea3d a846 e73d 127f ad3c
00000390: c990 cd3c a0e3 7bbd 2900 6e3d 8930 a13d
000003a0: ee93 5d3d 7988 2f3d ea94 55bc 355c 743c
000003b0: d207 cc3d 105f df3d dd2c 88bc 9558 8abd
000003c0: 57c5 923d d21c bbbd 5bab ab3c e075 1dbd
000003d0: 2d89 e83d ce9f 263d 8922 0ebb 9e77 cc3d
000003e0: cfa9 1f3d f241 b83d ed8e 9d3d 8069 713d
000003f0: dbaf 6d3d 7234 4dbd c88d 91bc af58 3e3b

conv_block.6.0.bias f4 [4]
-0.012672402 -0.030111073 -0.07002347 0.043110423
00000000: e89f 4fbc 7fab f6bc 7768 8fbd 8e94 303d
